{"format": "graph-model", "generatedBy": "2.5.0", "convertedBy": "TensorFlow.js Converter v3.6.0", "signature": {"outputs": {"embeddings": {"name": "embeddings"}}}, "modelTopology": {"node": [{"name": "MobileFaceNet/Logits/LinearConv1x1/BatchNorm/moving_mean", "op": "Const", "attr": {"value": {"tensor": {"dtype": "DT_FLOAT", "tensorShape": {"dim": [{"size": "128"}]}}}, "dtype": {"type": "DT_FLOAT"}}}, {"name": "MobileFaceNet/Logits/LinearConv1x1/BatchNorm/moving_variance", "op": "Const", "attr": {"dtype": {"type": "DT_FLOAT"}, "value": {"tensor": {"dtype": "DT_FLOAT", "tensorShape": {"dim": [{"size": "128"}]}}}}}, {"name": "MobileFaceNet/Logits/Conv/BatchNorm/moving_mean", "op": "Const", "attr": {"value": {"tensor": {"dtype": "DT_FLOAT", "tensorShape": {"dim": [{"size": "512"}]}}}, "dtype": {"type": "DT_FLOAT"}}}, {"name": "MobileFaceNet/Logits/Conv/BatchNorm/moving_variance", "op": "Const", "attr": {"value": {"tensor": {"dtype": "DT_FLOAT", "tensorShape": {"dim": [{"size": "512"}]}}}, "dtype": {"type": "DT_FLOAT"}}}, {"name": "MobileFaceNet/Logits/SeparableConv2d/BatchNorm/moving_mean", "op": "Const", "attr": {"value": {"tensor": {"dtype": "DT_FLOAT", "tensorShape": {"dim": [{"size": "512"}]}}}, "dtype": {"type": "DT_FLOAT"}}}, {"name": "MobileFaceNet/Logits/SeparableConv2d/BatchNorm/moving_variance", "op": "Const", "attr": {"value": {"tensor": {"dtype": "DT_FLOAT", "tensorShape": {"dim": [{"size": "512"}]}}}, "dtype": {"type": "DT_FLOAT"}}}, {"name": "MobileFaceNet/Conv2d_7/BatchNorm/moving_mean", "op": "Const", "attr": {"value": {"tensor": {"dtype": "DT_FLOAT", "tensorShape": {"dim": [{"size": "512"}]}}}, "dtype": {"type": "DT_FLOAT"}}}, {"name": "MobileFaceNet/Conv2d_7/BatchNorm/moving_variance", "op": "Const", "attr": {"value": {"tensor": {"dtype": "DT_FLOAT", "tensorShape": {"dim": [{"size": "512"}]}}}, "dtype": {"type": "DT_FLOAT"}}}, {"name": "MobileFaceNet/Conv_30/BatchNorm/moving_mean", "op": "Const", "attr": {"dtype": {"type": "DT_FLOAT"}, "value": {"tensor": {"dtype": "DT_FLOAT", "tensorShape": {"dim": [{"size": "128"}]}}}}}, {"name": "MobileFaceNet/Conv_30/BatchNorm/moving_variance", "op": "Const", "attr": {"dtype": {"type": "DT_FLOAT"}, "value": {"tensor": {"dtype": "DT_FLOAT", "tensorShape": {"dim": [{"size": "128"}]}}}}}, {"name": "MobileFaceNet/SeparableConv2d_15/BatchNorm/moving_mean", "op": "Const", "attr": {"value": {"tensor": {"dtype": "DT_FLOAT", "tensorShape": {"dim": [{"size": "256"}]}}}, "dtype": {"type": "DT_FLOAT"}}}, {"name": "MobileFaceNet/SeparableConv2d_15/BatchNorm/moving_variance", "op": "Const", "attr": {"dtype": {"type": "DT_FLOAT"}, "value": {"tensor": {"dtype": "DT_FLOAT", "tensorShape": {"dim": [{"size": "256"}]}}}}}, {"name": "MobileFaceNet/Conv_29/BatchNorm/moving_mean", "op": "Const", "attr": {"dtype": {"type": "DT_FLOAT"}, "value": {"tensor": {"dtype": "DT_FLOAT", "tensorShape": {"dim": [{"size": "256"}]}}}}}, {"name": "MobileFaceNet/Conv_29/BatchNorm/moving_variance", "op": "Const", "attr": {"value": {"tensor": {"dtype": "DT_FLOAT", "tensorShape": {"dim": [{"size": "256"}]}}}, "dtype": {"type": "DT_FLOAT"}}}, {"name": "MobileFaceNet/Conv_29/weights", "op": "Const", "attr": {"value": {"tensor": {"dtype": "DT_FLOAT", "tensorShape": {"dim": [{"size": "1"}, {"size": "1"}, {"size": "128"}, {"size": "256"}]}}}, "dtype": {"type": "DT_FLOAT"}}}, {"name": "MobileFaceNet/Conv_29/BatchNorm/gamma", "op": "Const", "attr": {"value": {"tensor": {"dtype": "DT_FLOAT", "tensorShape": {"dim": [{"size": "256"}]}}}, "dtype": {"type": "DT_FLOAT"}}}, {"name": "MobileFaceNet/Conv_29/BatchNorm/beta", "op": "Const", "attr": {"dtype": {"type": "DT_FLOAT"}, "value": {"tensor": {"dtype": "DT_FLOAT", "tensorShape": {"dim": [{"size": "256"}]}}}}}, {"name": "MobileFaceNet/MobileFaceNet/Conv2d_6_InvResBlock_1/Conv/mul", "op": "Const", "attr": {"value": {"tensor": {"dtype": "DT_FLOAT", "tensorShape": {"dim": [{"size": "256"}]}}}, "dtype": {"type": "DT_FLOAT"}}}, {"name": "MobileFaceNet/SeparableConv2d_15/depthwise_weights", "op": "Const", "attr": {"dtype": {"type": "DT_FLOAT"}, "value": {"tensor": {"dtype": "DT_FLOAT", "tensorShape": {"dim": [{"size": "3"}, {"size": "3"}, {"size": "256"}, {"size": "1"}]}}}}}, {"name": "MobileFaceNet/SeparableConv2d_15/BatchNorm/gamma", "op": "Const", "attr": {"value": {"tensor": {"dtype": "DT_FLOAT", "tensorShape": {"dim": [{"size": "256"}]}}}, "dtype": {"type": "DT_FLOAT"}}}, {"name": "MobileFaceNet/SeparableConv2d_15/BatchNorm/beta", "op": "Const", "attr": {"dtype": {"type": "DT_FLOAT"}, "value": {"tensor": {"dtype": "DT_FLOAT", "tensorShape": {"dim": [{"size": "256"}]}}}}}, {"name": "MobileFaceNet/MobileFaceNet/Conv2d_6_InvResBlock_1/SeparableConv2d/mul", "op": "Const", "attr": {"value": {"tensor": {"dtype": "DT_FLOAT", "tensorShape": {"dim": [{"size": "256"}]}}}, "dtype": {"type": "DT_FLOAT"}}}, {"name": "MobileFaceNet/Conv_30/weights", "op": "Const", "attr": {"dtype": {"type": "DT_FLOAT"}, "value": {"tensor": {"dtype": "DT_FLOAT", "tensorShape": {"dim": [{"size": "1"}, {"size": "1"}, {"size": "256"}, {"size": "128"}]}}}}}, {"name": "MobileFaceNet/Conv_30/BatchNorm/gamma", "op": "Const", "attr": {"value": {"tensor": {"dtype": "DT_FLOAT", "tensorShape": {"dim": [{"size": "128"}]}}}, "dtype": {"type": "DT_FLOAT"}}}, {"name": "MobileFaceNet/Conv_30/BatchNorm/beta", "op": "Const", "attr": {"dtype": {"type": "DT_FLOAT"}, "value": {"tensor": {"dtype": "DT_FLOAT", "tensorShape": {"dim": [{"size": "128"}]}}}}}, {"name": "MobileFaceNet/Conv_28/BatchNorm/moving_mean", "op": "Const", "attr": {"value": {"tensor": {"dtype": "DT_FLOAT", "tensorShape": {"dim": [{"size": "128"}]}}}, "dtype": {"type": "DT_FLOAT"}}}, {"name": "MobileFaceNet/Conv_28/BatchNorm/moving_variance", "op": "Const", "attr": {"value": {"tensor": {"dtype": "DT_FLOAT", "tensorShape": {"dim": [{"size": "128"}]}}}, "dtype": {"type": "DT_FLOAT"}}}, {"name": "MobileFaceNet/SeparableConv2d_14/BatchNorm/moving_mean", "op": "Const", "attr": {"value": {"tensor": {"dtype": "DT_FLOAT", "tensorShape": {"dim": [{"size": "256"}]}}}, "dtype": {"type": "DT_FLOAT"}}}, {"name": "MobileFaceNet/SeparableConv2d_14/BatchNorm/moving_variance", "op": "Const", "attr": {"value": {"tensor": {"dtype": "DT_FLOAT", "tensorShape": {"dim": [{"size": "256"}]}}}, "dtype": {"type": "DT_FLOAT"}}}, {"name": "MobileFaceNet/Conv_27/BatchNorm/moving_mean", "op": "Const", "attr": {"value": {"tensor": {"dtype": "DT_FLOAT", "tensorShape": {"dim": [{"size": "256"}]}}}, "dtype": {"type": "DT_FLOAT"}}}, {"name": "MobileFaceNet/Conv_27/BatchNorm/moving_variance", "op": "Const", "attr": {"value": {"tensor": {"dtype": "DT_FLOAT", "tensorShape": {"dim": [{"size": "256"}]}}}, "dtype": {"type": "DT_FLOAT"}}}, {"name": "MobileFaceNet/Conv_27/weights", "op": "Const", "attr": {"dtype": {"type": "DT_FLOAT"}, "value": {"tensor": {"dtype": "DT_FLOAT", "tensorShape": {"dim": [{"size": "1"}, {"size": "1"}, {"size": "128"}, {"size": "256"}]}}}}}, {"name": "MobileFaceNet/Conv_27/BatchNorm/gamma", "op": "Const", "attr": {"dtype": {"type": "DT_FLOAT"}, "value": {"tensor": {"dtype": "DT_FLOAT", "tensorShape": {"dim": [{"size": "256"}]}}}}}, {"name": "MobileFaceNet/Conv_27/BatchNorm/beta", "op": "Const", "attr": {"value": {"tensor": {"dtype": "DT_FLOAT", "tensorShape": {"dim": [{"size": "256"}]}}}, "dtype": {"type": "DT_FLOAT"}}}, {"name": "MobileFaceNet/MobileFaceNet/Conv2d_6_InvResBlock_0/Conv/mul", "op": "Const", "attr": {"dtype": {"type": "DT_FLOAT"}, "value": {"tensor": {"dtype": "DT_FLOAT", "tensorShape": {"dim": [{"size": "256"}]}}}}}, {"name": "MobileFaceNet/SeparableConv2d_14/depthwise_weights", "op": "Const", "attr": {"value": {"tensor": {"dtype": "DT_FLOAT", "tensorShape": {"dim": [{"size": "3"}, {"size": "3"}, {"size": "256"}, {"size": "1"}]}}}, "dtype": {"type": "DT_FLOAT"}}}, {"name": "MobileFaceNet/SeparableConv2d_14/BatchNorm/gamma", "op": "Const", "attr": {"value": {"tensor": {"dtype": "DT_FLOAT", "tensorShape": {"dim": [{"size": "256"}]}}}, "dtype": {"type": "DT_FLOAT"}}}, {"name": "MobileFaceNet/SeparableConv2d_14/BatchNorm/beta", "op": "Const", "attr": {"dtype": {"type": "DT_FLOAT"}, "value": {"tensor": {"dtype": "DT_FLOAT", "tensorShape": {"dim": [{"size": "256"}]}}}}}, {"name": "MobileFaceNet/MobileFaceNet/Conv2d_6_InvResBlock_0/SeparableConv2d/mul", "op": "Const", "attr": {"dtype": {"type": "DT_FLOAT"}, "value": {"tensor": {"dtype": "DT_FLOAT", "tensorShape": {"dim": [{"size": "256"}]}}}}}, {"name": "MobileFaceNet/Conv_28/weights", "op": "Const", "attr": {"value": {"tensor": {"dtype": "DT_FLOAT", "tensorShape": {"dim": [{"size": "1"}, {"size": "1"}, {"size": "256"}, {"size": "128"}]}}}, "dtype": {"type": "DT_FLOAT"}}}, {"name": "MobileFaceNet/Conv_28/BatchNorm/gamma", "op": "Const", "attr": {"value": {"tensor": {"dtype": "DT_FLOAT", "tensorShape": {"dim": [{"size": "128"}]}}}, "dtype": {"type": "DT_FLOAT"}}}, {"name": "MobileFaceNet/Conv_28/BatchNorm/beta", "op": "Const", "attr": {"value": {"tensor": {"dtype": "DT_FLOAT", "tensorShape": {"dim": [{"size": "128"}]}}}, "dtype": {"type": "DT_FLOAT"}}}, {"name": "MobileFaceNet/Conv_26/BatchNorm/moving_mean", "op": "Const", "attr": {"dtype": {"type": "DT_FLOAT"}, "value": {"tensor": {"dtype": "DT_FLOAT", "tensorShape": {"dim": [{"size": "128"}]}}}}}, {"name": "MobileFaceNet/Conv_26/BatchNorm/moving_variance", "op": "Const", "attr": {"dtype": {"type": "DT_FLOAT"}, "value": {"tensor": {"dtype": "DT_FLOAT", "tensorShape": {"dim": [{"size": "128"}]}}}}}, {"name": "MobileFaceNet/SeparableConv2d_13/BatchNorm/moving_mean", "op": "Const", "attr": {"value": {"tensor": {"dtype": "DT_FLOAT", "tensorShape": {"dim": [{"size": "512"}]}}}, "dtype": {"type": "DT_FLOAT"}}}, {"name": "MobileFaceNet/SeparableConv2d_13/BatchNorm/moving_variance", "op": "Const", "attr": {"value": {"tensor": {"dtype": "DT_FLOAT", "tensorShape": {"dim": [{"size": "512"}]}}}, "dtype": {"type": "DT_FLOAT"}}}, {"name": "MobileFaceNet/Conv_25/BatchNorm/moving_mean", "op": "Const", "attr": {"dtype": {"type": "DT_FLOAT"}, "value": {"tensor": {"dtype": "DT_FLOAT", "tensorShape": {"dim": [{"size": "512"}]}}}}}, {"name": "MobileFaceNet/Conv_25/BatchNorm/moving_variance", "op": "Const", "attr": {"value": {"tensor": {"dtype": "DT_FLOAT", "tensorShape": {"dim": [{"size": "512"}]}}}, "dtype": {"type": "DT_FLOAT"}}}, {"name": "MobileFaceNet/Conv_24/BatchNorm/moving_mean", "op": "Const", "attr": {"dtype": {"type": "DT_FLOAT"}, "value": {"tensor": {"dtype": "DT_FLOAT", "tensorShape": {"dim": [{"size": "128"}]}}}}}, {"name": "MobileFaceNet/Conv_24/BatchNorm/moving_variance", "op": "Const", "attr": {"dtype": {"type": "DT_FLOAT"}, "value": {"tensor": {"dtype": "DT_FLOAT", "tensorShape": {"dim": [{"size": "128"}]}}}}}, {"name": "MobileFaceNet/SeparableConv2d_12/BatchNorm/moving_mean", "op": "Const", "attr": {"value": {"tensor": {"dtype": "DT_FLOAT", "tensorShape": {"dim": [{"size": "256"}]}}}, "dtype": {"type": "DT_FLOAT"}}}, {"name": "MobileFaceNet/SeparableConv2d_12/BatchNorm/moving_variance", "op": "Const", "attr": {"value": {"tensor": {"dtype": "DT_FLOAT", "tensorShape": {"dim": [{"size": "256"}]}}}, "dtype": {"type": "DT_FLOAT"}}}, {"name": "MobileFaceNet/Conv_23/BatchNorm/moving_mean", "op": "Const", "attr": {"dtype": {"type": "DT_FLOAT"}, "value": {"tensor": {"dtype": "DT_FLOAT", "tensorShape": {"dim": [{"size": "256"}]}}}}}, {"name": "MobileFaceNet/Conv_23/BatchNorm/moving_variance", "op": "Const", "attr": {"value": {"tensor": {"dtype": "DT_FLOAT", "tensorShape": {"dim": [{"size": "256"}]}}}, "dtype": {"type": "DT_FLOAT"}}}, {"name": "MobileFaceNet/Conv_23/weights", "op": "Const", "attr": {"value": {"tensor": {"dtype": "DT_FLOAT", "tensorShape": {"dim": [{"size": "1"}, {"size": "1"}, {"size": "128"}, {"size": "256"}]}}}, "dtype": {"type": "DT_FLOAT"}}}, {"name": "MobileFaceNet/Conv_23/BatchNorm/gamma", "op": "Const", "attr": {"dtype": {"type": "DT_FLOAT"}, "value": {"tensor": {"dtype": "DT_FLOAT", "tensorShape": {"dim": [{"size": "256"}]}}}}}, {"name": "MobileFaceNet/Conv_23/BatchNorm/beta", "op": "Const", "attr": {"value": {"tensor": {"dtype": "DT_FLOAT", "tensorShape": {"dim": [{"size": "256"}]}}}, "dtype": {"type": "DT_FLOAT"}}}, {"name": "MobileFaceNet/MobileFaceNet/Conv2d_4_InvResBlock_5/Conv/mul", "op": "Const", "attr": {"dtype": {"type": "DT_FLOAT"}, "value": {"tensor": {"dtype": "DT_FLOAT", "tensorShape": {"dim": [{"size": "256"}]}}}}}, {"name": "MobileFaceNet/SeparableConv2d_12/depthwise_weights", "op": "Const", "attr": {"value": {"tensor": {"dtype": "DT_FLOAT", "tensorShape": {"dim": [{"size": "3"}, {"size": "3"}, {"size": "256"}, {"size": "1"}]}}}, "dtype": {"type": "DT_FLOAT"}}}, {"name": "MobileFaceNet/SeparableConv2d_12/BatchNorm/gamma", "op": "Const", "attr": {"value": {"tensor": {"dtype": "DT_FLOAT", "tensorShape": {"dim": [{"size": "256"}]}}}, "dtype": {"type": "DT_FLOAT"}}}, {"name": "MobileFaceNet/SeparableConv2d_12/BatchNorm/beta", "op": "Const", "attr": {"value": {"tensor": {"dtype": "DT_FLOAT", "tensorShape": {"dim": [{"size": "256"}]}}}, "dtype": {"type": "DT_FLOAT"}}}, {"name": "MobileFaceNet/MobileFaceNet/Conv2d_4_InvResBlock_5/SeparableConv2d/mul", "op": "Const", "attr": {"value": {"tensor": {"dtype": "DT_FLOAT", "tensorShape": {"dim": [{"size": "256"}]}}}, "dtype": {"type": "DT_FLOAT"}}}, {"name": "MobileFaceNet/Conv_24/weights", "op": "Const", "attr": {"dtype": {"type": "DT_FLOAT"}, "value": {"tensor": {"dtype": "DT_FLOAT", "tensorShape": {"dim": [{"size": "1"}, {"size": "1"}, {"size": "256"}, {"size": "128"}]}}}}}, {"name": "MobileFaceNet/Conv_24/BatchNorm/gamma", "op": "Const", "attr": {"value": {"tensor": {"dtype": "DT_FLOAT", "tensorShape": {"dim": [{"size": "128"}]}}}, "dtype": {"type": "DT_FLOAT"}}}, {"name": "MobileFaceNet/Conv_24/BatchNorm/beta", "op": "Const", "attr": {"dtype": {"type": "DT_FLOAT"}, "value": {"tensor": {"dtype": "DT_FLOAT", "tensorShape": {"dim": [{"size": "128"}]}}}}}, {"name": "MobileFaceNet/Conv_22/BatchNorm/moving_mean", "op": "Const", "attr": {"dtype": {"type": "DT_FLOAT"}, "value": {"tensor": {"dtype": "DT_FLOAT", "tensorShape": {"dim": [{"size": "128"}]}}}}}, {"name": "MobileFaceNet/Conv_22/BatchNorm/moving_variance", "op": "Const", "attr": {"value": {"tensor": {"dtype": "DT_FLOAT", "tensorShape": {"dim": [{"size": "128"}]}}}, "dtype": {"type": "DT_FLOAT"}}}, {"name": "MobileFaceNet/SeparableConv2d_11/BatchNorm/moving_mean", "op": "Const", "attr": {"dtype": {"type": "DT_FLOAT"}, "value": {"tensor": {"dtype": "DT_FLOAT", "tensorShape": {"dim": [{"size": "256"}]}}}}}, {"name": "MobileFaceNet/SeparableConv2d_11/BatchNorm/moving_variance", "op": "Const", "attr": {"value": {"tensor": {"dtype": "DT_FLOAT", "tensorShape": {"dim": [{"size": "256"}]}}}, "dtype": {"type": "DT_FLOAT"}}}, {"name": "MobileFaceNet/Conv_21/BatchNorm/moving_mean", "op": "Const", "attr": {"dtype": {"type": "DT_FLOAT"}, "value": {"tensor": {"dtype": "DT_FLOAT", "tensorShape": {"dim": [{"size": "256"}]}}}}}, {"name": "MobileFaceNet/Conv_21/BatchNorm/moving_variance", "op": "Const", "attr": {"value": {"tensor": {"dtype": "DT_FLOAT", "tensorShape": {"dim": [{"size": "256"}]}}}, "dtype": {"type": "DT_FLOAT"}}}, {"name": "MobileFaceNet/Conv_21/weights", "op": "Const", "attr": {"value": {"tensor": {"dtype": "DT_FLOAT", "tensorShape": {"dim": [{"size": "1"}, {"size": "1"}, {"size": "128"}, {"size": "256"}]}}}, "dtype": {"type": "DT_FLOAT"}}}, {"name": "MobileFaceNet/Conv_21/BatchNorm/gamma", "op": "Const", "attr": {"dtype": {"type": "DT_FLOAT"}, "value": {"tensor": {"dtype": "DT_FLOAT", "tensorShape": {"dim": [{"size": "256"}]}}}}}, {"name": "MobileFaceNet/Conv_21/BatchNorm/beta", "op": "Const", "attr": {"dtype": {"type": "DT_FLOAT"}, "value": {"tensor": {"dtype": "DT_FLOAT", "tensorShape": {"dim": [{"size": "256"}]}}}}}, {"name": "MobileFaceNet/MobileFaceNet/Conv2d_4_InvResBlock_4/Conv/mul", "op": "Const", "attr": {"dtype": {"type": "DT_FLOAT"}, "value": {"tensor": {"dtype": "DT_FLOAT", "tensorShape": {"dim": [{"size": "256"}]}}}}}, {"name": "MobileFaceNet/SeparableConv2d_11/depthwise_weights", "op": "Const", "attr": {"dtype": {"type": "DT_FLOAT"}, "value": {"tensor": {"dtype": "DT_FLOAT", "tensorShape": {"dim": [{"size": "3"}, {"size": "3"}, {"size": "256"}, {"size": "1"}]}}}}}, {"name": "MobileFaceNet/SeparableConv2d_11/BatchNorm/gamma", "op": "Const", "attr": {"value": {"tensor": {"dtype": "DT_FLOAT", "tensorShape": {"dim": [{"size": "256"}]}}}, "dtype": {"type": "DT_FLOAT"}}}, {"name": "MobileFaceNet/SeparableConv2d_11/BatchNorm/beta", "op": "Const", "attr": {"value": {"tensor": {"dtype": "DT_FLOAT", "tensorShape": {"dim": [{"size": "256"}]}}}, "dtype": {"type": "DT_FLOAT"}}}, {"name": "MobileFaceNet/MobileFaceNet/Conv2d_4_InvResBlock_4/SeparableConv2d/mul", "op": "Const", "attr": {"dtype": {"type": "DT_FLOAT"}, "value": {"tensor": {"dtype": "DT_FLOAT", "tensorShape": {"dim": [{"size": "256"}]}}}}}, {"name": "MobileFaceNet/Conv_22/weights", "op": "Const", "attr": {"value": {"tensor": {"dtype": "DT_FLOAT", "tensorShape": {"dim": [{"size": "1"}, {"size": "1"}, {"size": "256"}, {"size": "128"}]}}}, "dtype": {"type": "DT_FLOAT"}}}, {"name": "MobileFaceNet/Conv_22/BatchNorm/gamma", "op": "Const", "attr": {"dtype": {"type": "DT_FLOAT"}, "value": {"tensor": {"dtype": "DT_FLOAT", "tensorShape": {"dim": [{"size": "128"}]}}}}}, {"name": "MobileFaceNet/Conv_22/BatchNorm/beta", "op": "Const", "attr": {"value": {"tensor": {"dtype": "DT_FLOAT", "tensorShape": {"dim": [{"size": "128"}]}}}, "dtype": {"type": "DT_FLOAT"}}}, {"name": "MobileFaceNet/Conv_20/BatchNorm/moving_mean", "op": "Const", "attr": {"dtype": {"type": "DT_FLOAT"}, "value": {"tensor": {"dtype": "DT_FLOAT", "tensorShape": {"dim": [{"size": "128"}]}}}}}, {"name": "MobileFaceNet/Conv_20/BatchNorm/moving_variance", "op": "Const", "attr": {"value": {"tensor": {"dtype": "DT_FLOAT", "tensorShape": {"dim": [{"size": "128"}]}}}, "dtype": {"type": "DT_FLOAT"}}}, {"name": "MobileFaceNet/SeparableConv2d_10/BatchNorm/moving_mean", "op": "Const", "attr": {"dtype": {"type": "DT_FLOAT"}, "value": {"tensor": {"dtype": "DT_FLOAT", "tensorShape": {"dim": [{"size": "256"}]}}}}}, {"name": "MobileFaceNet/SeparableConv2d_10/BatchNorm/moving_variance", "op": "Const", "attr": {"dtype": {"type": "DT_FLOAT"}, "value": {"tensor": {"dtype": "DT_FLOAT", "tensorShape": {"dim": [{"size": "256"}]}}}}}, {"name": "MobileFaceNet/Conv_19/BatchNorm/moving_mean", "op": "Const", "attr": {"dtype": {"type": "DT_FLOAT"}, "value": {"tensor": {"dtype": "DT_FLOAT", "tensorShape": {"dim": [{"size": "256"}]}}}}}, {"name": "MobileFaceNet/Conv_19/BatchNorm/moving_variance", "op": "Const", "attr": {"dtype": {"type": "DT_FLOAT"}, "value": {"tensor": {"dtype": "DT_FLOAT", "tensorShape": {"dim": [{"size": "256"}]}}}}}, {"name": "MobileFaceNet/Conv_19/weights", "op": "Const", "attr": {"dtype": {"type": "DT_FLOAT"}, "value": {"tensor": {"dtype": "DT_FLOAT", "tensorShape": {"dim": [{"size": "1"}, {"size": "1"}, {"size": "128"}, {"size": "256"}]}}}}}, {"name": "MobileFaceNet/Conv_19/BatchNorm/gamma", "op": "Const", "attr": {"value": {"tensor": {"dtype": "DT_FLOAT", "tensorShape": {"dim": [{"size": "256"}]}}}, "dtype": {"type": "DT_FLOAT"}}}, {"name": "MobileFaceNet/Conv_19/BatchNorm/beta", "op": "Const", "attr": {"dtype": {"type": "DT_FLOAT"}, "value": {"tensor": {"dtype": "DT_FLOAT", "tensorShape": {"dim": [{"size": "256"}]}}}}}, {"name": "MobileFaceNet/MobileFaceNet/Conv2d_4_InvResBlock_3/Conv/mul", "op": "Const", "attr": {"value": {"tensor": {"dtype": "DT_FLOAT", "tensorShape": {"dim": [{"size": "256"}]}}}, "dtype": {"type": "DT_FLOAT"}}}, {"name": "MobileFaceNet/SeparableConv2d_10/depthwise_weights", "op": "Const", "attr": {"value": {"tensor": {"dtype": "DT_FLOAT", "tensorShape": {"dim": [{"size": "3"}, {"size": "3"}, {"size": "256"}, {"size": "1"}]}}}, "dtype": {"type": "DT_FLOAT"}}}, {"name": "MobileFaceNet/SeparableConv2d_10/BatchNorm/gamma", "op": "Const", "attr": {"value": {"tensor": {"dtype": "DT_FLOAT", "tensorShape": {"dim": [{"size": "256"}]}}}, "dtype": {"type": "DT_FLOAT"}}}, {"name": "MobileFaceNet/SeparableConv2d_10/BatchNorm/beta", "op": "Const", "attr": {"dtype": {"type": "DT_FLOAT"}, "value": {"tensor": {"dtype": "DT_FLOAT", "tensorShape": {"dim": [{"size": "256"}]}}}}}, {"name": "MobileFaceNet/MobileFaceNet/Conv2d_4_InvResBlock_3/SeparableConv2d/mul", "op": "Const", "attr": {"dtype": {"type": "DT_FLOAT"}, "value": {"tensor": {"dtype": "DT_FLOAT", "tensorShape": {"dim": [{"size": "256"}]}}}}}, {"name": "MobileFaceNet/Conv_20/weights", "op": "Const", "attr": {"value": {"tensor": {"dtype": "DT_FLOAT", "tensorShape": {"dim": [{"size": "1"}, {"size": "1"}, {"size": "256"}, {"size": "128"}]}}}, "dtype": {"type": "DT_FLOAT"}}}, {"name": "MobileFaceNet/Conv_20/BatchNorm/gamma", "op": "Const", "attr": {"value": {"tensor": {"dtype": "DT_FLOAT", "tensorShape": {"dim": [{"size": "128"}]}}}, "dtype": {"type": "DT_FLOAT"}}}, {"name": "MobileFaceNet/Conv_20/BatchNorm/beta", "op": "Const", "attr": {"dtype": {"type": "DT_FLOAT"}, "value": {"tensor": {"dtype": "DT_FLOAT", "tensorShape": {"dim": [{"size": "128"}]}}}}}, {"name": "MobileFaceNet/Conv_18/BatchNorm/moving_mean", "op": "Const", "attr": {"dtype": {"type": "DT_FLOAT"}, "value": {"tensor": {"dtype": "DT_FLOAT", "tensorShape": {"dim": [{"size": "128"}]}}}}}, {"name": "MobileFaceNet/Conv_18/BatchNorm/moving_variance", "op": "Const", "attr": {"value": {"tensor": {"dtype": "DT_FLOAT", "tensorShape": {"dim": [{"size": "128"}]}}}, "dtype": {"type": "DT_FLOAT"}}}, {"name": "MobileFaceNet/SeparableConv2d_9/BatchNorm/moving_mean", "op": "Const", "attr": {"value": {"tensor": {"dtype": "DT_FLOAT", "tensorShape": {"dim": [{"size": "256"}]}}}, "dtype": {"type": "DT_FLOAT"}}}, {"name": "MobileFaceNet/SeparableConv2d_9/BatchNorm/moving_variance", "op": "Const", "attr": {"value": {"tensor": {"dtype": "DT_FLOAT", "tensorShape": {"dim": [{"size": "256"}]}}}, "dtype": {"type": "DT_FLOAT"}}}, {"name": "MobileFaceNet/Conv_17/BatchNorm/moving_mean", "op": "Const", "attr": {"dtype": {"type": "DT_FLOAT"}, "value": {"tensor": {"dtype": "DT_FLOAT", "tensorShape": {"dim": [{"size": "256"}]}}}}}, {"name": "MobileFaceNet/Conv_17/BatchNorm/moving_variance", "op": "Const", "attr": {"dtype": {"type": "DT_FLOAT"}, "value": {"tensor": {"dtype": "DT_FLOAT", "tensorShape": {"dim": [{"size": "256"}]}}}}}, {"name": "MobileFaceNet/Conv_17/weights", "op": "Const", "attr": {"value": {"tensor": {"dtype": "DT_FLOAT", "tensorShape": {"dim": [{"size": "1"}, {"size": "1"}, {"size": "128"}, {"size": "256"}]}}}, "dtype": {"type": "DT_FLOAT"}}}, {"name": "MobileFaceNet/Conv_17/BatchNorm/gamma", "op": "Const", "attr": {"dtype": {"type": "DT_FLOAT"}, "value": {"tensor": {"dtype": "DT_FLOAT", "tensorShape": {"dim": [{"size": "256"}]}}}}}, {"name": "MobileFaceNet/Conv_17/BatchNorm/beta", "op": "Const", "attr": {"dtype": {"type": "DT_FLOAT"}, "value": {"tensor": {"dtype": "DT_FLOAT", "tensorShape": {"dim": [{"size": "256"}]}}}}}, {"name": "MobileFaceNet/MobileFaceNet/Conv2d_4_InvResBlock_2/Conv/mul", "op": "Const", "attr": {"dtype": {"type": "DT_FLOAT"}, "value": {"tensor": {"dtype": "DT_FLOAT", "tensorShape": {"dim": [{"size": "256"}]}}}}}, {"name": "MobileFaceNet/SeparableConv2d_9/depthwise_weights", "op": "Const", "attr": {"dtype": {"type": "DT_FLOAT"}, "value": {"tensor": {"dtype": "DT_FLOAT", "tensorShape": {"dim": [{"size": "3"}, {"size": "3"}, {"size": "256"}, {"size": "1"}]}}}}}, {"name": "MobileFaceNet/SeparableConv2d_9/BatchNorm/gamma", "op": "Const", "attr": {"dtype": {"type": "DT_FLOAT"}, "value": {"tensor": {"dtype": "DT_FLOAT", "tensorShape": {"dim": [{"size": "256"}]}}}}}, {"name": "MobileFaceNet/SeparableConv2d_9/BatchNorm/beta", "op": "Const", "attr": {"dtype": {"type": "DT_FLOAT"}, "value": {"tensor": {"dtype": "DT_FLOAT", "tensorShape": {"dim": [{"size": "256"}]}}}}}, {"name": "MobileFaceNet/MobileFaceNet/Conv2d_4_InvResBlock_2/SeparableConv2d/mul", "op": "Const", "attr": {"value": {"tensor": {"dtype": "DT_FLOAT", "tensorShape": {"dim": [{"size": "256"}]}}}, "dtype": {"type": "DT_FLOAT"}}}, {"name": "MobileFaceNet/Conv_18/weights", "op": "Const", "attr": {"value": {"tensor": {"dtype": "DT_FLOAT", "tensorShape": {"dim": [{"size": "1"}, {"size": "1"}, {"size": "256"}, {"size": "128"}]}}}, "dtype": {"type": "DT_FLOAT"}}}, {"name": "MobileFaceNet/Conv_18/BatchNorm/gamma", "op": "Const", "attr": {"value": {"tensor": {"dtype": "DT_FLOAT", "tensorShape": {"dim": [{"size": "128"}]}}}, "dtype": {"type": "DT_FLOAT"}}}, {"name": "MobileFaceNet/Conv_18/BatchNorm/beta", "op": "Const", "attr": {"dtype": {"type": "DT_FLOAT"}, "value": {"tensor": {"dtype": "DT_FLOAT", "tensorShape": {"dim": [{"size": "128"}]}}}}}, {"name": "MobileFaceNet/Conv_16/BatchNorm/moving_mean", "op": "Const", "attr": {"value": {"tensor": {"dtype": "DT_FLOAT", "tensorShape": {"dim": [{"size": "128"}]}}}, "dtype": {"type": "DT_FLOAT"}}}, {"name": "MobileFaceNet/Conv_16/BatchNorm/moving_variance", "op": "Const", "attr": {"dtype": {"type": "DT_FLOAT"}, "value": {"tensor": {"dtype": "DT_FLOAT", "tensorShape": {"dim": [{"size": "128"}]}}}}}, {"name": "MobileFaceNet/SeparableConv2d_8/BatchNorm/moving_mean", "op": "Const", "attr": {"value": {"tensor": {"dtype": "DT_FLOAT", "tensorShape": {"dim": [{"size": "256"}]}}}, "dtype": {"type": "DT_FLOAT"}}}, {"name": "MobileFaceNet/SeparableConv2d_8/BatchNorm/moving_variance", "op": "Const", "attr": {"dtype": {"type": "DT_FLOAT"}, "value": {"tensor": {"dtype": "DT_FLOAT", "tensorShape": {"dim": [{"size": "256"}]}}}}}, {"name": "MobileFaceNet/Conv_15/BatchNorm/moving_mean", "op": "Const", "attr": {"value": {"tensor": {"dtype": "DT_FLOAT", "tensorShape": {"dim": [{"size": "256"}]}}}, "dtype": {"type": "DT_FLOAT"}}}, {"name": "MobileFaceNet/Conv_15/BatchNorm/moving_variance", "op": "Const", "attr": {"value": {"tensor": {"dtype": "DT_FLOAT", "tensorShape": {"dim": [{"size": "256"}]}}}, "dtype": {"type": "DT_FLOAT"}}}, {"name": "MobileFaceNet/Conv_15/weights", "op": "Const", "attr": {"value": {"tensor": {"dtype": "DT_FLOAT", "tensorShape": {"dim": [{"size": "1"}, {"size": "1"}, {"size": "128"}, {"size": "256"}]}}}, "dtype": {"type": "DT_FLOAT"}}}, {"name": "MobileFaceNet/Conv_15/BatchNorm/gamma", "op": "Const", "attr": {"value": {"tensor": {"dtype": "DT_FLOAT", "tensorShape": {"dim": [{"size": "256"}]}}}, "dtype": {"type": "DT_FLOAT"}}}, {"name": "MobileFaceNet/Conv_15/BatchNorm/beta", "op": "Const", "attr": {"dtype": {"type": "DT_FLOAT"}, "value": {"tensor": {"dtype": "DT_FLOAT", "tensorShape": {"dim": [{"size": "256"}]}}}}}, {"name": "MobileFaceNet/MobileFaceNet/Conv2d_4_InvResBlock_1/Conv/mul", "op": "Const", "attr": {"dtype": {"type": "DT_FLOAT"}, "value": {"tensor": {"dtype": "DT_FLOAT", "tensorShape": {"dim": [{"size": "256"}]}}}}}, {"name": "MobileFaceNet/SeparableConv2d_8/depthwise_weights", "op": "Const", "attr": {"dtype": {"type": "DT_FLOAT"}, "value": {"tensor": {"dtype": "DT_FLOAT", "tensorShape": {"dim": [{"size": "3"}, {"size": "3"}, {"size": "256"}, {"size": "1"}]}}}}}, {"name": "MobileFaceNet/SeparableConv2d_8/BatchNorm/gamma", "op": "Const", "attr": {"value": {"tensor": {"dtype": "DT_FLOAT", "tensorShape": {"dim": [{"size": "256"}]}}}, "dtype": {"type": "DT_FLOAT"}}}, {"name": "MobileFaceNet/SeparableConv2d_8/BatchNorm/beta", "op": "Const", "attr": {"value": {"tensor": {"dtype": "DT_FLOAT", "tensorShape": {"dim": [{"size": "256"}]}}}, "dtype": {"type": "DT_FLOAT"}}}, {"name": "MobileFaceNet/MobileFaceNet/Conv2d_4_InvResBlock_1/SeparableConv2d/mul", "op": "Const", "attr": {"dtype": {"type": "DT_FLOAT"}, "value": {"tensor": {"dtype": "DT_FLOAT", "tensorShape": {"dim": [{"size": "256"}]}}}}}, {"name": "MobileFaceNet/Conv_16/weights", "op": "Const", "attr": {"dtype": {"type": "DT_FLOAT"}, "value": {"tensor": {"dtype": "DT_FLOAT", "tensorShape": {"dim": [{"size": "1"}, {"size": "1"}, {"size": "256"}, {"size": "128"}]}}}}}, {"name": "MobileFaceNet/Conv_16/BatchNorm/gamma", "op": "Const", "attr": {"dtype": {"type": "DT_FLOAT"}, "value": {"tensor": {"dtype": "DT_FLOAT", "tensorShape": {"dim": [{"size": "128"}]}}}}}, {"name": "MobileFaceNet/Conv_16/BatchNorm/beta", "op": "Const", "attr": {"dtype": {"type": "DT_FLOAT"}, "value": {"tensor": {"dtype": "DT_FLOAT", "tensorShape": {"dim": [{"size": "128"}]}}}}}, {"name": "MobileFaceNet/Conv_14/BatchNorm/moving_mean", "op": "Const", "attr": {"value": {"tensor": {"dtype": "DT_FLOAT", "tensorShape": {"dim": [{"size": "128"}]}}}, "dtype": {"type": "DT_FLOAT"}}}, {"name": "MobileFaceNet/Conv_14/BatchNorm/moving_variance", "op": "Const", "attr": {"dtype": {"type": "DT_FLOAT"}, "value": {"tensor": {"dtype": "DT_FLOAT", "tensorShape": {"dim": [{"size": "128"}]}}}}}, {"name": "MobileFaceNet/SeparableConv2d_7/BatchNorm/moving_mean", "op": "Const", "attr": {"dtype": {"type": "DT_FLOAT"}, "value": {"tensor": {"dtype": "DT_FLOAT", "tensorShape": {"dim": [{"size": "256"}]}}}}}, {"name": "MobileFaceNet/SeparableConv2d_7/BatchNorm/moving_variance", "op": "Const", "attr": {"dtype": {"type": "DT_FLOAT"}, "value": {"tensor": {"dtype": "DT_FLOAT", "tensorShape": {"dim": [{"size": "256"}]}}}}}, {"name": "MobileFaceNet/Conv_13/BatchNorm/moving_mean", "op": "Const", "attr": {"value": {"tensor": {"dtype": "DT_FLOAT", "tensorShape": {"dim": [{"size": "256"}]}}}, "dtype": {"type": "DT_FLOAT"}}}, {"name": "MobileFaceNet/Conv_13/BatchNorm/moving_variance", "op": "Const", "attr": {"value": {"tensor": {"dtype": "DT_FLOAT", "tensorShape": {"dim": [{"size": "256"}]}}}, "dtype": {"type": "DT_FLOAT"}}}, {"name": "MobileFaceNet/Conv_13/weights", "op": "Const", "attr": {"dtype": {"type": "DT_FLOAT"}, "value": {"tensor": {"dtype": "DT_FLOAT", "tensorShape": {"dim": [{"size": "1"}, {"size": "1"}, {"size": "128"}, {"size": "256"}]}}}}}, {"name": "MobileFaceNet/Conv_13/BatchNorm/gamma", "op": "Const", "attr": {"dtype": {"type": "DT_FLOAT"}, "value": {"tensor": {"dtype": "DT_FLOAT", "tensorShape": {"dim": [{"size": "256"}]}}}}}, {"name": "MobileFaceNet/Conv_13/BatchNorm/beta", "op": "Const", "attr": {"dtype": {"type": "DT_FLOAT"}, "value": {"tensor": {"dtype": "DT_FLOAT", "tensorShape": {"dim": [{"size": "256"}]}}}}}, {"name": "MobileFaceNet/MobileFaceNet/Conv2d_4_InvResBlock_0/Conv/mul", "op": "Const", "attr": {"dtype": {"type": "DT_FLOAT"}, "value": {"tensor": {"dtype": "DT_FLOAT", "tensorShape": {"dim": [{"size": "256"}]}}}}}, {"name": "MobileFaceNet/SeparableConv2d_7/depthwise_weights", "op": "Const", "attr": {"value": {"tensor": {"dtype": "DT_FLOAT", "tensorShape": {"dim": [{"size": "3"}, {"size": "3"}, {"size": "256"}, {"size": "1"}]}}}, "dtype": {"type": "DT_FLOAT"}}}, {"name": "MobileFaceNet/SeparableConv2d_7/BatchNorm/gamma", "op": "Const", "attr": {"dtype": {"type": "DT_FLOAT"}, "value": {"tensor": {"dtype": "DT_FLOAT", "tensorShape": {"dim": [{"size": "256"}]}}}}}, {"name": "MobileFaceNet/SeparableConv2d_7/BatchNorm/beta", "op": "Const", "attr": {"dtype": {"type": "DT_FLOAT"}, "value": {"tensor": {"dtype": "DT_FLOAT", "tensorShape": {"dim": [{"size": "256"}]}}}}}, {"name": "MobileFaceNet/MobileFaceNet/Conv2d_4_InvResBlock_0/SeparableConv2d/mul", "op": "Const", "attr": {"dtype": {"type": "DT_FLOAT"}, "value": {"tensor": {"dtype": "DT_FLOAT", "tensorShape": {"dim": [{"size": "256"}]}}}}}, {"name": "MobileFaceNet/Conv_14/weights", "op": "Const", "attr": {"dtype": {"type": "DT_FLOAT"}, "value": {"tensor": {"dtype": "DT_FLOAT", "tensorShape": {"dim": [{"size": "1"}, {"size": "1"}, {"size": "256"}, {"size": "128"}]}}}}}, {"name": "MobileFaceNet/Conv_14/BatchNorm/gamma", "op": "Const", "attr": {"dtype": {"type": "DT_FLOAT"}, "value": {"tensor": {"dtype": "DT_FLOAT", "tensorShape": {"dim": [{"size": "128"}]}}}}}, {"name": "MobileFaceNet/Conv_14/BatchNorm/beta", "op": "Const", "attr": {"dtype": {"type": "DT_FLOAT"}, "value": {"tensor": {"dtype": "DT_FLOAT", "tensorShape": {"dim": [{"size": "128"}]}}}}}, {"name": "MobileFaceNet/Conv_12/BatchNorm/moving_mean", "op": "Const", "attr": {"dtype": {"type": "DT_FLOAT"}, "value": {"tensor": {"dtype": "DT_FLOAT", "tensorShape": {"dim": [{"size": "128"}]}}}}}, {"name": "MobileFaceNet/Conv_12/BatchNorm/moving_variance", "op": "Const", "attr": {"value": {"tensor": {"dtype": "DT_FLOAT", "tensorShape": {"dim": [{"size": "128"}]}}}, "dtype": {"type": "DT_FLOAT"}}}, {"name": "MobileFaceNet/SeparableConv2d_6/BatchNorm/moving_mean", "op": "Const", "attr": {"dtype": {"type": "DT_FLOAT"}, "value": {"tensor": {"dtype": "DT_FLOAT", "tensorShape": {"dim": [{"size": "256"}]}}}}}, {"name": "MobileFaceNet/SeparableConv2d_6/BatchNorm/moving_variance", "op": "Const", "attr": {"value": {"tensor": {"dtype": "DT_FLOAT", "tensorShape": {"dim": [{"size": "256"}]}}}, "dtype": {"type": "DT_FLOAT"}}}, {"name": "MobileFaceNet/Conv_11/BatchNorm/moving_mean", "op": "Const", "attr": {"value": {"tensor": {"dtype": "DT_FLOAT", "tensorShape": {"dim": [{"size": "256"}]}}}, "dtype": {"type": "DT_FLOAT"}}}, {"name": "MobileFaceNet/Conv_11/BatchNorm/moving_variance", "op": "Const", "attr": {"dtype": {"type": "DT_FLOAT"}, "value": {"tensor": {"dtype": "DT_FLOAT", "tensorShape": {"dim": [{"size": "256"}]}}}}}, {"name": "MobileFaceNet/Conv_10/BatchNorm/moving_mean", "op": "Const", "attr": {"value": {"tensor": {"dtype": "DT_FLOAT", "tensorShape": {"dim": [{"size": "64"}]}}}, "dtype": {"type": "DT_FLOAT"}}}, {"name": "MobileFaceNet/Conv_10/BatchNorm/moving_variance", "op": "Const", "attr": {"value": {"tensor": {"dtype": "DT_FLOAT", "tensorShape": {"dim": [{"size": "64"}]}}}, "dtype": {"type": "DT_FLOAT"}}}, {"name": "MobileFaceNet/SeparableConv2d_5/BatchNorm/moving_mean", "op": "Const", "attr": {"dtype": {"type": "DT_FLOAT"}, "value": {"tensor": {"dtype": "DT_FLOAT", "tensorShape": {"dim": [{"size": "128"}]}}}}}, {"name": "MobileFaceNet/SeparableConv2d_5/BatchNorm/moving_variance", "op": "Const", "attr": {"dtype": {"type": "DT_FLOAT"}, "value": {"tensor": {"dtype": "DT_FLOAT", "tensorShape": {"dim": [{"size": "128"}]}}}}}, {"name": "MobileFaceNet/Conv_9/BatchNorm/moving_mean", "op": "Const", "attr": {"dtype": {"type": "DT_FLOAT"}, "value": {"tensor": {"dtype": "DT_FLOAT", "tensorShape": {"dim": [{"size": "128"}]}}}}}, {"name": "MobileFaceNet/Conv_9/BatchNorm/moving_variance", "op": "Const", "attr": {"dtype": {"type": "DT_FLOAT"}, "value": {"tensor": {"dtype": "DT_FLOAT", "tensorShape": {"dim": [{"size": "128"}]}}}}}, {"name": "MobileFaceNet/Conv_9/weights", "op": "Const", "attr": {"value": {"tensor": {"dtype": "DT_FLOAT", "tensorShape": {"dim": [{"size": "1"}, {"size": "1"}, {"size": "64"}, {"size": "128"}]}}}, "dtype": {"type": "DT_FLOAT"}}}, {"name": "MobileFaceNet/Conv_9/BatchNorm/gamma", "op": "Const", "attr": {"dtype": {"type": "DT_FLOAT"}, "value": {"tensor": {"dtype": "DT_FLOAT", "tensorShape": {"dim": [{"size": "128"}]}}}}}, {"name": "MobileFaceNet/Conv_9/BatchNorm/beta", "op": "Const", "attr": {"dtype": {"type": "DT_FLOAT"}, "value": {"tensor": {"dtype": "DT_FLOAT", "tensorShape": {"dim": [{"size": "128"}]}}}}}, {"name": "MobileFaceNet/MobileFaceNet/Conv2d_2_InvResBlock_4/Conv/mul", "op": "Const", "attr": {"dtype": {"type": "DT_FLOAT"}, "value": {"tensor": {"dtype": "DT_FLOAT", "tensorShape": {"dim": [{"size": "128"}]}}}}}, {"name": "MobileFaceNet/SeparableConv2d_5/depthwise_weights", "op": "Const", "attr": {"dtype": {"type": "DT_FLOAT"}, "value": {"tensor": {"dtype": "DT_FLOAT", "tensorShape": {"dim": [{"size": "3"}, {"size": "3"}, {"size": "128"}, {"size": "1"}]}}}}}, {"name": "MobileFaceNet/SeparableConv2d_5/BatchNorm/gamma", "op": "Const", "attr": {"value": {"tensor": {"dtype": "DT_FLOAT", "tensorShape": {"dim": [{"size": "128"}]}}}, "dtype": {"type": "DT_FLOAT"}}}, {"name": "MobileFaceNet/SeparableConv2d_5/BatchNorm/beta", "op": "Const", "attr": {"dtype": {"type": "DT_FLOAT"}, "value": {"tensor": {"dtype": "DT_FLOAT", "tensorShape": {"dim": [{"size": "128"}]}}}}}, {"name": "MobileFaceNet/MobileFaceNet/Conv2d_2_InvResBlock_4/SeparableConv2d/mul", "op": "Const", "attr": {"value": {"tensor": {"dtype": "DT_FLOAT", "tensorShape": {"dim": [{"size": "128"}]}}}, "dtype": {"type": "DT_FLOAT"}}}, {"name": "MobileFaceNet/Conv_10/weights", "op": "Const", "attr": {"value": {"tensor": {"dtype": "DT_FLOAT", "tensorShape": {"dim": [{"size": "1"}, {"size": "1"}, {"size": "128"}, {"size": "64"}]}}}, "dtype": {"type": "DT_FLOAT"}}}, {"name": "MobileFaceNet/Conv_10/BatchNorm/gamma", "op": "Const", "attr": {"value": {"tensor": {"dtype": "DT_FLOAT", "tensorShape": {"dim": [{"size": "64"}]}}}, "dtype": {"type": "DT_FLOAT"}}}, {"name": "MobileFaceNet/Conv_10/BatchNorm/beta", "op": "Const", "attr": {"dtype": {"type": "DT_FLOAT"}, "value": {"tensor": {"dtype": "DT_FLOAT", "tensorShape": {"dim": [{"size": "64"}]}}}}}, {"name": "MobileFaceNet/Conv_8/BatchNorm/moving_mean", "op": "Const", "attr": {"dtype": {"type": "DT_FLOAT"}, "value": {"tensor": {"dtype": "DT_FLOAT", "tensorShape": {"dim": [{"size": "64"}]}}}}}, {"name": "MobileFaceNet/Conv_8/BatchNorm/moving_variance", "op": "Const", "attr": {"value": {"tensor": {"dtype": "DT_FLOAT", "tensorShape": {"dim": [{"size": "64"}]}}}, "dtype": {"type": "DT_FLOAT"}}}, {"name": "MobileFaceNet/SeparableConv2d_4/BatchNorm/moving_mean", "op": "Const", "attr": {"dtype": {"type": "DT_FLOAT"}, "value": {"tensor": {"dtype": "DT_FLOAT", "tensorShape": {"dim": [{"size": "128"}]}}}}}, {"name": "MobileFaceNet/SeparableConv2d_4/BatchNorm/moving_variance", "op": "Const", "attr": {"value": {"tensor": {"dtype": "DT_FLOAT", "tensorShape": {"dim": [{"size": "128"}]}}}, "dtype": {"type": "DT_FLOAT"}}}, {"name": "MobileFaceNet/Conv_7/BatchNorm/moving_mean", "op": "Const", "attr": {"value": {"tensor": {"dtype": "DT_FLOAT", "tensorShape": {"dim": [{"size": "128"}]}}}, "dtype": {"type": "DT_FLOAT"}}}, {"name": "MobileFaceNet/Conv_7/BatchNorm/moving_variance", "op": "Const", "attr": {"value": {"tensor": {"dtype": "DT_FLOAT", "tensorShape": {"dim": [{"size": "128"}]}}}, "dtype": {"type": "DT_FLOAT"}}}, {"name": "MobileFaceNet/Conv_7/weights", "op": "Const", "attr": {"value": {"tensor": {"dtype": "DT_FLOAT", "tensorShape": {"dim": [{"size": "1"}, {"size": "1"}, {"size": "64"}, {"size": "128"}]}}}, "dtype": {"type": "DT_FLOAT"}}}, {"name": "MobileFaceNet/Conv_7/BatchNorm/gamma", "op": "Const", "attr": {"dtype": {"type": "DT_FLOAT"}, "value": {"tensor": {"dtype": "DT_FLOAT", "tensorShape": {"dim": [{"size": "128"}]}}}}}, {"name": "MobileFaceNet/Conv_7/BatchNorm/beta", "op": "Const", "attr": {"dtype": {"type": "DT_FLOAT"}, "value": {"tensor": {"dtype": "DT_FLOAT", "tensorShape": {"dim": [{"size": "128"}]}}}}}, {"name": "MobileFaceNet/MobileFaceNet/Conv2d_2_InvResBlock_3/Conv/mul", "op": "Const", "attr": {"value": {"tensor": {"dtype": "DT_FLOAT", "tensorShape": {"dim": [{"size": "128"}]}}}, "dtype": {"type": "DT_FLOAT"}}}, {"name": "MobileFaceNet/SeparableConv2d_4/depthwise_weights", "op": "Const", "attr": {"dtype": {"type": "DT_FLOAT"}, "value": {"tensor": {"dtype": "DT_FLOAT", "tensorShape": {"dim": [{"size": "3"}, {"size": "3"}, {"size": "128"}, {"size": "1"}]}}}}}, {"name": "MobileFaceNet/SeparableConv2d_4/BatchNorm/gamma", "op": "Const", "attr": {"dtype": {"type": "DT_FLOAT"}, "value": {"tensor": {"dtype": "DT_FLOAT", "tensorShape": {"dim": [{"size": "128"}]}}}}}, {"name": "MobileFaceNet/SeparableConv2d_4/BatchNorm/beta", "op": "Const", "attr": {"dtype": {"type": "DT_FLOAT"}, "value": {"tensor": {"dtype": "DT_FLOAT", "tensorShape": {"dim": [{"size": "128"}]}}}}}, {"name": "MobileFaceNet/MobileFaceNet/Conv2d_2_InvResBlock_3/SeparableConv2d/mul", "op": "Const", "attr": {"dtype": {"type": "DT_FLOAT"}, "value": {"tensor": {"dtype": "DT_FLOAT", "tensorShape": {"dim": [{"size": "128"}]}}}}}, {"name": "MobileFaceNet/Conv_8/weights", "op": "Const", "attr": {"dtype": {"type": "DT_FLOAT"}, "value": {"tensor": {"dtype": "DT_FLOAT", "tensorShape": {"dim": [{"size": "1"}, {"size": "1"}, {"size": "128"}, {"size": "64"}]}}}}}, {"name": "MobileFaceNet/Conv_8/BatchNorm/gamma", "op": "Const", "attr": {"value": {"tensor": {"dtype": "DT_FLOAT", "tensorShape": {"dim": [{"size": "64"}]}}}, "dtype": {"type": "DT_FLOAT"}}}, {"name": "MobileFaceNet/Conv_8/BatchNorm/beta", "op": "Const", "attr": {"value": {"tensor": {"dtype": "DT_FLOAT", "tensorShape": {"dim": [{"size": "64"}]}}}, "dtype": {"type": "DT_FLOAT"}}}, {"name": "MobileFaceNet/Conv_6/BatchNorm/moving_mean", "op": "Const", "attr": {"value": {"tensor": {"dtype": "DT_FLOAT", "tensorShape": {"dim": [{"size": "64"}]}}}, "dtype": {"type": "DT_FLOAT"}}}, {"name": "MobileFaceNet/Conv_6/BatchNorm/moving_variance", "op": "Const", "attr": {"value": {"tensor": {"dtype": "DT_FLOAT", "tensorShape": {"dim": [{"size": "64"}]}}}, "dtype": {"type": "DT_FLOAT"}}}, {"name": "MobileFaceNet/SeparableConv2d_3/BatchNorm/moving_mean", "op": "Const", "attr": {"value": {"tensor": {"dtype": "DT_FLOAT", "tensorShape": {"dim": [{"size": "128"}]}}}, "dtype": {"type": "DT_FLOAT"}}}, {"name": "MobileFaceNet/SeparableConv2d_3/BatchNorm/moving_variance", "op": "Const", "attr": {"value": {"tensor": {"dtype": "DT_FLOAT", "tensorShape": {"dim": [{"size": "128"}]}}}, "dtype": {"type": "DT_FLOAT"}}}, {"name": "MobileFaceNet/Conv_5/BatchNorm/moving_mean", "op": "Const", "attr": {"dtype": {"type": "DT_FLOAT"}, "value": {"tensor": {"dtype": "DT_FLOAT", "tensorShape": {"dim": [{"size": "128"}]}}}}}, {"name": "MobileFaceNet/Conv_5/BatchNorm/moving_variance", "op": "Const", "attr": {"value": {"tensor": {"dtype": "DT_FLOAT", "tensorShape": {"dim": [{"size": "128"}]}}}, "dtype": {"type": "DT_FLOAT"}}}, {"name": "MobileFaceNet/Conv_5/weights", "op": "Const", "attr": {"dtype": {"type": "DT_FLOAT"}, "value": {"tensor": {"dtype": "DT_FLOAT", "tensorShape": {"dim": [{"size": "1"}, {"size": "1"}, {"size": "64"}, {"size": "128"}]}}}}}, {"name": "MobileFaceNet/Conv_5/BatchNorm/gamma", "op": "Const", "attr": {"dtype": {"type": "DT_FLOAT"}, "value": {"tensor": {"dtype": "DT_FLOAT", "tensorShape": {"dim": [{"size": "128"}]}}}}}, {"name": "MobileFaceNet/Conv_5/BatchNorm/beta", "op": "Const", "attr": {"dtype": {"type": "DT_FLOAT"}, "value": {"tensor": {"dtype": "DT_FLOAT", "tensorShape": {"dim": [{"size": "128"}]}}}}}, {"name": "MobileFaceNet/MobileFaceNet/Conv2d_2_InvResBlock_2/Conv/mul", "op": "Const", "attr": {"dtype": {"type": "DT_FLOAT"}, "value": {"tensor": {"dtype": "DT_FLOAT", "tensorShape": {"dim": [{"size": "128"}]}}}}}, {"name": "MobileFaceNet/SeparableConv2d_3/depthwise_weights", "op": "Const", "attr": {"dtype": {"type": "DT_FLOAT"}, "value": {"tensor": {"dtype": "DT_FLOAT", "tensorShape": {"dim": [{"size": "3"}, {"size": "3"}, {"size": "128"}, {"size": "1"}]}}}}}, {"name": "MobileFaceNet/SeparableConv2d_3/BatchNorm/gamma", "op": "Const", "attr": {"value": {"tensor": {"dtype": "DT_FLOAT", "tensorShape": {"dim": [{"size": "128"}]}}}, "dtype": {"type": "DT_FLOAT"}}}, {"name": "MobileFaceNet/SeparableConv2d_3/BatchNorm/beta", "op": "Const", "attr": {"dtype": {"type": "DT_FLOAT"}, "value": {"tensor": {"dtype": "DT_FLOAT", "tensorShape": {"dim": [{"size": "128"}]}}}}}, {"name": "MobileFaceNet/MobileFaceNet/Conv2d_2_InvResBlock_2/SeparableConv2d/mul", "op": "Const", "attr": {"dtype": {"type": "DT_FLOAT"}, "value": {"tensor": {"dtype": "DT_FLOAT", "tensorShape": {"dim": [{"size": "128"}]}}}}}, {"name": "MobileFaceNet/Conv_6/weights", "op": "Const", "attr": {"value": {"tensor": {"dtype": "DT_FLOAT", "tensorShape": {"dim": [{"size": "1"}, {"size": "1"}, {"size": "128"}, {"size": "64"}]}}}, "dtype": {"type": "DT_FLOAT"}}}, {"name": "MobileFaceNet/Conv_6/BatchNorm/gamma", "op": "Const", "attr": {"dtype": {"type": "DT_FLOAT"}, "value": {"tensor": {"dtype": "DT_FLOAT", "tensorShape": {"dim": [{"size": "64"}]}}}}}, {"name": "MobileFaceNet/Conv_6/BatchNorm/beta", "op": "Const", "attr": {"value": {"tensor": {"dtype": "DT_FLOAT", "tensorShape": {"dim": [{"size": "64"}]}}}, "dtype": {"type": "DT_FLOAT"}}}, {"name": "MobileFaceNet/Conv_4/BatchNorm/moving_mean", "op": "Const", "attr": {"value": {"tensor": {"dtype": "DT_FLOAT", "tensorShape": {"dim": [{"size": "64"}]}}}, "dtype": {"type": "DT_FLOAT"}}}, {"name": "MobileFaceNet/Conv_4/BatchNorm/moving_variance", "op": "Const", "attr": {"value": {"tensor": {"dtype": "DT_FLOAT", "tensorShape": {"dim": [{"size": "64"}]}}}, "dtype": {"type": "DT_FLOAT"}}}, {"name": "MobileFaceNet/SeparableConv2d_2/BatchNorm/moving_mean", "op": "Const", "attr": {"dtype": {"type": "DT_FLOAT"}, "value": {"tensor": {"dtype": "DT_FLOAT", "tensorShape": {"dim": [{"size": "128"}]}}}}}, {"name": "MobileFaceNet/SeparableConv2d_2/BatchNorm/moving_variance", "op": "Const", "attr": {"value": {"tensor": {"dtype": "DT_FLOAT", "tensorShape": {"dim": [{"size": "128"}]}}}, "dtype": {"type": "DT_FLOAT"}}}, {"name": "MobileFaceNet/Conv_3/BatchNorm/moving_mean", "op": "Const", "attr": {"value": {"tensor": {"dtype": "DT_FLOAT", "tensorShape": {"dim": [{"size": "128"}]}}}, "dtype": {"type": "DT_FLOAT"}}}, {"name": "MobileFaceNet/Conv_3/BatchNorm/moving_variance", "op": "Const", "attr": {"value": {"tensor": {"dtype": "DT_FLOAT", "tensorShape": {"dim": [{"size": "128"}]}}}, "dtype": {"type": "DT_FLOAT"}}}, {"name": "MobileFaceNet/Conv_3/weights", "op": "Const", "attr": {"value": {"tensor": {"dtype": "DT_FLOAT", "tensorShape": {"dim": [{"size": "1"}, {"size": "1"}, {"size": "64"}, {"size": "128"}]}}}, "dtype": {"type": "DT_FLOAT"}}}, {"name": "MobileFaceNet/Conv_3/BatchNorm/gamma", "op": "Const", "attr": {"dtype": {"type": "DT_FLOAT"}, "value": {"tensor": {"dtype": "DT_FLOAT", "tensorShape": {"dim": [{"size": "128"}]}}}}}, {"name": "MobileFaceNet/Conv_3/BatchNorm/beta", "op": "Const", "attr": {"value": {"tensor": {"dtype": "DT_FLOAT", "tensorShape": {"dim": [{"size": "128"}]}}}, "dtype": {"type": "DT_FLOAT"}}}, {"name": "MobileFaceNet/MobileFaceNet/Conv2d_2_InvResBlock_1/Conv/mul", "op": "Const", "attr": {"dtype": {"type": "DT_FLOAT"}, "value": {"tensor": {"dtype": "DT_FLOAT", "tensorShape": {"dim": [{"size": "128"}]}}}}}, {"name": "MobileFaceNet/SeparableConv2d_2/depthwise_weights", "op": "Const", "attr": {"value": {"tensor": {"dtype": "DT_FLOAT", "tensorShape": {"dim": [{"size": "3"}, {"size": "3"}, {"size": "128"}, {"size": "1"}]}}}, "dtype": {"type": "DT_FLOAT"}}}, {"name": "MobileFaceNet/SeparableConv2d_2/BatchNorm/gamma", "op": "Const", "attr": {"dtype": {"type": "DT_FLOAT"}, "value": {"tensor": {"dtype": "DT_FLOAT", "tensorShape": {"dim": [{"size": "128"}]}}}}}, {"name": "MobileFaceNet/SeparableConv2d_2/BatchNorm/beta", "op": "Const", "attr": {"value": {"tensor": {"dtype": "DT_FLOAT", "tensorShape": {"dim": [{"size": "128"}]}}}, "dtype": {"type": "DT_FLOAT"}}}, {"name": "MobileFaceNet/MobileFaceNet/Conv2d_2_InvResBlock_1/SeparableConv2d/mul", "op": "Const", "attr": {"value": {"tensor": {"dtype": "DT_FLOAT", "tensorShape": {"dim": [{"size": "128"}]}}}, "dtype": {"type": "DT_FLOAT"}}}, {"name": "MobileFaceNet/Conv_4/weights", "op": "Const", "attr": {"value": {"tensor": {"dtype": "DT_FLOAT", "tensorShape": {"dim": [{"size": "1"}, {"size": "1"}, {"size": "128"}, {"size": "64"}]}}}, "dtype": {"type": "DT_FLOAT"}}}, {"name": "MobileFaceNet/Conv_4/BatchNorm/gamma", "op": "Const", "attr": {"dtype": {"type": "DT_FLOAT"}, "value": {"tensor": {"dtype": "DT_FLOAT", "tensorShape": {"dim": [{"size": "64"}]}}}}}, {"name": "MobileFaceNet/Conv_4/BatchNorm/beta", "op": "Const", "attr": {"dtype": {"type": "DT_FLOAT"}, "value": {"tensor": {"dtype": "DT_FLOAT", "tensorShape": {"dim": [{"size": "64"}]}}}}}, {"name": "MobileFaceNet/Conv_2/BatchNorm/moving_mean", "op": "Const", "attr": {"value": {"tensor": {"dtype": "DT_FLOAT", "tensorShape": {"dim": [{"size": "64"}]}}}, "dtype": {"type": "DT_FLOAT"}}}, {"name": "MobileFaceNet/Conv_2/BatchNorm/moving_variance", "op": "Const", "attr": {"value": {"tensor": {"dtype": "DT_FLOAT", "tensorShape": {"dim": [{"size": "64"}]}}}, "dtype": {"type": "DT_FLOAT"}}}, {"name": "MobileFaceNet/SeparableConv2d_1/BatchNorm/moving_mean", "op": "Const", "attr": {"value": {"tensor": {"dtype": "DT_FLOAT", "tensorShape": {"dim": [{"size": "128"}]}}}, "dtype": {"type": "DT_FLOAT"}}}, {"name": "MobileFaceNet/SeparableConv2d_1/BatchNorm/moving_variance", "op": "Const", "attr": {"value": {"tensor": {"dtype": "DT_FLOAT", "tensorShape": {"dim": [{"size": "128"}]}}}, "dtype": {"type": "DT_FLOAT"}}}, {"name": "MobileFaceNet/Conv_1/BatchNorm/moving_mean", "op": "Const", "attr": {"value": {"tensor": {"dtype": "DT_FLOAT", "tensorShape": {"dim": [{"size": "128"}]}}}, "dtype": {"type": "DT_FLOAT"}}}, {"name": "MobileFaceNet/Conv_1/BatchNorm/moving_variance", "op": "Const", "attr": {"dtype": {"type": "DT_FLOAT"}, "value": {"tensor": {"dtype": "DT_FLOAT", "tensorShape": {"dim": [{"size": "128"}]}}}}}, {"name": "MobileFaceNet/Conv/BatchNorm/moving_mean", "op": "Const", "attr": {"value": {"tensor": {"dtype": "DT_FLOAT", "tensorShape": {"dim": [{"size": "64"}]}}}, "dtype": {"type": "DT_FLOAT"}}}, {"name": "MobileFaceNet/Conv/BatchNorm/moving_variance", "op": "Const", "attr": {"dtype": {"type": "DT_FLOAT"}, "value": {"tensor": {"dtype": "DT_FLOAT", "tensorShape": {"dim": [{"size": "64"}]}}}}}, {"name": "MobileFaceNet/SeparableConv2d/BatchNorm/moving_mean", "op": "Const", "attr": {"value": {"tensor": {"dtype": "DT_FLOAT", "tensorShape": {"dim": [{"size": "64"}]}}}, "dtype": {"type": "DT_FLOAT"}}}, {"name": "MobileFaceNet/SeparableConv2d/BatchNorm/moving_variance", "op": "Const", "attr": {"value": {"tensor": {"dtype": "DT_FLOAT", "tensorShape": {"dim": [{"size": "64"}]}}}, "dtype": {"type": "DT_FLOAT"}}}, {"name": "MobileFaceNet/Conv2d_0/BatchNorm/moving_mean", "op": "Const", "attr": {"dtype": {"type": "DT_FLOAT"}, "value": {"tensor": {"dtype": "DT_FLOAT", "tensorShape": {"dim": [{"size": "64"}]}}}}}, {"name": "MobileFaceNet/Conv2d_0/BatchNorm/moving_variance", "op": "Const", "attr": {"dtype": {"type": "DT_FLOAT"}, "value": {"tensor": {"dtype": "DT_FLOAT", "tensorShape": {"dim": [{"size": "64"}]}}}}}, {"name": "MobileFaceNet/Conv2d_0/weights", "op": "Const", "attr": {"dtype": {"type": "DT_FLOAT"}, "value": {"tensor": {"dtype": "DT_FLOAT", "tensorShape": {"dim": [{"size": "3"}, {"size": "3"}, {"size": "3"}, {"size": "64"}]}}}}}, {"name": "MobileFaceNet/Conv2d_0/BatchNorm/gamma", "op": "Const", "attr": {"dtype": {"type": "DT_FLOAT"}, "value": {"tensor": {"dtype": "DT_FLOAT", "tensorShape": {"dim": [{"size": "64"}]}}}}}, {"name": "MobileFaceNet/Conv2d_0/BatchNorm/beta", "op": "Const", "attr": {"dtype": {"type": "DT_FLOAT"}, "value": {"tensor": {"dtype": "DT_FLOAT", "tensorShape": {"dim": [{"size": "64"}]}}}}}, {"name": "MobileFaceNet/MobileFaceNet/Conv2d_0/mul", "op": "Const", "attr": {"dtype": {"type": "DT_FLOAT"}, "value": {"tensor": {"dtype": "DT_FLOAT", "tensorShape": {"dim": [{"size": "64"}]}}}}}, {"name": "MobileFaceNet/SeparableConv2d/depthwise_weights", "op": "Const", "attr": {"value": {"tensor": {"dtype": "DT_FLOAT", "tensorShape": {"dim": [{"size": "3"}, {"size": "3"}, {"size": "64"}, {"size": "1"}]}}}, "dtype": {"type": "DT_FLOAT"}}}, {"name": "MobileFaceNet/SeparableConv2d/BatchNorm/gamma", "op": "Const", "attr": {"dtype": {"type": "DT_FLOAT"}, "value": {"tensor": {"dtype": "DT_FLOAT", "tensorShape": {"dim": [{"size": "64"}]}}}}}, {"name": "MobileFaceNet/SeparableConv2d/BatchNorm/beta", "op": "Const", "attr": {"dtype": {"type": "DT_FLOAT"}, "value": {"tensor": {"dtype": "DT_FLOAT", "tensorShape": {"dim": [{"size": "64"}]}}}}}, {"name": "MobileFaceNet/MobileFaceNet/SeparableConv2d/mul", "op": "Const", "attr": {"value": {"tensor": {"dtype": "DT_FLOAT", "tensorShape": {"dim": [{"size": "64"}]}}}, "dtype": {"type": "DT_FLOAT"}}}, {"name": "MobileFaceNet/Conv/weights", "op": "Const", "attr": {"dtype": {"type": "DT_FLOAT"}, "value": {"tensor": {"dtype": "DT_FLOAT", "tensorShape": {"dim": [{"size": "1"}, {"size": "1"}, {"size": "64"}, {"size": "64"}]}}}}}, {"name": "MobileFaceNet/Conv/BatchNorm/gamma", "op": "Const", "attr": {"value": {"tensor": {"dtype": "DT_FLOAT", "tensorShape": {"dim": [{"size": "64"}]}}}, "dtype": {"type": "DT_FLOAT"}}}, {"name": "MobileFaceNet/Conv/BatchNorm/beta", "op": "Const", "attr": {"value": {"tensor": {"dtype": "DT_FLOAT", "tensorShape": {"dim": [{"size": "64"}]}}}, "dtype": {"type": "DT_FLOAT"}}}, {"name": "MobileFaceNet/Conv_1/weights", "op": "Const", "attr": {"dtype": {"type": "DT_FLOAT"}, "value": {"tensor": {"dtype": "DT_FLOAT", "tensorShape": {"dim": [{"size": "1"}, {"size": "1"}, {"size": "64"}, {"size": "128"}]}}}}}, {"name": "MobileFaceNet/Conv_1/BatchNorm/gamma", "op": "Const", "attr": {"value": {"tensor": {"dtype": "DT_FLOAT", "tensorShape": {"dim": [{"size": "128"}]}}}, "dtype": {"type": "DT_FLOAT"}}}, {"name": "MobileFaceNet/Conv_1/BatchNorm/beta", "op": "Const", "attr": {"dtype": {"type": "DT_FLOAT"}, "value": {"tensor": {"dtype": "DT_FLOAT", "tensorShape": {"dim": [{"size": "128"}]}}}}}, {"name": "MobileFaceNet/MobileFaceNet/Conv2d_2_InvResBlock_0/Conv/mul", "op": "Const", "attr": {"dtype": {"type": "DT_FLOAT"}, "value": {"tensor": {"dtype": "DT_FLOAT", "tensorShape": {"dim": [{"size": "128"}]}}}}}, {"name": "MobileFaceNet/SeparableConv2d_1/depthwise_weights", "op": "Const", "attr": {"dtype": {"type": "DT_FLOAT"}, "value": {"tensor": {"dtype": "DT_FLOAT", "tensorShape": {"dim": [{"size": "3"}, {"size": "3"}, {"size": "128"}, {"size": "1"}]}}}}}, {"name": "MobileFaceNet/SeparableConv2d_1/BatchNorm/gamma", "op": "Const", "attr": {"dtype": {"type": "DT_FLOAT"}, "value": {"tensor": {"dtype": "DT_FLOAT", "tensorShape": {"dim": [{"size": "128"}]}}}}}, {"name": "MobileFaceNet/SeparableConv2d_1/BatchNorm/beta", "op": "Const", "attr": {"dtype": {"type": "DT_FLOAT"}, "value": {"tensor": {"dtype": "DT_FLOAT", "tensorShape": {"dim": [{"size": "128"}]}}}}}, {"name": "MobileFaceNet/MobileFaceNet/Conv2d_2_InvResBlock_0/SeparableConv2d/mul", "op": "Const", "attr": {"value": {"tensor": {"dtype": "DT_FLOAT", "tensorShape": {"dim": [{"size": "128"}]}}}, "dtype": {"type": "DT_FLOAT"}}}, {"name": "MobileFaceNet/Conv_2/weights", "op": "Const", "attr": {"dtype": {"type": "DT_FLOAT"}, "value": {"tensor": {"dtype": "DT_FLOAT", "tensorShape": {"dim": [{"size": "1"}, {"size": "1"}, {"size": "128"}, {"size": "64"}]}}}}}, {"name": "MobileFaceNet/Conv_2/BatchNorm/gamma", "op": "Const", "attr": {"value": {"tensor": {"dtype": "DT_FLOAT", "tensorShape": {"dim": [{"size": "64"}]}}}, "dtype": {"type": "DT_FLOAT"}}}, {"name": "MobileFaceNet/Conv_2/BatchNorm/beta", "op": "Const", "attr": {"dtype": {"type": "DT_FLOAT"}, "value": {"tensor": {"dtype": "DT_FLOAT", "tensorShape": {"dim": [{"size": "64"}]}}}}}, {"name": "MobileFaceNet/Conv_11/weights", "op": "Const", "attr": {"dtype": {"type": "DT_FLOAT"}, "value": {"tensor": {"dtype": "DT_FLOAT", "tensorShape": {"dim": [{"size": "1"}, {"size": "1"}, {"size": "64"}, {"size": "256"}]}}}}}, {"name": "MobileFaceNet/Conv_11/BatchNorm/gamma", "op": "Const", "attr": {"value": {"tensor": {"dtype": "DT_FLOAT", "tensorShape": {"dim": [{"size": "256"}]}}}, "dtype": {"type": "DT_FLOAT"}}}, {"name": "MobileFaceNet/Conv_11/BatchNorm/beta", "op": "Const", "attr": {"dtype": {"type": "DT_FLOAT"}, "value": {"tensor": {"dtype": "DT_FLOAT", "tensorShape": {"dim": [{"size": "256"}]}}}}}, {"name": "MobileFaceNet/MobileFaceNet/Conv2d_3_InvResBlock_0/Conv/mul", "op": "Const", "attr": {"value": {"tensor": {"dtype": "DT_FLOAT", "tensorShape": {"dim": [{"size": "256"}]}}}, "dtype": {"type": "DT_FLOAT"}}}, {"name": "MobileFaceNet/SeparableConv2d_6/depthwise_weights", "op": "Const", "attr": {"value": {"tensor": {"dtype": "DT_FLOAT", "tensorShape": {"dim": [{"size": "3"}, {"size": "3"}, {"size": "256"}, {"size": "1"}]}}}, "dtype": {"type": "DT_FLOAT"}}}, {"name": "MobileFaceNet/SeparableConv2d_6/BatchNorm/gamma", "op": "Const", "attr": {"dtype": {"type": "DT_FLOAT"}, "value": {"tensor": {"dtype": "DT_FLOAT", "tensorShape": {"dim": [{"size": "256"}]}}}}}, {"name": "MobileFaceNet/SeparableConv2d_6/BatchNorm/beta", "op": "Const", "attr": {"value": {"tensor": {"dtype": "DT_FLOAT", "tensorShape": {"dim": [{"size": "256"}]}}}, "dtype": {"type": "DT_FLOAT"}}}, {"name": "MobileFaceNet/MobileFaceNet/Conv2d_3_InvResBlock_0/SeparableConv2d/mul", "op": "Const", "attr": {"value": {"tensor": {"dtype": "DT_FLOAT", "tensorShape": {"dim": [{"size": "256"}]}}}, "dtype": {"type": "DT_FLOAT"}}}, {"name": "MobileFaceNet/Conv_12/weights", "op": "Const", "attr": {"dtype": {"type": "DT_FLOAT"}, "value": {"tensor": {"dtype": "DT_FLOAT", "tensorShape": {"dim": [{"size": "1"}, {"size": "1"}, {"size": "256"}, {"size": "128"}]}}}}}, {"name": "MobileFaceNet/Conv_12/BatchNorm/gamma", "op": "Const", "attr": {"value": {"tensor": {"dtype": "DT_FLOAT", "tensorShape": {"dim": [{"size": "128"}]}}}, "dtype": {"type": "DT_FLOAT"}}}, {"name": "MobileFaceNet/Conv_12/BatchNorm/beta", "op": "Const", "attr": {"value": {"tensor": {"dtype": "DT_FLOAT", "tensorShape": {"dim": [{"size": "128"}]}}}, "dtype": {"type": "DT_FLOAT"}}}, {"name": "MobileFaceNet/Conv_25/weights", "op": "Const", "attr": {"dtype": {"type": "DT_FLOAT"}, "value": {"tensor": {"dtype": "DT_FLOAT", "tensorShape": {"dim": [{"size": "1"}, {"size": "1"}, {"size": "128"}, {"size": "512"}]}}}}}, {"name": "MobileFaceNet/Conv_25/BatchNorm/gamma", "op": "Const", "attr": {"dtype": {"type": "DT_FLOAT"}, "value": {"tensor": {"dtype": "DT_FLOAT", "tensorShape": {"dim": [{"size": "512"}]}}}}}, {"name": "MobileFaceNet/Conv_25/BatchNorm/beta", "op": "Const", "attr": {"value": {"tensor": {"dtype": "DT_FLOAT", "tensorShape": {"dim": [{"size": "512"}]}}}, "dtype": {"type": "DT_FLOAT"}}}, {"name": "MobileFaceNet/MobileFaceNet/Conv2d_5_InvResBlock_0/Conv/mul", "op": "Const", "attr": {"value": {"tensor": {"dtype": "DT_FLOAT", "tensorShape": {"dim": [{"size": "512"}]}}}, "dtype": {"type": "DT_FLOAT"}}}, {"name": "MobileFaceNet/SeparableConv2d_13/depthwise_weights", "op": "Const", "attr": {"dtype": {"type": "DT_FLOAT"}, "value": {"tensor": {"dtype": "DT_FLOAT", "tensorShape": {"dim": [{"size": "3"}, {"size": "3"}, {"size": "512"}, {"size": "1"}]}}}}}, {"name": "MobileFaceNet/SeparableConv2d_13/BatchNorm/gamma", "op": "Const", "attr": {"dtype": {"type": "DT_FLOAT"}, "value": {"tensor": {"dtype": "DT_FLOAT", "tensorShape": {"dim": [{"size": "512"}]}}}}}, {"name": "MobileFaceNet/SeparableConv2d_13/BatchNorm/beta", "op": "Const", "attr": {"value": {"tensor": {"dtype": "DT_FLOAT", "tensorShape": {"dim": [{"size": "512"}]}}}, "dtype": {"type": "DT_FLOAT"}}}, {"name": "MobileFaceNet/MobileFaceNet/Conv2d_5_InvResBlock_0/SeparableConv2d/mul", "op": "Const", "attr": {"dtype": {"type": "DT_FLOAT"}, "value": {"tensor": {"dtype": "DT_FLOAT", "tensorShape": {"dim": [{"size": "512"}]}}}}}, {"name": "MobileFaceNet/Conv_26/weights", "op": "Const", "attr": {"value": {"tensor": {"dtype": "DT_FLOAT", "tensorShape": {"dim": [{"size": "1"}, {"size": "1"}, {"size": "512"}, {"size": "128"}]}}}, "dtype": {"type": "DT_FLOAT"}}}, {"name": "MobileFaceNet/Conv_26/BatchNorm/gamma", "op": "Const", "attr": {"value": {"tensor": {"dtype": "DT_FLOAT", "tensorShape": {"dim": [{"size": "128"}]}}}, "dtype": {"type": "DT_FLOAT"}}}, {"name": "MobileFaceNet/Conv_26/BatchNorm/beta", "op": "Const", "attr": {"value": {"tensor": {"dtype": "DT_FLOAT", "tensorShape": {"dim": [{"size": "128"}]}}}, "dtype": {"type": "DT_FLOAT"}}}, {"name": "MobileFaceNet/Conv2d_7/weights", "op": "Const", "attr": {"dtype": {"type": "DT_FLOAT"}, "value": {"tensor": {"dtype": "DT_FLOAT", "tensorShape": {"dim": [{"size": "1"}, {"size": "1"}, {"size": "128"}, {"size": "512"}]}}}}}, {"name": "MobileFaceNet/Conv2d_7/BatchNorm/gamma", "op": "Const", "attr": {"dtype": {"type": "DT_FLOAT"}, "value": {"tensor": {"dtype": "DT_FLOAT", "tensorShape": {"dim": [{"size": "512"}]}}}}}, {"name": "MobileFaceNet/Conv2d_7/BatchNorm/beta", "op": "Const", "attr": {"dtype": {"type": "DT_FLOAT"}, "value": {"tensor": {"dtype": "DT_FLOAT", "tensorShape": {"dim": [{"size": "512"}]}}}}}, {"name": "MobileFaceNet/MobileFaceNet/Conv2d_7/mul", "op": "Const", "attr": {"dtype": {"type": "DT_FLOAT"}, "value": {"tensor": {"dtype": "DT_FLOAT", "tensorShape": {"dim": [{"size": "512"}]}}}}}, {"name": "MobileFaceNet/Logits/SeparableConv2d/depthwise_weights", "op": "Const", "attr": {"dtype": {"type": "DT_FLOAT"}, "value": {"tensor": {"dtype": "DT_FLOAT", "tensorShape": {"dim": [{"size": "7"}, {"size": "7"}, {"size": "512"}, {"size": "1"}]}}}}}, {"name": "MobileFaceNet/Logits/SeparableConv2d/BatchNorm/gamma", "op": "Const", "attr": {"dtype": {"type": "DT_FLOAT"}, "value": {"tensor": {"dtype": "DT_FLOAT", "tensorShape": {"dim": [{"size": "512"}]}}}}}, {"name": "MobileFaceNet/Logits/SeparableConv2d/BatchNorm/beta", "op": "Const", "attr": {"value": {"tensor": {"dtype": "DT_FLOAT", "tensorShape": {"dim": [{"size": "512"}]}}}, "dtype": {"type": "DT_FLOAT"}}}, {"name": "MobileFaceNet/Logits/Conv/weights", "op": "Const", "attr": {"dtype": {"type": "DT_FLOAT"}, "value": {"tensor": {"dtype": "DT_FLOAT", "tensorShape": {"dim": [{"size": "1"}, {"size": "1"}, {"size": "512"}, {"size": "512"}]}}}}}, {"name": "MobileFaceNet/Logits/Conv/BatchNorm/gamma", "op": "Const", "attr": {"value": {"tensor": {"dtype": "DT_FLOAT", "tensorShape": {"dim": [{"size": "512"}]}}}, "dtype": {"type": "DT_FLOAT"}}}, {"name": "MobileFaceNet/Logits/Conv/BatchNorm/beta", "op": "Const", "attr": {"value": {"tensor": {"dtype": "DT_FLOAT", "tensorShape": {"dim": [{"size": "512"}]}}}, "dtype": {"type": "DT_FLOAT"}}}, {"name": "MobileFaceNet/Logits/LinearConv1x1/weights", "op": "Const", "attr": {"dtype": {"type": "DT_FLOAT"}, "value": {"tensor": {"dtype": "DT_FLOAT", "tensorShape": {"dim": [{"size": "1"}, {"size": "1"}, {"size": "512"}, {"size": "128"}]}}}}}, {"name": "MobileFaceNet/Logits/LinearConv1x1/BatchNorm/gamma", "op": "Const", "attr": {"value": {"tensor": {"dtype": "DT_FLOAT", "tensorShape": {"dim": [{"size": "128"}]}}}, "dtype": {"type": "DT_FLOAT"}}}, {"name": "MobileFaceNet/Logits/LinearConv1x1/BatchNorm/beta", "op": "Const", "attr": {"dtype": {"type": "DT_FLOAT"}, "value": {"tensor": {"dtype": "DT_FLOAT", "tensorShape": {"dim": [{"size": "128"}]}}}}}, {"name": "Const", "op": "Const", "attr": {"value": {"tensor": {"dtype": "DT_BOOL", "tensorShape": {}}}, "dtype": {"type": "DT_BOOL"}}}, {"name": "embeddings/Sum/reduction_indices", "op": "Const", "attr": {"dtype": {"type": "DT_INT32"}, "value": {"tensor": {"dtype": "DT_INT32", "tensorShape": {}}}}}, {"name": "embeddings/Maximum/y", "op": "Const", "attr": {"value": {"tensor": {"dtype": "DT_FLOAT", "tensorShape": {}}}, "dtype": {"type": "DT_FLOAT"}}}, {"name": "img_inputs", "op": "Placeholder", "attr": {"shape": {"shape": {"dim": [{"size": "-1"}, {"size": "112"}, {"size": "112"}, {"size": "3"}]}}, "dtype": {"type": "DT_FLOAT"}}}, {"name": "phase_train", "op": "PlaceholderWithDefault", "input": ["Const"], "attr": {"dtype": {"type": "DT_BOOL"}, "shape": {"shape": {"unknownRank": true}}}}, {"name": "MobileFaceNet/MobileFaceNet/Conv2d_0/Conv2D", "op": "Conv2D", "input": ["img_inputs", "MobileFaceNet/Conv2d_0/weights"], "device": "/device:CPU:0", "attr": {"use_cudnn_on_gpu": {"b": true}, "T": {"type": "DT_FLOAT"}, "strides": {"list": {"i": ["1", "2", "2", "1"]}}, "data_format": {"s": "TkhXQw=="}, "dilations": {"list": {"i": ["1", "1", "1", "1"]}}, "explicit_paddings": {"list": {}}, "padding": {"s": "U0FNRQ=="}}}, {"name": "MobileFaceNet/Logits/LinearConv1x1/BatchNorm/cond_1/AssignMovingAvg/sub/Switch", "op": "Switch", "input": ["MobileFaceNet/Logits/LinearConv1x1/BatchNorm/moving_mean", "phase_train"], "attr": {"T": {"type": "DT_FLOAT"}}}, {"name": "MobileFaceNet/Logits/LinearConv1x1/BatchNorm/cond_1/Switch", "op": "Switch", "input": ["phase_train", "phase_train"], "attr": {"T": {"type": "DT_BOOL"}}}, {"name": "MobileFaceNet/Logits/LinearConv1x1/BatchNorm/cond_1/AssignMovingAvg_1/Switch", "op": "Switch", "input": ["MobileFaceNet/Logits/LinearConv1x1/BatchNorm/moving_variance", "phase_train"], "attr": {"T": {"type": "DT_FLOAT"}}}, {"name": "MobileFaceNet/Logits/LinearConv1x1/BatchNorm/cond_1/AssignMovingAvg_1/sub/Switch", "op": "Switch", "input": ["MobileFaceNet/Logits/LinearConv1x1/BatchNorm/moving_variance", "phase_train"], "attr": {"T": {"type": "DT_FLOAT"}}}, {"name": "MobileFaceNet/Logits/LinearConv1x1/BatchNorm/cond_1/AssignMovingAvg/Switch", "op": "Switch", "input": ["MobileFaceNet/Logits/LinearConv1x1/BatchNorm/moving_mean", "phase_train"], "attr": {"T": {"type": "DT_FLOAT"}}}, {"name": "MobileFaceNet/Logits/LinearConv1x1/BatchNorm/cond/FusedBatchNorm_1/Switch_1", "op": "Switch", "input": ["MobileFaceNet/Logits/LinearConv1x1/BatchNorm/gamma", "phase_train"], "attr": {"T": {"type": "DT_FLOAT"}}}, {"name": "MobileFaceNet/Logits/LinearConv1x1/BatchNorm/cond/FusedBatchNorm_1/Switch_2", "op": "Switch", "input": ["MobileFaceNet/Logits/LinearConv1x1/BatchNorm/beta", "phase_train"], "attr": {"T": {"type": "DT_FLOAT"}}}, {"name": "MobileFaceNet/Logits/LinearConv1x1/BatchNorm/cond/FusedBatchNorm_1/Switch_3", "op": "Switch", "input": ["MobileFaceNet/Logits/LinearConv1x1/BatchNorm/moving_mean", "phase_train"], "attr": {"T": {"type": "DT_FLOAT"}}}, {"name": "MobileFaceNet/Logits/LinearConv1x1/BatchNorm/cond/FusedBatchNorm_1/Switch_4", "op": "Switch", "input": ["MobileFaceNet/Logits/LinearConv1x1/BatchNorm/moving_variance", "phase_train"], "attr": {"T": {"type": "DT_FLOAT"}}}, {"name": "MobileFaceNet/Logits/Conv/BatchNorm/cond_1/AssignMovingAvg/sub/Switch", "op": "Switch", "input": ["MobileFaceNet/Logits/Conv/BatchNorm/moving_mean", "phase_train"], "attr": {"T": {"type": "DT_FLOAT"}}}, {"name": "MobileFaceNet/Logits/Conv/BatchNorm/cond_1/Switch", "op": "Switch", "input": ["phase_train", "phase_train"], "attr": {"T": {"type": "DT_BOOL"}}}, {"name": "MobileFaceNet/Logits/Conv/BatchNorm/cond_1/AssignMovingAvg_1/Switch", "op": "Switch", "input": ["MobileFaceNet/Logits/Conv/BatchNorm/moving_variance", "phase_train"], "attr": {"T": {"type": "DT_FLOAT"}}}, {"name": "MobileFaceNet/Logits/Conv/BatchNorm/cond_1/AssignMovingAvg_1/sub/Switch", "op": "Switch", "input": ["MobileFaceNet/Logits/Conv/BatchNorm/moving_variance", "phase_train"], "attr": {"T": {"type": "DT_FLOAT"}}}, {"name": "MobileFaceNet/Logits/Conv/BatchNorm/cond_1/AssignMovingAvg/Switch", "op": "Switch", "input": ["MobileFaceNet/Logits/Conv/BatchNorm/moving_mean", "phase_train"], "attr": {"T": {"type": "DT_FLOAT"}}}, {"name": "MobileFaceNet/Logits/Conv/BatchNorm/cond/FusedBatchNorm_1/Switch_1", "op": "Switch", "input": ["MobileFaceNet/Logits/Conv/BatchNorm/gamma", "phase_train"], "attr": {"T": {"type": "DT_FLOAT"}}}, {"name": "MobileFaceNet/Logits/Conv/BatchNorm/cond/FusedBatchNorm_1/Switch_2", "op": "Switch", "input": ["MobileFaceNet/Logits/Conv/BatchNorm/beta", "phase_train"], "attr": {"T": {"type": "DT_FLOAT"}}}, {"name": "MobileFaceNet/Logits/Conv/BatchNorm/cond/FusedBatchNorm_1/Switch_3", "op": "Switch", "input": ["MobileFaceNet/Logits/Conv/BatchNorm/moving_mean", "phase_train"], "attr": {"T": {"type": "DT_FLOAT"}}}, {"name": "MobileFaceNet/Logits/Conv/BatchNorm/cond/FusedBatchNorm_1/Switch_4", "op": "Switch", "input": ["MobileFaceNet/Logits/Conv/BatchNorm/moving_variance", "phase_train"], "attr": {"T": {"type": "DT_FLOAT"}}}, {"name": "MobileFaceNet/Logits/SeparableConv2d/BatchNorm/cond_1/AssignMovingAvg/sub/Switch", "op": "Switch", "input": ["MobileFaceNet/Logits/SeparableConv2d/BatchNorm/moving_mean", "phase_train"], "attr": {"T": {"type": "DT_FLOAT"}}}, {"name": "MobileFaceNet/Logits/SeparableConv2d/BatchNorm/cond_1/Switch", "op": "Switch", "input": ["phase_train", "phase_train"], "attr": {"T": {"type": "DT_BOOL"}}}, {"name": "MobileFaceNet/Logits/SeparableConv2d/BatchNorm/cond_1/AssignMovingAvg_1/Switch", "op": "Switch", "input": ["MobileFaceNet/Logits/SeparableConv2d/BatchNorm/moving_variance", "phase_train"], "attr": {"T": {"type": "DT_FLOAT"}}}, {"name": "MobileFaceNet/Logits/SeparableConv2d/BatchNorm/cond_1/AssignMovingAvg_1/sub/Switch", "op": "Switch", "input": ["MobileFaceNet/Logits/SeparableConv2d/BatchNorm/moving_variance", "phase_train"], "attr": {"T": {"type": "DT_FLOAT"}}}, {"name": "MobileFaceNet/Logits/SeparableConv2d/BatchNorm/cond_1/AssignMovingAvg/Switch", "op": "Switch", "input": ["MobileFaceNet/Logits/SeparableConv2d/BatchNorm/moving_mean", "phase_train"], "attr": {"T": {"type": "DT_FLOAT"}}}, {"name": "MobileFaceNet/Logits/SeparableConv2d/BatchNorm/cond/FusedBatchNorm_1/Switch_1", "op": "Switch", "input": ["MobileFaceNet/Logits/SeparableConv2d/BatchNorm/gamma", "phase_train"], "attr": {"T": {"type": "DT_FLOAT"}}}, {"name": "MobileFaceNet/Logits/SeparableConv2d/BatchNorm/cond/FusedBatchNorm_1/Switch_2", "op": "Switch", "input": ["MobileFaceNet/Logits/SeparableConv2d/BatchNorm/beta", "phase_train"], "attr": {"T": {"type": "DT_FLOAT"}}}, {"name": "MobileFaceNet/Logits/SeparableConv2d/BatchNorm/cond/FusedBatchNorm_1/Switch_3", "op": "Switch", "input": ["MobileFaceNet/Logits/SeparableConv2d/BatchNorm/moving_mean", "phase_train"], "attr": {"T": {"type": "DT_FLOAT"}}}, {"name": "MobileFaceNet/Logits/SeparableConv2d/BatchNorm/cond/FusedBatchNorm_1/Switch_4", "op": "Switch", "input": ["MobileFaceNet/Logits/SeparableConv2d/BatchNorm/moving_variance", "phase_train"], "attr": {"T": {"type": "DT_FLOAT"}}}, {"name": "MobileFaceNet/MobileFaceNet/Conv2d_7/BatchNorm/cond_1/AssignMovingAvg/sub/Switch", "op": "Switch", "input": ["MobileFaceNet/Conv2d_7/BatchNorm/moving_mean", "phase_train"], "attr": {"T": {"type": "DT_FLOAT"}}}, {"name": "MobileFaceNet/MobileFaceNet/Conv2d_7/BatchNorm/cond_1/Switch", "op": "Switch", "input": ["phase_train", "phase_train"], "attr": {"T": {"type": "DT_BOOL"}}}, {"name": "MobileFaceNet/MobileFaceNet/Conv2d_7/BatchNorm/cond_1/AssignMovingAvg_1/Switch", "op": "Switch", "input": ["MobileFaceNet/Conv2d_7/BatchNorm/moving_variance", "phase_train"], "attr": {"T": {"type": "DT_FLOAT"}}}, {"name": "MobileFaceNet/MobileFaceNet/Conv2d_7/BatchNorm/cond_1/AssignMovingAvg_1/sub/Switch", "op": "Switch", "input": ["MobileFaceNet/Conv2d_7/BatchNorm/moving_variance", "phase_train"], "attr": {"T": {"type": "DT_FLOAT"}}}, {"name": "MobileFaceNet/MobileFaceNet/Conv2d_7/BatchNorm/cond_1/AssignMovingAvg/Switch", "op": "Switch", "input": ["MobileFaceNet/Conv2d_7/BatchNorm/moving_mean", "phase_train"], "attr": {"T": {"type": "DT_FLOAT"}}}, {"name": "MobileFaceNet/MobileFaceNet/Conv2d_7/BatchNorm/cond/FusedBatchNorm_1/Switch_1", "op": "Switch", "input": ["MobileFaceNet/Conv2d_7/BatchNorm/gamma", "phase_train"], "attr": {"T": {"type": "DT_FLOAT"}}}, {"name": "MobileFaceNet/MobileFaceNet/Conv2d_7/BatchNorm/cond/FusedBatchNorm_1/Switch_2", "op": "Switch", "input": ["MobileFaceNet/Conv2d_7/BatchNorm/beta", "phase_train"], "attr": {"T": {"type": "DT_FLOAT"}}}, {"name": "MobileFaceNet/MobileFaceNet/Conv2d_7/BatchNorm/cond/FusedBatchNorm_1/Switch_3", "op": "Switch", "input": ["MobileFaceNet/Conv2d_7/BatchNorm/moving_mean", "phase_train"], "attr": {"T": {"type": "DT_FLOAT"}}}, {"name": "MobileFaceNet/MobileFaceNet/Conv2d_7/BatchNorm/cond/FusedBatchNorm_1/Switch_4", "op": "Switch", "input": ["MobileFaceNet/Conv2d_7/BatchNorm/moving_variance", "phase_train"], "attr": {"T": {"type": "DT_FLOAT"}}}, {"name": "MobileFaceNet/MobileFaceNet/Conv2d_6_InvResBlock_1/Conv_1/BatchNorm/cond_1/AssignMovingAvg/sub/Switch", "op": "Switch", "input": ["MobileFaceNet/Conv_30/BatchNorm/moving_mean", "phase_train"], "attr": {"T": {"type": "DT_FLOAT"}}}, {"name": "MobileFaceNet/MobileFaceNet/Conv2d_6_InvResBlock_1/Conv_1/BatchNorm/cond_1/Switch", "op": "Switch", "input": ["phase_train", "phase_train"], "attr": {"T": {"type": "DT_BOOL"}}}, {"name": "MobileFaceNet/MobileFaceNet/Conv2d_6_InvResBlock_1/Conv_1/BatchNorm/cond_1/AssignMovingAvg_1/Switch", "op": "Switch", "input": ["MobileFaceNet/Conv_30/BatchNorm/moving_variance", "phase_train"], "attr": {"T": {"type": "DT_FLOAT"}}}, {"name": "MobileFaceNet/MobileFaceNet/Conv2d_6_InvResBlock_1/Conv_1/BatchNorm/cond_1/AssignMovingAvg_1/sub/Switch", "op": "Switch", "input": ["MobileFaceNet/Conv_30/BatchNorm/moving_variance", "phase_train"], "attr": {"T": {"type": "DT_FLOAT"}}}, {"name": "MobileFaceNet/MobileFaceNet/Conv2d_6_InvResBlock_1/Conv_1/BatchNorm/cond_1/AssignMovingAvg/Switch", "op": "Switch", "input": ["MobileFaceNet/Conv_30/BatchNorm/moving_mean", "phase_train"], "attr": {"T": {"type": "DT_FLOAT"}}}, {"name": "MobileFaceNet/MobileFaceNet/Conv2d_6_InvResBlock_1/Conv_1/BatchNorm/cond/FusedBatchNorm_1/Switch_1", "op": "Switch", "input": ["MobileFaceNet/Conv_30/BatchNorm/gamma", "phase_train"], "attr": {"T": {"type": "DT_FLOAT"}}}, {"name": "MobileFaceNet/MobileFaceNet/Conv2d_6_InvResBlock_1/Conv_1/BatchNorm/cond/FusedBatchNorm_1/Switch_2", "op": "Switch", "input": ["MobileFaceNet/Conv_30/BatchNorm/beta", "phase_train"], "attr": {"T": {"type": "DT_FLOAT"}}}, {"name": "MobileFaceNet/MobileFaceNet/Conv2d_6_InvResBlock_1/Conv_1/BatchNorm/cond/FusedBatchNorm_1/Switch_3", "op": "Switch", "input": ["MobileFaceNet/Conv_30/BatchNorm/moving_mean", "phase_train"], "attr": {"T": {"type": "DT_FLOAT"}}}, {"name": "MobileFaceNet/MobileFaceNet/Conv2d_6_InvResBlock_1/Conv_1/BatchNorm/cond/FusedBatchNorm_1/Switch_4", "op": "Switch", "input": ["MobileFaceNet/Conv_30/BatchNorm/moving_variance", "phase_train"], "attr": {"T": {"type": "DT_FLOAT"}}}, {"name": "MobileFaceNet/MobileFaceNet/Conv2d_6_InvResBlock_1/SeparableConv2d/BatchNorm/cond_1/AssignMovingAvg/sub/Switch", "op": "Switch", "input": ["MobileFaceNet/SeparableConv2d_15/BatchNorm/moving_mean", "phase_train"], "attr": {"T": {"type": "DT_FLOAT"}}}, {"name": "MobileFaceNet/MobileFaceNet/Conv2d_6_InvResBlock_1/SeparableConv2d/BatchNorm/cond_1/Switch", "op": "Switch", "input": ["phase_train", "phase_train"], "attr": {"T": {"type": "DT_BOOL"}}}, {"name": "MobileFaceNet/MobileFaceNet/Conv2d_6_InvResBlock_1/SeparableConv2d/BatchNorm/cond_1/AssignMovingAvg_1/Switch", "op": "Switch", "input": ["MobileFaceNet/SeparableConv2d_15/BatchNorm/moving_variance", "phase_train"], "attr": {"T": {"type": "DT_FLOAT"}}}, {"name": "MobileFaceNet/MobileFaceNet/Conv2d_6_InvResBlock_1/SeparableConv2d/BatchNorm/cond_1/AssignMovingAvg_1/sub/Switch", "op": "Switch", "input": ["MobileFaceNet/SeparableConv2d_15/BatchNorm/moving_variance", "phase_train"], "attr": {"T": {"type": "DT_FLOAT"}}}, {"name": "MobileFaceNet/MobileFaceNet/Conv2d_6_InvResBlock_1/SeparableConv2d/BatchNorm/cond_1/AssignMovingAvg/Switch", "op": "Switch", "input": ["MobileFaceNet/SeparableConv2d_15/BatchNorm/moving_mean", "phase_train"], "attr": {"T": {"type": "DT_FLOAT"}}}, {"name": "MobileFaceNet/MobileFaceNet/Conv2d_6_InvResBlock_1/SeparableConv2d/BatchNorm/cond/FusedBatchNorm_1/Switch_1", "op": "Switch", "input": ["MobileFaceNet/SeparableConv2d_15/BatchNorm/gamma", "phase_train"], "attr": {"T": {"type": "DT_FLOAT"}}}, {"name": "MobileFaceNet/MobileFaceNet/Conv2d_6_InvResBlock_1/SeparableConv2d/BatchNorm/cond/FusedBatchNorm_1/Switch_2", "op": "Switch", "input": ["MobileFaceNet/SeparableConv2d_15/BatchNorm/beta", "phase_train"], "attr": {"T": {"type": "DT_FLOAT"}}}, {"name": "MobileFaceNet/MobileFaceNet/Conv2d_6_InvResBlock_1/SeparableConv2d/BatchNorm/cond/FusedBatchNorm_1/Switch_3", "op": "Switch", "input": ["MobileFaceNet/SeparableConv2d_15/BatchNorm/moving_mean", "phase_train"], "attr": {"T": {"type": "DT_FLOAT"}}}, {"name": "MobileFaceNet/MobileFaceNet/Conv2d_6_InvResBlock_1/SeparableConv2d/BatchNorm/cond/FusedBatchNorm_1/Switch_4", "op": "Switch", "input": ["MobileFaceNet/SeparableConv2d_15/BatchNorm/moving_variance", "phase_train"], "attr": {"T": {"type": "DT_FLOAT"}}}, {"name": "MobileFaceNet/MobileFaceNet/Conv2d_6_InvResBlock_1/Conv/BatchNorm/cond_1/AssignMovingAvg/sub/Switch", "op": "Switch", "input": ["MobileFaceNet/Conv_29/BatchNorm/moving_mean", "phase_train"], "attr": {"T": {"type": "DT_FLOAT"}}}, {"name": "MobileFaceNet/MobileFaceNet/Conv2d_6_InvResBlock_1/Conv/BatchNorm/cond_1/Switch", "op": "Switch", "input": ["phase_train", "phase_train"], "attr": {"T": {"type": "DT_BOOL"}}}, {"name": "MobileFaceNet/MobileFaceNet/Conv2d_6_InvResBlock_1/Conv/BatchNorm/cond_1/AssignMovingAvg_1/Switch", "op": "Switch", "input": ["MobileFaceNet/Conv_29/BatchNorm/moving_variance", "phase_train"], "attr": {"T": {"type": "DT_FLOAT"}}}, {"name": "MobileFaceNet/MobileFaceNet/Conv2d_6_InvResBlock_1/Conv/BatchNorm/cond_1/AssignMovingAvg_1/sub/Switch", "op": "Switch", "input": ["MobileFaceNet/Conv_29/BatchNorm/moving_variance", "phase_train"], "attr": {"T": {"type": "DT_FLOAT"}}}, {"name": "MobileFaceNet/MobileFaceNet/Conv2d_6_InvResBlock_1/Conv/BatchNorm/cond_1/AssignMovingAvg/Switch", "op": "Switch", "input": ["MobileFaceNet/Conv_29/BatchNorm/moving_mean", "phase_train"], "attr": {"T": {"type": "DT_FLOAT"}}}, {"name": "MobileFaceNet/MobileFaceNet/Conv2d_6_InvResBlock_1/Conv/BatchNorm/cond/FusedBatchNorm_1/Switch_1", "op": "Switch", "input": ["MobileFaceNet/Conv_29/BatchNorm/gamma", "phase_train"], "attr": {"T": {"type": "DT_FLOAT"}}}, {"name": "MobileFaceNet/MobileFaceNet/Conv2d_6_InvResBlock_1/Conv/BatchNorm/cond/FusedBatchNorm_1/Switch_2", "op": "Switch", "input": ["MobileFaceNet/Conv_29/BatchNorm/beta", "phase_train"], "attr": {"T": {"type": "DT_FLOAT"}}}, {"name": "MobileFaceNet/MobileFaceNet/Conv2d_6_InvResBlock_1/Conv/BatchNorm/cond/FusedBatchNorm_1/Switch_3", "op": "Switch", "input": ["MobileFaceNet/Conv_29/BatchNorm/moving_mean", "phase_train"], "attr": {"T": {"type": "DT_FLOAT"}}}, {"name": "MobileFaceNet/MobileFaceNet/Conv2d_6_InvResBlock_1/Conv/BatchNorm/cond/FusedBatchNorm_1/Switch_4", "op": "Switch", "input": ["MobileFaceNet/Conv_29/BatchNorm/moving_variance", "phase_train"], "attr": {"T": {"type": "DT_FLOAT"}}}, {"name": "MobileFaceNet/MobileFaceNet/Conv2d_6_InvResBlock_1/Conv/BatchNorm/cond/FusedBatchNorm/Switch_1", "op": "Switch", "input": ["MobileFaceNet/Conv_29/BatchNorm/gamma", "phase_train"], "attr": {"T": {"type": "DT_FLOAT"}}}, {"name": "MobileFaceNet/MobileFaceNet/Conv2d_6_InvResBlock_1/Conv/BatchNorm/cond/FusedBatchNorm/Switch_2", "op": "Switch", "input": ["MobileFaceNet/Conv_29/BatchNorm/beta", "phase_train"], "attr": {"T": {"type": "DT_FLOAT"}}}, {"name": "MobileFaceNet/MobileFaceNet/Conv2d_6_InvResBlock_1/Conv/BatchNorm/cond/Switch", "op": "Switch", "input": ["phase_train", "phase_train"], "attr": {"T": {"type": "DT_BOOL"}}}, {"name": "MobileFaceNet/MobileFaceNet/Conv2d_6_InvResBlock_1/SeparableConv2d/BatchNorm/cond/FusedBatchNorm/Switch_1", "op": "Switch", "input": ["MobileFaceNet/SeparableConv2d_15/BatchNorm/gamma", "phase_train"], "attr": {"T": {"type": "DT_FLOAT"}}}, {"name": "MobileFaceNet/MobileFaceNet/Conv2d_6_InvResBlock_1/SeparableConv2d/BatchNorm/cond/FusedBatchNorm/Switch_2", "op": "Switch", "input": ["MobileFaceNet/SeparableConv2d_15/BatchNorm/beta", "phase_train"], "attr": {"T": {"type": "DT_FLOAT"}}}, {"name": "MobileFaceNet/MobileFaceNet/Conv2d_6_InvResBlock_1/SeparableConv2d/BatchNorm/cond/Switch", "op": "Switch", "input": ["phase_train", "phase_train"], "attr": {"T": {"type": "DT_BOOL"}}}, {"name": "MobileFaceNet/MobileFaceNet/Conv2d_6_InvResBlock_1/Conv_1/BatchNorm/cond/FusedBatchNorm/Switch_1", "op": "Switch", "input": ["MobileFaceNet/Conv_30/BatchNorm/gamma", "phase_train"], "attr": {"T": {"type": "DT_FLOAT"}}}, {"name": "MobileFaceNet/MobileFaceNet/Conv2d_6_InvResBlock_1/Conv_1/BatchNorm/cond/FusedBatchNorm/Switch_2", "op": "Switch", "input": ["MobileFaceNet/Conv_30/BatchNorm/beta", "phase_train"], "attr": {"T": {"type": "DT_FLOAT"}}}, {"name": "MobileFaceNet/MobileFaceNet/Conv2d_6_InvResBlock_1/Conv_1/BatchNorm/cond/Switch", "op": "Switch", "input": ["phase_train", "phase_train"], "attr": {"T": {"type": "DT_BOOL"}}}, {"name": "MobileFaceNet/MobileFaceNet/Conv2d_6_InvResBlock_0/Conv_1/BatchNorm/cond_1/AssignMovingAvg/sub/Switch", "op": "Switch", "input": ["MobileFaceNet/Conv_28/BatchNorm/moving_mean", "phase_train"], "attr": {"T": {"type": "DT_FLOAT"}}}, {"name": "MobileFaceNet/MobileFaceNet/Conv2d_6_InvResBlock_0/Conv_1/BatchNorm/cond_1/Switch", "op": "Switch", "input": ["phase_train", "phase_train"], "attr": {"T": {"type": "DT_BOOL"}}}, {"name": "MobileFaceNet/MobileFaceNet/Conv2d_6_InvResBlock_0/Conv_1/BatchNorm/cond_1/AssignMovingAvg_1/Switch", "op": "Switch", "input": ["MobileFaceNet/Conv_28/BatchNorm/moving_variance", "phase_train"], "attr": {"T": {"type": "DT_FLOAT"}}}, {"name": "MobileFaceNet/MobileFaceNet/Conv2d_6_InvResBlock_0/Conv_1/BatchNorm/cond_1/AssignMovingAvg_1/sub/Switch", "op": "Switch", "input": ["MobileFaceNet/Conv_28/BatchNorm/moving_variance", "phase_train"], "attr": {"T": {"type": "DT_FLOAT"}}}, {"name": "MobileFaceNet/MobileFaceNet/Conv2d_6_InvResBlock_0/Conv_1/BatchNorm/cond_1/AssignMovingAvg/Switch", "op": "Switch", "input": ["MobileFaceNet/Conv_28/BatchNorm/moving_mean", "phase_train"], "attr": {"T": {"type": "DT_FLOAT"}}}, {"name": "MobileFaceNet/MobileFaceNet/Conv2d_6_InvResBlock_0/Conv_1/BatchNorm/cond/FusedBatchNorm_1/Switch_1", "op": "Switch", "input": ["MobileFaceNet/Conv_28/BatchNorm/gamma", "phase_train"], "attr": {"T": {"type": "DT_FLOAT"}}}, {"name": "MobileFaceNet/MobileFaceNet/Conv2d_6_InvResBlock_0/Conv_1/BatchNorm/cond/FusedBatchNorm_1/Switch_2", "op": "Switch", "input": ["MobileFaceNet/Conv_28/BatchNorm/beta", "phase_train"], "attr": {"T": {"type": "DT_FLOAT"}}}, {"name": "MobileFaceNet/MobileFaceNet/Conv2d_6_InvResBlock_0/Conv_1/BatchNorm/cond/FusedBatchNorm_1/Switch_3", "op": "Switch", "input": ["MobileFaceNet/Conv_28/BatchNorm/moving_mean", "phase_train"], "attr": {"T": {"type": "DT_FLOAT"}}}, {"name": "MobileFaceNet/MobileFaceNet/Conv2d_6_InvResBlock_0/Conv_1/BatchNorm/cond/FusedBatchNorm_1/Switch_4", "op": "Switch", "input": ["MobileFaceNet/Conv_28/BatchNorm/moving_variance", "phase_train"], "attr": {"T": {"type": "DT_FLOAT"}}}, {"name": "MobileFaceNet/MobileFaceNet/Conv2d_6_InvResBlock_0/SeparableConv2d/BatchNorm/cond_1/AssignMovingAvg/sub/Switch", "op": "Switch", "input": ["MobileFaceNet/SeparableConv2d_14/BatchNorm/moving_mean", "phase_train"], "attr": {"T": {"type": "DT_FLOAT"}}}, {"name": "MobileFaceNet/MobileFaceNet/Conv2d_6_InvResBlock_0/SeparableConv2d/BatchNorm/cond_1/Switch", "op": "Switch", "input": ["phase_train", "phase_train"], "attr": {"T": {"type": "DT_BOOL"}}}, {"name": "MobileFaceNet/MobileFaceNet/Conv2d_6_InvResBlock_0/SeparableConv2d/BatchNorm/cond_1/AssignMovingAvg_1/Switch", "op": "Switch", "input": ["MobileFaceNet/SeparableConv2d_14/BatchNorm/moving_variance", "phase_train"], "attr": {"T": {"type": "DT_FLOAT"}}}, {"name": "MobileFaceNet/MobileFaceNet/Conv2d_6_InvResBlock_0/SeparableConv2d/BatchNorm/cond_1/AssignMovingAvg_1/sub/Switch", "op": "Switch", "input": ["MobileFaceNet/SeparableConv2d_14/BatchNorm/moving_variance", "phase_train"], "attr": {"T": {"type": "DT_FLOAT"}}}, {"name": "MobileFaceNet/MobileFaceNet/Conv2d_6_InvResBlock_0/SeparableConv2d/BatchNorm/cond_1/AssignMovingAvg/Switch", "op": "Switch", "input": ["MobileFaceNet/SeparableConv2d_14/BatchNorm/moving_mean", "phase_train"], "attr": {"T": {"type": "DT_FLOAT"}}}, {"name": "MobileFaceNet/MobileFaceNet/Conv2d_6_InvResBlock_0/SeparableConv2d/BatchNorm/cond/FusedBatchNorm_1/Switch_1", "op": "Switch", "input": ["MobileFaceNet/SeparableConv2d_14/BatchNorm/gamma", "phase_train"], "attr": {"T": {"type": "DT_FLOAT"}}}, {"name": "MobileFaceNet/MobileFaceNet/Conv2d_6_InvResBlock_0/SeparableConv2d/BatchNorm/cond/FusedBatchNorm_1/Switch_2", "op": "Switch", "input": ["MobileFaceNet/SeparableConv2d_14/BatchNorm/beta", "phase_train"], "attr": {"T": {"type": "DT_FLOAT"}}}, {"name": "MobileFaceNet/MobileFaceNet/Conv2d_6_InvResBlock_0/SeparableConv2d/BatchNorm/cond/FusedBatchNorm_1/Switch_3", "op": "Switch", "input": ["MobileFaceNet/SeparableConv2d_14/BatchNorm/moving_mean", "phase_train"], "attr": {"T": {"type": "DT_FLOAT"}}}, {"name": "MobileFaceNet/MobileFaceNet/Conv2d_6_InvResBlock_0/SeparableConv2d/BatchNorm/cond/FusedBatchNorm_1/Switch_4", "op": "Switch", "input": ["MobileFaceNet/SeparableConv2d_14/BatchNorm/moving_variance", "phase_train"], "attr": {"T": {"type": "DT_FLOAT"}}}, {"name": "MobileFaceNet/MobileFaceNet/Conv2d_6_InvResBlock_0/Conv/BatchNorm/cond_1/AssignMovingAvg/sub/Switch", "op": "Switch", "input": ["MobileFaceNet/Conv_27/BatchNorm/moving_mean", "phase_train"], "attr": {"T": {"type": "DT_FLOAT"}}}, {"name": "MobileFaceNet/MobileFaceNet/Conv2d_6_InvResBlock_0/Conv/BatchNorm/cond_1/Switch", "op": "Switch", "input": ["phase_train", "phase_train"], "attr": {"T": {"type": "DT_BOOL"}}}, {"name": "MobileFaceNet/MobileFaceNet/Conv2d_6_InvResBlock_0/Conv/BatchNorm/cond_1/AssignMovingAvg_1/Switch", "op": "Switch", "input": ["MobileFaceNet/Conv_27/BatchNorm/moving_variance", "phase_train"], "attr": {"T": {"type": "DT_FLOAT"}}}, {"name": "MobileFaceNet/MobileFaceNet/Conv2d_6_InvResBlock_0/Conv/BatchNorm/cond_1/AssignMovingAvg_1/sub/Switch", "op": "Switch", "input": ["MobileFaceNet/Conv_27/BatchNorm/moving_variance", "phase_train"], "attr": {"T": {"type": "DT_FLOAT"}}}, {"name": "MobileFaceNet/MobileFaceNet/Conv2d_6_InvResBlock_0/Conv/BatchNorm/cond_1/AssignMovingAvg/Switch", "op": "Switch", "input": ["MobileFaceNet/Conv_27/BatchNorm/moving_mean", "phase_train"], "attr": {"T": {"type": "DT_FLOAT"}}}, {"name": "MobileFaceNet/MobileFaceNet/Conv2d_6_InvResBlock_0/Conv/BatchNorm/cond/FusedBatchNorm_1/Switch_1", "op": "Switch", "input": ["MobileFaceNet/Conv_27/BatchNorm/gamma", "phase_train"], "attr": {"T": {"type": "DT_FLOAT"}}}, {"name": "MobileFaceNet/MobileFaceNet/Conv2d_6_InvResBlock_0/Conv/BatchNorm/cond/FusedBatchNorm_1/Switch_2", "op": "Switch", "input": ["MobileFaceNet/Conv_27/BatchNorm/beta", "phase_train"], "attr": {"T": {"type": "DT_FLOAT"}}}, {"name": "MobileFaceNet/MobileFaceNet/Conv2d_6_InvResBlock_0/Conv/BatchNorm/cond/FusedBatchNorm_1/Switch_3", "op": "Switch", "input": ["MobileFaceNet/Conv_27/BatchNorm/moving_mean", "phase_train"], "attr": {"T": {"type": "DT_FLOAT"}}}, {"name": "MobileFaceNet/MobileFaceNet/Conv2d_6_InvResBlock_0/Conv/BatchNorm/cond/FusedBatchNorm_1/Switch_4", "op": "Switch", "input": ["MobileFaceNet/Conv_27/BatchNorm/moving_variance", "phase_train"], "attr": {"T": {"type": "DT_FLOAT"}}}, {"name": "MobileFaceNet/MobileFaceNet/Conv2d_6_InvResBlock_0/Conv/BatchNorm/cond/FusedBatchNorm/Switch_1", "op": "Switch", "input": ["MobileFaceNet/Conv_27/BatchNorm/gamma", "phase_train"], "attr": {"T": {"type": "DT_FLOAT"}}}, {"name": "MobileFaceNet/MobileFaceNet/Conv2d_6_InvResBlock_0/Conv/BatchNorm/cond/FusedBatchNorm/Switch_2", "op": "Switch", "input": ["MobileFaceNet/Conv_27/BatchNorm/beta", "phase_train"], "attr": {"T": {"type": "DT_FLOAT"}}}, {"name": "MobileFaceNet/MobileFaceNet/Conv2d_6_InvResBlock_0/Conv/BatchNorm/cond/Switch", "op": "Switch", "input": ["phase_train", "phase_train"], "attr": {"T": {"type": "DT_BOOL"}}}, {"name": "MobileFaceNet/MobileFaceNet/Conv2d_6_InvResBlock_0/SeparableConv2d/BatchNorm/cond/FusedBatchNorm/Switch_1", "op": "Switch", "input": ["MobileFaceNet/SeparableConv2d_14/BatchNorm/gamma", "phase_train"], "attr": {"T": {"type": "DT_FLOAT"}}}, {"name": "MobileFaceNet/MobileFaceNet/Conv2d_6_InvResBlock_0/SeparableConv2d/BatchNorm/cond/FusedBatchNorm/Switch_2", "op": "Switch", "input": ["MobileFaceNet/SeparableConv2d_14/BatchNorm/beta", "phase_train"], "attr": {"T": {"type": "DT_FLOAT"}}}, {"name": "MobileFaceNet/MobileFaceNet/Conv2d_6_InvResBlock_0/SeparableConv2d/BatchNorm/cond/Switch", "op": "Switch", "input": ["phase_train", "phase_train"], "attr": {"T": {"type": "DT_BOOL"}}}, {"name": "MobileFaceNet/MobileFaceNet/Conv2d_6_InvResBlock_0/Conv_1/BatchNorm/cond/FusedBatchNorm/Switch_1", "op": "Switch", "input": ["MobileFaceNet/Conv_28/BatchNorm/gamma", "phase_train"], "attr": {"T": {"type": "DT_FLOAT"}}}, {"name": "MobileFaceNet/MobileFaceNet/Conv2d_6_InvResBlock_0/Conv_1/BatchNorm/cond/FusedBatchNorm/Switch_2", "op": "Switch", "input": ["MobileFaceNet/Conv_28/BatchNorm/beta", "phase_train"], "attr": {"T": {"type": "DT_FLOAT"}}}, {"name": "MobileFaceNet/MobileFaceNet/Conv2d_6_InvResBlock_0/Conv_1/BatchNorm/cond/Switch", "op": "Switch", "input": ["phase_train", "phase_train"], "attr": {"T": {"type": "DT_BOOL"}}}, {"name": "MobileFaceNet/MobileFaceNet/Conv2d_5_InvResBlock_0/Conv_1/BatchNorm/cond_1/AssignMovingAvg/sub/Switch", "op": "Switch", "input": ["MobileFaceNet/Conv_26/BatchNorm/moving_mean", "phase_train"], "attr": {"T": {"type": "DT_FLOAT"}}}, {"name": "MobileFaceNet/MobileFaceNet/Conv2d_5_InvResBlock_0/Conv_1/BatchNorm/cond_1/Switch", "op": "Switch", "input": ["phase_train", "phase_train"], "attr": {"T": {"type": "DT_BOOL"}}}, {"name": "MobileFaceNet/MobileFaceNet/Conv2d_5_InvResBlock_0/Conv_1/BatchNorm/cond_1/AssignMovingAvg_1/Switch", "op": "Switch", "input": ["MobileFaceNet/Conv_26/BatchNorm/moving_variance", "phase_train"], "attr": {"T": {"type": "DT_FLOAT"}}}, {"name": "MobileFaceNet/MobileFaceNet/Conv2d_5_InvResBlock_0/Conv_1/BatchNorm/cond_1/AssignMovingAvg_1/sub/Switch", "op": "Switch", "input": ["MobileFaceNet/Conv_26/BatchNorm/moving_variance", "phase_train"], "attr": {"T": {"type": "DT_FLOAT"}}}, {"name": "MobileFaceNet/MobileFaceNet/Conv2d_5_InvResBlock_0/Conv_1/BatchNorm/cond_1/AssignMovingAvg/Switch", "op": "Switch", "input": ["MobileFaceNet/Conv_26/BatchNorm/moving_mean", "phase_train"], "attr": {"T": {"type": "DT_FLOAT"}}}, {"name": "MobileFaceNet/MobileFaceNet/Conv2d_5_InvResBlock_0/Conv_1/BatchNorm/cond/FusedBatchNorm_1/Switch_1", "op": "Switch", "input": ["MobileFaceNet/Conv_26/BatchNorm/gamma", "phase_train"], "attr": {"T": {"type": "DT_FLOAT"}}}, {"name": "MobileFaceNet/MobileFaceNet/Conv2d_5_InvResBlock_0/Conv_1/BatchNorm/cond/FusedBatchNorm_1/Switch_2", "op": "Switch", "input": ["MobileFaceNet/Conv_26/BatchNorm/beta", "phase_train"], "attr": {"T": {"type": "DT_FLOAT"}}}, {"name": "MobileFaceNet/MobileFaceNet/Conv2d_5_InvResBlock_0/Conv_1/BatchNorm/cond/FusedBatchNorm_1/Switch_3", "op": "Switch", "input": ["MobileFaceNet/Conv_26/BatchNorm/moving_mean", "phase_train"], "attr": {"T": {"type": "DT_FLOAT"}}}, {"name": "MobileFaceNet/MobileFaceNet/Conv2d_5_InvResBlock_0/Conv_1/BatchNorm/cond/FusedBatchNorm_1/Switch_4", "op": "Switch", "input": ["MobileFaceNet/Conv_26/BatchNorm/moving_variance", "phase_train"], "attr": {"T": {"type": "DT_FLOAT"}}}, {"name": "MobileFaceNet/MobileFaceNet/Conv2d_5_InvResBlock_0/SeparableConv2d/BatchNorm/cond_1/AssignMovingAvg/sub/Switch", "op": "Switch", "input": ["MobileFaceNet/SeparableConv2d_13/BatchNorm/moving_mean", "phase_train"], "attr": {"T": {"type": "DT_FLOAT"}}}, {"name": "MobileFaceNet/MobileFaceNet/Conv2d_5_InvResBlock_0/SeparableConv2d/BatchNorm/cond_1/Switch", "op": "Switch", "input": ["phase_train", "phase_train"], "attr": {"T": {"type": "DT_BOOL"}}}, {"name": "MobileFaceNet/MobileFaceNet/Conv2d_5_InvResBlock_0/SeparableConv2d/BatchNorm/cond_1/AssignMovingAvg_1/Switch", "op": "Switch", "input": ["MobileFaceNet/SeparableConv2d_13/BatchNorm/moving_variance", "phase_train"], "attr": {"T": {"type": "DT_FLOAT"}}}, {"name": "MobileFaceNet/MobileFaceNet/Conv2d_5_InvResBlock_0/SeparableConv2d/BatchNorm/cond_1/AssignMovingAvg_1/sub/Switch", "op": "Switch", "input": ["MobileFaceNet/SeparableConv2d_13/BatchNorm/moving_variance", "phase_train"], "attr": {"T": {"type": "DT_FLOAT"}}}, {"name": "MobileFaceNet/MobileFaceNet/Conv2d_5_InvResBlock_0/SeparableConv2d/BatchNorm/cond_1/AssignMovingAvg/Switch", "op": "Switch", "input": ["MobileFaceNet/SeparableConv2d_13/BatchNorm/moving_mean", "phase_train"], "attr": {"T": {"type": "DT_FLOAT"}}}, {"name": "MobileFaceNet/MobileFaceNet/Conv2d_5_InvResBlock_0/SeparableConv2d/BatchNorm/cond/FusedBatchNorm_1/Switch_1", "op": "Switch", "input": ["MobileFaceNet/SeparableConv2d_13/BatchNorm/gamma", "phase_train"], "attr": {"T": {"type": "DT_FLOAT"}}}, {"name": "MobileFaceNet/MobileFaceNet/Conv2d_5_InvResBlock_0/SeparableConv2d/BatchNorm/cond/FusedBatchNorm_1/Switch_2", "op": "Switch", "input": ["MobileFaceNet/SeparableConv2d_13/BatchNorm/beta", "phase_train"], "attr": {"T": {"type": "DT_FLOAT"}}}, {"name": "MobileFaceNet/MobileFaceNet/Conv2d_5_InvResBlock_0/SeparableConv2d/BatchNorm/cond/FusedBatchNorm_1/Switch_3", "op": "Switch", "input": ["MobileFaceNet/SeparableConv2d_13/BatchNorm/moving_mean", "phase_train"], "attr": {"T": {"type": "DT_FLOAT"}}}, {"name": "MobileFaceNet/MobileFaceNet/Conv2d_5_InvResBlock_0/SeparableConv2d/BatchNorm/cond/FusedBatchNorm_1/Switch_4", "op": "Switch", "input": ["MobileFaceNet/SeparableConv2d_13/BatchNorm/moving_variance", "phase_train"], "attr": {"T": {"type": "DT_FLOAT"}}}, {"name": "MobileFaceNet/MobileFaceNet/Conv2d_5_InvResBlock_0/Conv/BatchNorm/cond_1/AssignMovingAvg/sub/Switch", "op": "Switch", "input": ["MobileFaceNet/Conv_25/BatchNorm/moving_mean", "phase_train"], "attr": {"T": {"type": "DT_FLOAT"}}}, {"name": "MobileFaceNet/MobileFaceNet/Conv2d_5_InvResBlock_0/Conv/BatchNorm/cond_1/Switch", "op": "Switch", "input": ["phase_train", "phase_train"], "attr": {"T": {"type": "DT_BOOL"}}}, {"name": "MobileFaceNet/MobileFaceNet/Conv2d_5_InvResBlock_0/Conv/BatchNorm/cond_1/AssignMovingAvg_1/Switch", "op": "Switch", "input": ["MobileFaceNet/Conv_25/BatchNorm/moving_variance", "phase_train"], "attr": {"T": {"type": "DT_FLOAT"}}}, {"name": "MobileFaceNet/MobileFaceNet/Conv2d_5_InvResBlock_0/Conv/BatchNorm/cond_1/AssignMovingAvg_1/sub/Switch", "op": "Switch", "input": ["MobileFaceNet/Conv_25/BatchNorm/moving_variance", "phase_train"], "attr": {"T": {"type": "DT_FLOAT"}}}, {"name": "MobileFaceNet/MobileFaceNet/Conv2d_5_InvResBlock_0/Conv/BatchNorm/cond_1/AssignMovingAvg/Switch", "op": "Switch", "input": ["MobileFaceNet/Conv_25/BatchNorm/moving_mean", "phase_train"], "attr": {"T": {"type": "DT_FLOAT"}}}, {"name": "MobileFaceNet/MobileFaceNet/Conv2d_5_InvResBlock_0/Conv/BatchNorm/cond/FusedBatchNorm_1/Switch_1", "op": "Switch", "input": ["MobileFaceNet/Conv_25/BatchNorm/gamma", "phase_train"], "attr": {"T": {"type": "DT_FLOAT"}}}, {"name": "MobileFaceNet/MobileFaceNet/Conv2d_5_InvResBlock_0/Conv/BatchNorm/cond/FusedBatchNorm_1/Switch_2", "op": "Switch", "input": ["MobileFaceNet/Conv_25/BatchNorm/beta", "phase_train"], "attr": {"T": {"type": "DT_FLOAT"}}}, {"name": "MobileFaceNet/MobileFaceNet/Conv2d_5_InvResBlock_0/Conv/BatchNorm/cond/FusedBatchNorm_1/Switch_3", "op": "Switch", "input": ["MobileFaceNet/Conv_25/BatchNorm/moving_mean", "phase_train"], "attr": {"T": {"type": "DT_FLOAT"}}}, {"name": "MobileFaceNet/MobileFaceNet/Conv2d_5_InvResBlock_0/Conv/BatchNorm/cond/FusedBatchNorm_1/Switch_4", "op": "Switch", "input": ["MobileFaceNet/Conv_25/BatchNorm/moving_variance", "phase_train"], "attr": {"T": {"type": "DT_FLOAT"}}}, {"name": "MobileFaceNet/MobileFaceNet/Conv2d_4_InvResBlock_5/Conv_1/BatchNorm/cond_1/AssignMovingAvg/sub/Switch", "op": "Switch", "input": ["MobileFaceNet/Conv_24/BatchNorm/moving_mean", "phase_train"], "attr": {"T": {"type": "DT_FLOAT"}}}, {"name": "MobileFaceNet/MobileFaceNet/Conv2d_4_InvResBlock_5/Conv_1/BatchNorm/cond_1/Switch", "op": "Switch", "input": ["phase_train", "phase_train"], "attr": {"T": {"type": "DT_BOOL"}}}, {"name": "MobileFaceNet/MobileFaceNet/Conv2d_4_InvResBlock_5/Conv_1/BatchNorm/cond_1/AssignMovingAvg_1/Switch", "op": "Switch", "input": ["MobileFaceNet/Conv_24/BatchNorm/moving_variance", "phase_train"], "attr": {"T": {"type": "DT_FLOAT"}}}, {"name": "MobileFaceNet/MobileFaceNet/Conv2d_4_InvResBlock_5/Conv_1/BatchNorm/cond_1/AssignMovingAvg_1/sub/Switch", "op": "Switch", "input": ["MobileFaceNet/Conv_24/BatchNorm/moving_variance", "phase_train"], "attr": {"T": {"type": "DT_FLOAT"}}}, {"name": "MobileFaceNet/MobileFaceNet/Conv2d_4_InvResBlock_5/Conv_1/BatchNorm/cond_1/AssignMovingAvg/Switch", "op": "Switch", "input": ["MobileFaceNet/Conv_24/BatchNorm/moving_mean", "phase_train"], "attr": {"T": {"type": "DT_FLOAT"}}}, {"name": "MobileFaceNet/MobileFaceNet/Conv2d_4_InvResBlock_5/Conv_1/BatchNorm/cond/FusedBatchNorm_1/Switch_1", "op": "Switch", "input": ["MobileFaceNet/Conv_24/BatchNorm/gamma", "phase_train"], "attr": {"T": {"type": "DT_FLOAT"}}}, {"name": "MobileFaceNet/MobileFaceNet/Conv2d_4_InvResBlock_5/Conv_1/BatchNorm/cond/FusedBatchNorm_1/Switch_2", "op": "Switch", "input": ["MobileFaceNet/Conv_24/BatchNorm/beta", "phase_train"], "attr": {"T": {"type": "DT_FLOAT"}}}, {"name": "MobileFaceNet/MobileFaceNet/Conv2d_4_InvResBlock_5/Conv_1/BatchNorm/cond/FusedBatchNorm_1/Switch_3", "op": "Switch", "input": ["MobileFaceNet/Conv_24/BatchNorm/moving_mean", "phase_train"], "attr": {"T": {"type": "DT_FLOAT"}}}, {"name": "MobileFaceNet/MobileFaceNet/Conv2d_4_InvResBlock_5/Conv_1/BatchNorm/cond/FusedBatchNorm_1/Switch_4", "op": "Switch", "input": ["MobileFaceNet/Conv_24/BatchNorm/moving_variance", "phase_train"], "attr": {"T": {"type": "DT_FLOAT"}}}, {"name": "MobileFaceNet/MobileFaceNet/Conv2d_4_InvResBlock_5/SeparableConv2d/BatchNorm/cond_1/AssignMovingAvg/sub/Switch", "op": "Switch", "input": ["MobileFaceNet/SeparableConv2d_12/BatchNorm/moving_mean", "phase_train"], "attr": {"T": {"type": "DT_FLOAT"}}}, {"name": "MobileFaceNet/MobileFaceNet/Conv2d_4_InvResBlock_5/SeparableConv2d/BatchNorm/cond_1/Switch", "op": "Switch", "input": ["phase_train", "phase_train"], "attr": {"T": {"type": "DT_BOOL"}}}, {"name": "MobileFaceNet/MobileFaceNet/Conv2d_4_InvResBlock_5/SeparableConv2d/BatchNorm/cond_1/AssignMovingAvg_1/Switch", "op": "Switch", "input": ["MobileFaceNet/SeparableConv2d_12/BatchNorm/moving_variance", "phase_train"], "attr": {"T": {"type": "DT_FLOAT"}}}, {"name": "MobileFaceNet/MobileFaceNet/Conv2d_4_InvResBlock_5/SeparableConv2d/BatchNorm/cond_1/AssignMovingAvg_1/sub/Switch", "op": "Switch", "input": ["MobileFaceNet/SeparableConv2d_12/BatchNorm/moving_variance", "phase_train"], "attr": {"T": {"type": "DT_FLOAT"}}}, {"name": "MobileFaceNet/MobileFaceNet/Conv2d_4_InvResBlock_5/SeparableConv2d/BatchNorm/cond_1/AssignMovingAvg/Switch", "op": "Switch", "input": ["MobileFaceNet/SeparableConv2d_12/BatchNorm/moving_mean", "phase_train"], "attr": {"T": {"type": "DT_FLOAT"}}}, {"name": "MobileFaceNet/MobileFaceNet/Conv2d_4_InvResBlock_5/SeparableConv2d/BatchNorm/cond/FusedBatchNorm_1/Switch_1", "op": "Switch", "input": ["MobileFaceNet/SeparableConv2d_12/BatchNorm/gamma", "phase_train"], "attr": {"T": {"type": "DT_FLOAT"}}}, {"name": "MobileFaceNet/MobileFaceNet/Conv2d_4_InvResBlock_5/SeparableConv2d/BatchNorm/cond/FusedBatchNorm_1/Switch_2", "op": "Switch", "input": ["MobileFaceNet/SeparableConv2d_12/BatchNorm/beta", "phase_train"], "attr": {"T": {"type": "DT_FLOAT"}}}, {"name": "MobileFaceNet/MobileFaceNet/Conv2d_4_InvResBlock_5/SeparableConv2d/BatchNorm/cond/FusedBatchNorm_1/Switch_3", "op": "Switch", "input": ["MobileFaceNet/SeparableConv2d_12/BatchNorm/moving_mean", "phase_train"], "attr": {"T": {"type": "DT_FLOAT"}}}, {"name": "MobileFaceNet/MobileFaceNet/Conv2d_4_InvResBlock_5/SeparableConv2d/BatchNorm/cond/FusedBatchNorm_1/Switch_4", "op": "Switch", "input": ["MobileFaceNet/SeparableConv2d_12/BatchNorm/moving_variance", "phase_train"], "attr": {"T": {"type": "DT_FLOAT"}}}, {"name": "MobileFaceNet/MobileFaceNet/Conv2d_4_InvResBlock_5/Conv/BatchNorm/cond_1/AssignMovingAvg/sub/Switch", "op": "Switch", "input": ["MobileFaceNet/Conv_23/BatchNorm/moving_mean", "phase_train"], "attr": {"T": {"type": "DT_FLOAT"}}}, {"name": "MobileFaceNet/MobileFaceNet/Conv2d_4_InvResBlock_5/Conv/BatchNorm/cond_1/Switch", "op": "Switch", "input": ["phase_train", "phase_train"], "attr": {"T": {"type": "DT_BOOL"}}}, {"name": "MobileFaceNet/MobileFaceNet/Conv2d_4_InvResBlock_5/Conv/BatchNorm/cond_1/AssignMovingAvg_1/Switch", "op": "Switch", "input": ["MobileFaceNet/Conv_23/BatchNorm/moving_variance", "phase_train"], "attr": {"T": {"type": "DT_FLOAT"}}}, {"name": "MobileFaceNet/MobileFaceNet/Conv2d_4_InvResBlock_5/Conv/BatchNorm/cond_1/AssignMovingAvg_1/sub/Switch", "op": "Switch", "input": ["MobileFaceNet/Conv_23/BatchNorm/moving_variance", "phase_train"], "attr": {"T": {"type": "DT_FLOAT"}}}, {"name": "MobileFaceNet/MobileFaceNet/Conv2d_4_InvResBlock_5/Conv/BatchNorm/cond_1/AssignMovingAvg/Switch", "op": "Switch", "input": ["MobileFaceNet/Conv_23/BatchNorm/moving_mean", "phase_train"], "attr": {"T": {"type": "DT_FLOAT"}}}, {"name": "MobileFaceNet/MobileFaceNet/Conv2d_4_InvResBlock_5/Conv/BatchNorm/cond/FusedBatchNorm_1/Switch_1", "op": "Switch", "input": ["MobileFaceNet/Conv_23/BatchNorm/gamma", "phase_train"], "attr": {"T": {"type": "DT_FLOAT"}}}, {"name": "MobileFaceNet/MobileFaceNet/Conv2d_4_InvResBlock_5/Conv/BatchNorm/cond/FusedBatchNorm_1/Switch_2", "op": "Switch", "input": ["MobileFaceNet/Conv_23/BatchNorm/beta", "phase_train"], "attr": {"T": {"type": "DT_FLOAT"}}}, {"name": "MobileFaceNet/MobileFaceNet/Conv2d_4_InvResBlock_5/Conv/BatchNorm/cond/FusedBatchNorm_1/Switch_3", "op": "Switch", "input": ["MobileFaceNet/Conv_23/BatchNorm/moving_mean", "phase_train"], "attr": {"T": {"type": "DT_FLOAT"}}}, {"name": "MobileFaceNet/MobileFaceNet/Conv2d_4_InvResBlock_5/Conv/BatchNorm/cond/FusedBatchNorm_1/Switch_4", "op": "Switch", "input": ["MobileFaceNet/Conv_23/BatchNorm/moving_variance", "phase_train"], "attr": {"T": {"type": "DT_FLOAT"}}}, {"name": "MobileFaceNet/MobileFaceNet/Conv2d_4_InvResBlock_5/Conv/BatchNorm/cond/FusedBatchNorm/Switch_1", "op": "Switch", "input": ["MobileFaceNet/Conv_23/BatchNorm/gamma", "phase_train"], "attr": {"T": {"type": "DT_FLOAT"}}}, {"name": "MobileFaceNet/MobileFaceNet/Conv2d_4_InvResBlock_5/Conv/BatchNorm/cond/FusedBatchNorm/Switch_2", "op": "Switch", "input": ["MobileFaceNet/Conv_23/BatchNorm/beta", "phase_train"], "attr": {"T": {"type": "DT_FLOAT"}}}, {"name": "MobileFaceNet/MobileFaceNet/Conv2d_4_InvResBlock_5/Conv/BatchNorm/cond/Switch", "op": "Switch", "input": ["phase_train", "phase_train"], "attr": {"T": {"type": "DT_BOOL"}}}, {"name": "MobileFaceNet/MobileFaceNet/Conv2d_4_InvResBlock_5/SeparableConv2d/BatchNorm/cond/FusedBatchNorm/Switch_1", "op": "Switch", "input": ["MobileFaceNet/SeparableConv2d_12/BatchNorm/gamma", "phase_train"], "attr": {"T": {"type": "DT_FLOAT"}}}, {"name": "MobileFaceNet/MobileFaceNet/Conv2d_4_InvResBlock_5/SeparableConv2d/BatchNorm/cond/FusedBatchNorm/Switch_2", "op": "Switch", "input": ["MobileFaceNet/SeparableConv2d_12/BatchNorm/beta", "phase_train"], "attr": {"T": {"type": "DT_FLOAT"}}}, {"name": "MobileFaceNet/MobileFaceNet/Conv2d_4_InvResBlock_5/SeparableConv2d/BatchNorm/cond/Switch", "op": "Switch", "input": ["phase_train", "phase_train"], "attr": {"T": {"type": "DT_BOOL"}}}, {"name": "MobileFaceNet/MobileFaceNet/Conv2d_4_InvResBlock_5/Conv_1/BatchNorm/cond/FusedBatchNorm/Switch_1", "op": "Switch", "input": ["MobileFaceNet/Conv_24/BatchNorm/gamma", "phase_train"], "attr": {"T": {"type": "DT_FLOAT"}}}, {"name": "MobileFaceNet/MobileFaceNet/Conv2d_4_InvResBlock_5/Conv_1/BatchNorm/cond/FusedBatchNorm/Switch_2", "op": "Switch", "input": ["MobileFaceNet/Conv_24/BatchNorm/beta", "phase_train"], "attr": {"T": {"type": "DT_FLOAT"}}}, {"name": "MobileFaceNet/MobileFaceNet/Conv2d_4_InvResBlock_5/Conv_1/BatchNorm/cond/Switch", "op": "Switch", "input": ["phase_train", "phase_train"], "attr": {"T": {"type": "DT_BOOL"}}}, {"name": "MobileFaceNet/MobileFaceNet/Conv2d_4_InvResBlock_4/Conv_1/BatchNorm/cond_1/AssignMovingAvg/sub/Switch", "op": "Switch", "input": ["MobileFaceNet/Conv_22/BatchNorm/moving_mean", "phase_train"], "attr": {"T": {"type": "DT_FLOAT"}}}, {"name": "MobileFaceNet/MobileFaceNet/Conv2d_4_InvResBlock_4/Conv_1/BatchNorm/cond_1/Switch", "op": "Switch", "input": ["phase_train", "phase_train"], "attr": {"T": {"type": "DT_BOOL"}}}, {"name": "MobileFaceNet/MobileFaceNet/Conv2d_4_InvResBlock_4/Conv_1/BatchNorm/cond_1/AssignMovingAvg_1/Switch", "op": "Switch", "input": ["MobileFaceNet/Conv_22/BatchNorm/moving_variance", "phase_train"], "attr": {"T": {"type": "DT_FLOAT"}}}, {"name": "MobileFaceNet/MobileFaceNet/Conv2d_4_InvResBlock_4/Conv_1/BatchNorm/cond_1/AssignMovingAvg_1/sub/Switch", "op": "Switch", "input": ["MobileFaceNet/Conv_22/BatchNorm/moving_variance", "phase_train"], "attr": {"T": {"type": "DT_FLOAT"}}}, {"name": "MobileFaceNet/MobileFaceNet/Conv2d_4_InvResBlock_4/Conv_1/BatchNorm/cond_1/AssignMovingAvg/Switch", "op": "Switch", "input": ["MobileFaceNet/Conv_22/BatchNorm/moving_mean", "phase_train"], "attr": {"T": {"type": "DT_FLOAT"}}}, {"name": "MobileFaceNet/MobileFaceNet/Conv2d_4_InvResBlock_4/Conv_1/BatchNorm/cond/FusedBatchNorm_1/Switch_1", "op": "Switch", "input": ["MobileFaceNet/Conv_22/BatchNorm/gamma", "phase_train"], "attr": {"T": {"type": "DT_FLOAT"}}}, {"name": "MobileFaceNet/MobileFaceNet/Conv2d_4_InvResBlock_4/Conv_1/BatchNorm/cond/FusedBatchNorm_1/Switch_2", "op": "Switch", "input": ["MobileFaceNet/Conv_22/BatchNorm/beta", "phase_train"], "attr": {"T": {"type": "DT_FLOAT"}}}, {"name": "MobileFaceNet/MobileFaceNet/Conv2d_4_InvResBlock_4/Conv_1/BatchNorm/cond/FusedBatchNorm_1/Switch_3", "op": "Switch", "input": ["MobileFaceNet/Conv_22/BatchNorm/moving_mean", "phase_train"], "attr": {"T": {"type": "DT_FLOAT"}}}, {"name": "MobileFaceNet/MobileFaceNet/Conv2d_4_InvResBlock_4/Conv_1/BatchNorm/cond/FusedBatchNorm_1/Switch_4", "op": "Switch", "input": ["MobileFaceNet/Conv_22/BatchNorm/moving_variance", "phase_train"], "attr": {"T": {"type": "DT_FLOAT"}}}, {"name": "MobileFaceNet/MobileFaceNet/Conv2d_4_InvResBlock_4/SeparableConv2d/BatchNorm/cond_1/AssignMovingAvg/sub/Switch", "op": "Switch", "input": ["MobileFaceNet/SeparableConv2d_11/BatchNorm/moving_mean", "phase_train"], "attr": {"T": {"type": "DT_FLOAT"}}}, {"name": "MobileFaceNet/MobileFaceNet/Conv2d_4_InvResBlock_4/SeparableConv2d/BatchNorm/cond_1/Switch", "op": "Switch", "input": ["phase_train", "phase_train"], "attr": {"T": {"type": "DT_BOOL"}}}, {"name": "MobileFaceNet/MobileFaceNet/Conv2d_4_InvResBlock_4/SeparableConv2d/BatchNorm/cond_1/AssignMovingAvg_1/Switch", "op": "Switch", "input": ["MobileFaceNet/SeparableConv2d_11/BatchNorm/moving_variance", "phase_train"], "attr": {"T": {"type": "DT_FLOAT"}}}, {"name": "MobileFaceNet/MobileFaceNet/Conv2d_4_InvResBlock_4/SeparableConv2d/BatchNorm/cond_1/AssignMovingAvg_1/sub/Switch", "op": "Switch", "input": ["MobileFaceNet/SeparableConv2d_11/BatchNorm/moving_variance", "phase_train"], "attr": {"T": {"type": "DT_FLOAT"}}}, {"name": "MobileFaceNet/MobileFaceNet/Conv2d_4_InvResBlock_4/SeparableConv2d/BatchNorm/cond_1/AssignMovingAvg/Switch", "op": "Switch", "input": ["MobileFaceNet/SeparableConv2d_11/BatchNorm/moving_mean", "phase_train"], "attr": {"T": {"type": "DT_FLOAT"}}}, {"name": "MobileFaceNet/MobileFaceNet/Conv2d_4_InvResBlock_4/SeparableConv2d/BatchNorm/cond/FusedBatchNorm_1/Switch_1", "op": "Switch", "input": ["MobileFaceNet/SeparableConv2d_11/BatchNorm/gamma", "phase_train"], "attr": {"T": {"type": "DT_FLOAT"}}}, {"name": "MobileFaceNet/MobileFaceNet/Conv2d_4_InvResBlock_4/SeparableConv2d/BatchNorm/cond/FusedBatchNorm_1/Switch_2", "op": "Switch", "input": ["MobileFaceNet/SeparableConv2d_11/BatchNorm/beta", "phase_train"], "attr": {"T": {"type": "DT_FLOAT"}}}, {"name": "MobileFaceNet/MobileFaceNet/Conv2d_4_InvResBlock_4/SeparableConv2d/BatchNorm/cond/FusedBatchNorm_1/Switch_3", "op": "Switch", "input": ["MobileFaceNet/SeparableConv2d_11/BatchNorm/moving_mean", "phase_train"], "attr": {"T": {"type": "DT_FLOAT"}}}, {"name": "MobileFaceNet/MobileFaceNet/Conv2d_4_InvResBlock_4/SeparableConv2d/BatchNorm/cond/FusedBatchNorm_1/Switch_4", "op": "Switch", "input": ["MobileFaceNet/SeparableConv2d_11/BatchNorm/moving_variance", "phase_train"], "attr": {"T": {"type": "DT_FLOAT"}}}, {"name": "MobileFaceNet/MobileFaceNet/Conv2d_4_InvResBlock_4/Conv/BatchNorm/cond_1/AssignMovingAvg/sub/Switch", "op": "Switch", "input": ["MobileFaceNet/Conv_21/BatchNorm/moving_mean", "phase_train"], "attr": {"T": {"type": "DT_FLOAT"}}}, {"name": "MobileFaceNet/MobileFaceNet/Conv2d_4_InvResBlock_4/Conv/BatchNorm/cond_1/Switch", "op": "Switch", "input": ["phase_train", "phase_train"], "attr": {"T": {"type": "DT_BOOL"}}}, {"name": "MobileFaceNet/MobileFaceNet/Conv2d_4_InvResBlock_4/Conv/BatchNorm/cond_1/AssignMovingAvg_1/Switch", "op": "Switch", "input": ["MobileFaceNet/Conv_21/BatchNorm/moving_variance", "phase_train"], "attr": {"T": {"type": "DT_FLOAT"}}}, {"name": "MobileFaceNet/MobileFaceNet/Conv2d_4_InvResBlock_4/Conv/BatchNorm/cond_1/AssignMovingAvg_1/sub/Switch", "op": "Switch", "input": ["MobileFaceNet/Conv_21/BatchNorm/moving_variance", "phase_train"], "attr": {"T": {"type": "DT_FLOAT"}}}, {"name": "MobileFaceNet/MobileFaceNet/Conv2d_4_InvResBlock_4/Conv/BatchNorm/cond_1/AssignMovingAvg/Switch", "op": "Switch", "input": ["MobileFaceNet/Conv_21/BatchNorm/moving_mean", "phase_train"], "attr": {"T": {"type": "DT_FLOAT"}}}, {"name": "MobileFaceNet/MobileFaceNet/Conv2d_4_InvResBlock_4/Conv/BatchNorm/cond/FusedBatchNorm_1/Switch_1", "op": "Switch", "input": ["MobileFaceNet/Conv_21/BatchNorm/gamma", "phase_train"], "attr": {"T": {"type": "DT_FLOAT"}}}, {"name": "MobileFaceNet/MobileFaceNet/Conv2d_4_InvResBlock_4/Conv/BatchNorm/cond/FusedBatchNorm_1/Switch_2", "op": "Switch", "input": ["MobileFaceNet/Conv_21/BatchNorm/beta", "phase_train"], "attr": {"T": {"type": "DT_FLOAT"}}}, {"name": "MobileFaceNet/MobileFaceNet/Conv2d_4_InvResBlock_4/Conv/BatchNorm/cond/FusedBatchNorm_1/Switch_3", "op": "Switch", "input": ["MobileFaceNet/Conv_21/BatchNorm/moving_mean", "phase_train"], "attr": {"T": {"type": "DT_FLOAT"}}}, {"name": "MobileFaceNet/MobileFaceNet/Conv2d_4_InvResBlock_4/Conv/BatchNorm/cond/FusedBatchNorm_1/Switch_4", "op": "Switch", "input": ["MobileFaceNet/Conv_21/BatchNorm/moving_variance", "phase_train"], "attr": {"T": {"type": "DT_FLOAT"}}}, {"name": "MobileFaceNet/MobileFaceNet/Conv2d_4_InvResBlock_4/Conv/BatchNorm/cond/FusedBatchNorm/Switch_1", "op": "Switch", "input": ["MobileFaceNet/Conv_21/BatchNorm/gamma", "phase_train"], "attr": {"T": {"type": "DT_FLOAT"}}}, {"name": "MobileFaceNet/MobileFaceNet/Conv2d_4_InvResBlock_4/Conv/BatchNorm/cond/FusedBatchNorm/Switch_2", "op": "Switch", "input": ["MobileFaceNet/Conv_21/BatchNorm/beta", "phase_train"], "attr": {"T": {"type": "DT_FLOAT"}}}, {"name": "MobileFaceNet/MobileFaceNet/Conv2d_4_InvResBlock_4/Conv/BatchNorm/cond/Switch", "op": "Switch", "input": ["phase_train", "phase_train"], "attr": {"T": {"type": "DT_BOOL"}}}, {"name": "MobileFaceNet/MobileFaceNet/Conv2d_4_InvResBlock_4/SeparableConv2d/BatchNorm/cond/FusedBatchNorm/Switch_1", "op": "Switch", "input": ["MobileFaceNet/SeparableConv2d_11/BatchNorm/gamma", "phase_train"], "attr": {"T": {"type": "DT_FLOAT"}}}, {"name": "MobileFaceNet/MobileFaceNet/Conv2d_4_InvResBlock_4/SeparableConv2d/BatchNorm/cond/FusedBatchNorm/Switch_2", "op": "Switch", "input": ["MobileFaceNet/SeparableConv2d_11/BatchNorm/beta", "phase_train"], "attr": {"T": {"type": "DT_FLOAT"}}}, {"name": "MobileFaceNet/MobileFaceNet/Conv2d_4_InvResBlock_4/SeparableConv2d/BatchNorm/cond/Switch", "op": "Switch", "input": ["phase_train", "phase_train"], "attr": {"T": {"type": "DT_BOOL"}}}, {"name": "MobileFaceNet/MobileFaceNet/Conv2d_4_InvResBlock_4/Conv_1/BatchNorm/cond/FusedBatchNorm/Switch_1", "op": "Switch", "input": ["MobileFaceNet/Conv_22/BatchNorm/gamma", "phase_train"], "attr": {"T": {"type": "DT_FLOAT"}}}, {"name": "MobileFaceNet/MobileFaceNet/Conv2d_4_InvResBlock_4/Conv_1/BatchNorm/cond/FusedBatchNorm/Switch_2", "op": "Switch", "input": ["MobileFaceNet/Conv_22/BatchNorm/beta", "phase_train"], "attr": {"T": {"type": "DT_FLOAT"}}}, {"name": "MobileFaceNet/MobileFaceNet/Conv2d_4_InvResBlock_4/Conv_1/BatchNorm/cond/Switch", "op": "Switch", "input": ["phase_train", "phase_train"], "attr": {"T": {"type": "DT_BOOL"}}}, {"name": "MobileFaceNet/MobileFaceNet/Conv2d_4_InvResBlock_3/Conv_1/BatchNorm/cond_1/AssignMovingAvg/sub/Switch", "op": "Switch", "input": ["MobileFaceNet/Conv_20/BatchNorm/moving_mean", "phase_train"], "attr": {"T": {"type": "DT_FLOAT"}}}, {"name": "MobileFaceNet/MobileFaceNet/Conv2d_4_InvResBlock_3/Conv_1/BatchNorm/cond_1/Switch", "op": "Switch", "input": ["phase_train", "phase_train"], "attr": {"T": {"type": "DT_BOOL"}}}, {"name": "MobileFaceNet/MobileFaceNet/Conv2d_4_InvResBlock_3/Conv_1/BatchNorm/cond_1/AssignMovingAvg_1/Switch", "op": "Switch", "input": ["MobileFaceNet/Conv_20/BatchNorm/moving_variance", "phase_train"], "attr": {"T": {"type": "DT_FLOAT"}}}, {"name": "MobileFaceNet/MobileFaceNet/Conv2d_4_InvResBlock_3/Conv_1/BatchNorm/cond_1/AssignMovingAvg_1/sub/Switch", "op": "Switch", "input": ["MobileFaceNet/Conv_20/BatchNorm/moving_variance", "phase_train"], "attr": {"T": {"type": "DT_FLOAT"}}}, {"name": "MobileFaceNet/MobileFaceNet/Conv2d_4_InvResBlock_3/Conv_1/BatchNorm/cond_1/AssignMovingAvg/Switch", "op": "Switch", "input": ["MobileFaceNet/Conv_20/BatchNorm/moving_mean", "phase_train"], "attr": {"T": {"type": "DT_FLOAT"}}}, {"name": "MobileFaceNet/MobileFaceNet/Conv2d_4_InvResBlock_3/Conv_1/BatchNorm/cond/FusedBatchNorm_1/Switch_1", "op": "Switch", "input": ["MobileFaceNet/Conv_20/BatchNorm/gamma", "phase_train"], "attr": {"T": {"type": "DT_FLOAT"}}}, {"name": "MobileFaceNet/MobileFaceNet/Conv2d_4_InvResBlock_3/Conv_1/BatchNorm/cond/FusedBatchNorm_1/Switch_2", "op": "Switch", "input": ["MobileFaceNet/Conv_20/BatchNorm/beta", "phase_train"], "attr": {"T": {"type": "DT_FLOAT"}}}, {"name": "MobileFaceNet/MobileFaceNet/Conv2d_4_InvResBlock_3/Conv_1/BatchNorm/cond/FusedBatchNorm_1/Switch_3", "op": "Switch", "input": ["MobileFaceNet/Conv_20/BatchNorm/moving_mean", "phase_train"], "attr": {"T": {"type": "DT_FLOAT"}}}, {"name": "MobileFaceNet/MobileFaceNet/Conv2d_4_InvResBlock_3/Conv_1/BatchNorm/cond/FusedBatchNorm_1/Switch_4", "op": "Switch", "input": ["MobileFaceNet/Conv_20/BatchNorm/moving_variance", "phase_train"], "attr": {"T": {"type": "DT_FLOAT"}}}, {"name": "MobileFaceNet/MobileFaceNet/Conv2d_4_InvResBlock_3/SeparableConv2d/BatchNorm/cond_1/AssignMovingAvg/sub/Switch", "op": "Switch", "input": ["MobileFaceNet/SeparableConv2d_10/BatchNorm/moving_mean", "phase_train"], "attr": {"T": {"type": "DT_FLOAT"}}}, {"name": "MobileFaceNet/MobileFaceNet/Conv2d_4_InvResBlock_3/SeparableConv2d/BatchNorm/cond_1/Switch", "op": "Switch", "input": ["phase_train", "phase_train"], "attr": {"T": {"type": "DT_BOOL"}}}, {"name": "MobileFaceNet/MobileFaceNet/Conv2d_4_InvResBlock_3/SeparableConv2d/BatchNorm/cond_1/AssignMovingAvg_1/Switch", "op": "Switch", "input": ["MobileFaceNet/SeparableConv2d_10/BatchNorm/moving_variance", "phase_train"], "attr": {"T": {"type": "DT_FLOAT"}}}, {"name": "MobileFaceNet/MobileFaceNet/Conv2d_4_InvResBlock_3/SeparableConv2d/BatchNorm/cond_1/AssignMovingAvg_1/sub/Switch", "op": "Switch", "input": ["MobileFaceNet/SeparableConv2d_10/BatchNorm/moving_variance", "phase_train"], "attr": {"T": {"type": "DT_FLOAT"}}}, {"name": "MobileFaceNet/MobileFaceNet/Conv2d_4_InvResBlock_3/SeparableConv2d/BatchNorm/cond_1/AssignMovingAvg/Switch", "op": "Switch", "input": ["MobileFaceNet/SeparableConv2d_10/BatchNorm/moving_mean", "phase_train"], "attr": {"T": {"type": "DT_FLOAT"}}}, {"name": "MobileFaceNet/MobileFaceNet/Conv2d_4_InvResBlock_3/SeparableConv2d/BatchNorm/cond/FusedBatchNorm_1/Switch_1", "op": "Switch", "input": ["MobileFaceNet/SeparableConv2d_10/BatchNorm/gamma", "phase_train"], "attr": {"T": {"type": "DT_FLOAT"}}}, {"name": "MobileFaceNet/MobileFaceNet/Conv2d_4_InvResBlock_3/SeparableConv2d/BatchNorm/cond/FusedBatchNorm_1/Switch_2", "op": "Switch", "input": ["MobileFaceNet/SeparableConv2d_10/BatchNorm/beta", "phase_train"], "attr": {"T": {"type": "DT_FLOAT"}}}, {"name": "MobileFaceNet/MobileFaceNet/Conv2d_4_InvResBlock_3/SeparableConv2d/BatchNorm/cond/FusedBatchNorm_1/Switch_3", "op": "Switch", "input": ["MobileFaceNet/SeparableConv2d_10/BatchNorm/moving_mean", "phase_train"], "attr": {"T": {"type": "DT_FLOAT"}}}, {"name": "MobileFaceNet/MobileFaceNet/Conv2d_4_InvResBlock_3/SeparableConv2d/BatchNorm/cond/FusedBatchNorm_1/Switch_4", "op": "Switch", "input": ["MobileFaceNet/SeparableConv2d_10/BatchNorm/moving_variance", "phase_train"], "attr": {"T": {"type": "DT_FLOAT"}}}, {"name": "MobileFaceNet/MobileFaceNet/Conv2d_4_InvResBlock_3/Conv/BatchNorm/cond_1/AssignMovingAvg/sub/Switch", "op": "Switch", "input": ["MobileFaceNet/Conv_19/BatchNorm/moving_mean", "phase_train"], "attr": {"T": {"type": "DT_FLOAT"}}}, {"name": "MobileFaceNet/MobileFaceNet/Conv2d_4_InvResBlock_3/Conv/BatchNorm/cond_1/Switch", "op": "Switch", "input": ["phase_train", "phase_train"], "attr": {"T": {"type": "DT_BOOL"}}}, {"name": "MobileFaceNet/MobileFaceNet/Conv2d_4_InvResBlock_3/Conv/BatchNorm/cond_1/AssignMovingAvg_1/Switch", "op": "Switch", "input": ["MobileFaceNet/Conv_19/BatchNorm/moving_variance", "phase_train"], "attr": {"T": {"type": "DT_FLOAT"}}}, {"name": "MobileFaceNet/MobileFaceNet/Conv2d_4_InvResBlock_3/Conv/BatchNorm/cond_1/AssignMovingAvg_1/sub/Switch", "op": "Switch", "input": ["MobileFaceNet/Conv_19/BatchNorm/moving_variance", "phase_train"], "attr": {"T": {"type": "DT_FLOAT"}}}, {"name": "MobileFaceNet/MobileFaceNet/Conv2d_4_InvResBlock_3/Conv/BatchNorm/cond_1/AssignMovingAvg/Switch", "op": "Switch", "input": ["MobileFaceNet/Conv_19/BatchNorm/moving_mean", "phase_train"], "attr": {"T": {"type": "DT_FLOAT"}}}, {"name": "MobileFaceNet/MobileFaceNet/Conv2d_4_InvResBlock_3/Conv/BatchNorm/cond/FusedBatchNorm_1/Switch_1", "op": "Switch", "input": ["MobileFaceNet/Conv_19/BatchNorm/gamma", "phase_train"], "attr": {"T": {"type": "DT_FLOAT"}}}, {"name": "MobileFaceNet/MobileFaceNet/Conv2d_4_InvResBlock_3/Conv/BatchNorm/cond/FusedBatchNorm_1/Switch_2", "op": "Switch", "input": ["MobileFaceNet/Conv_19/BatchNorm/beta", "phase_train"], "attr": {"T": {"type": "DT_FLOAT"}}}, {"name": "MobileFaceNet/MobileFaceNet/Conv2d_4_InvResBlock_3/Conv/BatchNorm/cond/FusedBatchNorm_1/Switch_3", "op": "Switch", "input": ["MobileFaceNet/Conv_19/BatchNorm/moving_mean", "phase_train"], "attr": {"T": {"type": "DT_FLOAT"}}}, {"name": "MobileFaceNet/MobileFaceNet/Conv2d_4_InvResBlock_3/Conv/BatchNorm/cond/FusedBatchNorm_1/Switch_4", "op": "Switch", "input": ["MobileFaceNet/Conv_19/BatchNorm/moving_variance", "phase_train"], "attr": {"T": {"type": "DT_FLOAT"}}}, {"name": "MobileFaceNet/MobileFaceNet/Conv2d_4_InvResBlock_3/Conv/BatchNorm/cond/FusedBatchNorm/Switch_1", "op": "Switch", "input": ["MobileFaceNet/Conv_19/BatchNorm/gamma", "phase_train"], "attr": {"T": {"type": "DT_FLOAT"}}}, {"name": "MobileFaceNet/MobileFaceNet/Conv2d_4_InvResBlock_3/Conv/BatchNorm/cond/FusedBatchNorm/Switch_2", "op": "Switch", "input": ["MobileFaceNet/Conv_19/BatchNorm/beta", "phase_train"], "attr": {"T": {"type": "DT_FLOAT"}}}, {"name": "MobileFaceNet/MobileFaceNet/Conv2d_4_InvResBlock_3/Conv/BatchNorm/cond/Switch", "op": "Switch", "input": ["phase_train", "phase_train"], "attr": {"T": {"type": "DT_BOOL"}}}, {"name": "MobileFaceNet/MobileFaceNet/Conv2d_4_InvResBlock_3/SeparableConv2d/BatchNorm/cond/FusedBatchNorm/Switch_1", "op": "Switch", "input": ["MobileFaceNet/SeparableConv2d_10/BatchNorm/gamma", "phase_train"], "attr": {"T": {"type": "DT_FLOAT"}}}, {"name": "MobileFaceNet/MobileFaceNet/Conv2d_4_InvResBlock_3/SeparableConv2d/BatchNorm/cond/FusedBatchNorm/Switch_2", "op": "Switch", "input": ["MobileFaceNet/SeparableConv2d_10/BatchNorm/beta", "phase_train"], "attr": {"T": {"type": "DT_FLOAT"}}}, {"name": "MobileFaceNet/MobileFaceNet/Conv2d_4_InvResBlock_3/SeparableConv2d/BatchNorm/cond/Switch", "op": "Switch", "input": ["phase_train", "phase_train"], "attr": {"T": {"type": "DT_BOOL"}}}, {"name": "MobileFaceNet/MobileFaceNet/Conv2d_4_InvResBlock_3/Conv_1/BatchNorm/cond/FusedBatchNorm/Switch_1", "op": "Switch", "input": ["MobileFaceNet/Conv_20/BatchNorm/gamma", "phase_train"], "attr": {"T": {"type": "DT_FLOAT"}}}, {"name": "MobileFaceNet/MobileFaceNet/Conv2d_4_InvResBlock_3/Conv_1/BatchNorm/cond/FusedBatchNorm/Switch_2", "op": "Switch", "input": ["MobileFaceNet/Conv_20/BatchNorm/beta", "phase_train"], "attr": {"T": {"type": "DT_FLOAT"}}}, {"name": "MobileFaceNet/MobileFaceNet/Conv2d_4_InvResBlock_3/Conv_1/BatchNorm/cond/Switch", "op": "Switch", "input": ["phase_train", "phase_train"], "attr": {"T": {"type": "DT_BOOL"}}}, {"name": "MobileFaceNet/MobileFaceNet/Conv2d_4_InvResBlock_2/Conv_1/BatchNorm/cond_1/AssignMovingAvg/sub/Switch", "op": "Switch", "input": ["MobileFaceNet/Conv_18/BatchNorm/moving_mean", "phase_train"], "attr": {"T": {"type": "DT_FLOAT"}}}, {"name": "MobileFaceNet/MobileFaceNet/Conv2d_4_InvResBlock_2/Conv_1/BatchNorm/cond_1/Switch", "op": "Switch", "input": ["phase_train", "phase_train"], "attr": {"T": {"type": "DT_BOOL"}}}, {"name": "MobileFaceNet/MobileFaceNet/Conv2d_4_InvResBlock_2/Conv_1/BatchNorm/cond_1/AssignMovingAvg_1/Switch", "op": "Switch", "input": ["MobileFaceNet/Conv_18/BatchNorm/moving_variance", "phase_train"], "attr": {"T": {"type": "DT_FLOAT"}}}, {"name": "MobileFaceNet/MobileFaceNet/Conv2d_4_InvResBlock_2/Conv_1/BatchNorm/cond_1/AssignMovingAvg_1/sub/Switch", "op": "Switch", "input": ["MobileFaceNet/Conv_18/BatchNorm/moving_variance", "phase_train"], "attr": {"T": {"type": "DT_FLOAT"}}}, {"name": "MobileFaceNet/MobileFaceNet/Conv2d_4_InvResBlock_2/Conv_1/BatchNorm/cond_1/AssignMovingAvg/Switch", "op": "Switch", "input": ["MobileFaceNet/Conv_18/BatchNorm/moving_mean", "phase_train"], "attr": {"T": {"type": "DT_FLOAT"}}}, {"name": "MobileFaceNet/MobileFaceNet/Conv2d_4_InvResBlock_2/Conv_1/BatchNorm/cond/FusedBatchNorm_1/Switch_1", "op": "Switch", "input": ["MobileFaceNet/Conv_18/BatchNorm/gamma", "phase_train"], "attr": {"T": {"type": "DT_FLOAT"}}}, {"name": "MobileFaceNet/MobileFaceNet/Conv2d_4_InvResBlock_2/Conv_1/BatchNorm/cond/FusedBatchNorm_1/Switch_2", "op": "Switch", "input": ["MobileFaceNet/Conv_18/BatchNorm/beta", "phase_train"], "attr": {"T": {"type": "DT_FLOAT"}}}, {"name": "MobileFaceNet/MobileFaceNet/Conv2d_4_InvResBlock_2/Conv_1/BatchNorm/cond/FusedBatchNorm_1/Switch_3", "op": "Switch", "input": ["MobileFaceNet/Conv_18/BatchNorm/moving_mean", "phase_train"], "attr": {"T": {"type": "DT_FLOAT"}}}, {"name": "MobileFaceNet/MobileFaceNet/Conv2d_4_InvResBlock_2/Conv_1/BatchNorm/cond/FusedBatchNorm_1/Switch_4", "op": "Switch", "input": ["MobileFaceNet/Conv_18/BatchNorm/moving_variance", "phase_train"], "attr": {"T": {"type": "DT_FLOAT"}}}, {"name": "MobileFaceNet/MobileFaceNet/Conv2d_4_InvResBlock_2/SeparableConv2d/BatchNorm/cond_1/AssignMovingAvg/sub/Switch", "op": "Switch", "input": ["MobileFaceNet/SeparableConv2d_9/BatchNorm/moving_mean", "phase_train"], "attr": {"T": {"type": "DT_FLOAT"}}}, {"name": "MobileFaceNet/MobileFaceNet/Conv2d_4_InvResBlock_2/SeparableConv2d/BatchNorm/cond_1/Switch", "op": "Switch", "input": ["phase_train", "phase_train"], "attr": {"T": {"type": "DT_BOOL"}}}, {"name": "MobileFaceNet/MobileFaceNet/Conv2d_4_InvResBlock_2/SeparableConv2d/BatchNorm/cond_1/AssignMovingAvg_1/Switch", "op": "Switch", "input": ["MobileFaceNet/SeparableConv2d_9/BatchNorm/moving_variance", "phase_train"], "attr": {"T": {"type": "DT_FLOAT"}}}, {"name": "MobileFaceNet/MobileFaceNet/Conv2d_4_InvResBlock_2/SeparableConv2d/BatchNorm/cond_1/AssignMovingAvg_1/sub/Switch", "op": "Switch", "input": ["MobileFaceNet/SeparableConv2d_9/BatchNorm/moving_variance", "phase_train"], "attr": {"T": {"type": "DT_FLOAT"}}}, {"name": "MobileFaceNet/MobileFaceNet/Conv2d_4_InvResBlock_2/SeparableConv2d/BatchNorm/cond_1/AssignMovingAvg/Switch", "op": "Switch", "input": ["MobileFaceNet/SeparableConv2d_9/BatchNorm/moving_mean", "phase_train"], "attr": {"T": {"type": "DT_FLOAT"}}}, {"name": "MobileFaceNet/MobileFaceNet/Conv2d_4_InvResBlock_2/SeparableConv2d/BatchNorm/cond/FusedBatchNorm_1/Switch_1", "op": "Switch", "input": ["MobileFaceNet/SeparableConv2d_9/BatchNorm/gamma", "phase_train"], "attr": {"T": {"type": "DT_FLOAT"}}}, {"name": "MobileFaceNet/MobileFaceNet/Conv2d_4_InvResBlock_2/SeparableConv2d/BatchNorm/cond/FusedBatchNorm_1/Switch_2", "op": "Switch", "input": ["MobileFaceNet/SeparableConv2d_9/BatchNorm/beta", "phase_train"], "attr": {"T": {"type": "DT_FLOAT"}}}, {"name": "MobileFaceNet/MobileFaceNet/Conv2d_4_InvResBlock_2/SeparableConv2d/BatchNorm/cond/FusedBatchNorm_1/Switch_3", "op": "Switch", "input": ["MobileFaceNet/SeparableConv2d_9/BatchNorm/moving_mean", "phase_train"], "attr": {"T": {"type": "DT_FLOAT"}}}, {"name": "MobileFaceNet/MobileFaceNet/Conv2d_4_InvResBlock_2/SeparableConv2d/BatchNorm/cond/FusedBatchNorm_1/Switch_4", "op": "Switch", "input": ["MobileFaceNet/SeparableConv2d_9/BatchNorm/moving_variance", "phase_train"], "attr": {"T": {"type": "DT_FLOAT"}}}, {"name": "MobileFaceNet/MobileFaceNet/Conv2d_4_InvResBlock_2/Conv/BatchNorm/cond_1/AssignMovingAvg/sub/Switch", "op": "Switch", "input": ["MobileFaceNet/Conv_17/BatchNorm/moving_mean", "phase_train"], "attr": {"T": {"type": "DT_FLOAT"}}}, {"name": "MobileFaceNet/MobileFaceNet/Conv2d_4_InvResBlock_2/Conv/BatchNorm/cond_1/Switch", "op": "Switch", "input": ["phase_train", "phase_train"], "attr": {"T": {"type": "DT_BOOL"}}}, {"name": "MobileFaceNet/MobileFaceNet/Conv2d_4_InvResBlock_2/Conv/BatchNorm/cond_1/AssignMovingAvg_1/Switch", "op": "Switch", "input": ["MobileFaceNet/Conv_17/BatchNorm/moving_variance", "phase_train"], "attr": {"T": {"type": "DT_FLOAT"}}}, {"name": "MobileFaceNet/MobileFaceNet/Conv2d_4_InvResBlock_2/Conv/BatchNorm/cond_1/AssignMovingAvg_1/sub/Switch", "op": "Switch", "input": ["MobileFaceNet/Conv_17/BatchNorm/moving_variance", "phase_train"], "attr": {"T": {"type": "DT_FLOAT"}}}, {"name": "MobileFaceNet/MobileFaceNet/Conv2d_4_InvResBlock_2/Conv/BatchNorm/cond_1/AssignMovingAvg/Switch", "op": "Switch", "input": ["MobileFaceNet/Conv_17/BatchNorm/moving_mean", "phase_train"], "attr": {"T": {"type": "DT_FLOAT"}}}, {"name": "MobileFaceNet/MobileFaceNet/Conv2d_4_InvResBlock_2/Conv/BatchNorm/cond/FusedBatchNorm_1/Switch_1", "op": "Switch", "input": ["MobileFaceNet/Conv_17/BatchNorm/gamma", "phase_train"], "attr": {"T": {"type": "DT_FLOAT"}}}, {"name": "MobileFaceNet/MobileFaceNet/Conv2d_4_InvResBlock_2/Conv/BatchNorm/cond/FusedBatchNorm_1/Switch_2", "op": "Switch", "input": ["MobileFaceNet/Conv_17/BatchNorm/beta", "phase_train"], "attr": {"T": {"type": "DT_FLOAT"}}}, {"name": "MobileFaceNet/MobileFaceNet/Conv2d_4_InvResBlock_2/Conv/BatchNorm/cond/FusedBatchNorm_1/Switch_3", "op": "Switch", "input": ["MobileFaceNet/Conv_17/BatchNorm/moving_mean", "phase_train"], "attr": {"T": {"type": "DT_FLOAT"}}}, {"name": "MobileFaceNet/MobileFaceNet/Conv2d_4_InvResBlock_2/Conv/BatchNorm/cond/FusedBatchNorm_1/Switch_4", "op": "Switch", "input": ["MobileFaceNet/Conv_17/BatchNorm/moving_variance", "phase_train"], "attr": {"T": {"type": "DT_FLOAT"}}}, {"name": "MobileFaceNet/MobileFaceNet/Conv2d_4_InvResBlock_2/Conv/BatchNorm/cond/FusedBatchNorm/Switch_1", "op": "Switch", "input": ["MobileFaceNet/Conv_17/BatchNorm/gamma", "phase_train"], "attr": {"T": {"type": "DT_FLOAT"}}}, {"name": "MobileFaceNet/MobileFaceNet/Conv2d_4_InvResBlock_2/Conv/BatchNorm/cond/FusedBatchNorm/Switch_2", "op": "Switch", "input": ["MobileFaceNet/Conv_17/BatchNorm/beta", "phase_train"], "attr": {"T": {"type": "DT_FLOAT"}}}, {"name": "MobileFaceNet/MobileFaceNet/Conv2d_4_InvResBlock_2/Conv/BatchNorm/cond/Switch", "op": "Switch", "input": ["phase_train", "phase_train"], "attr": {"T": {"type": "DT_BOOL"}}}, {"name": "MobileFaceNet/MobileFaceNet/Conv2d_4_InvResBlock_2/SeparableConv2d/BatchNorm/cond/FusedBatchNorm/Switch_1", "op": "Switch", "input": ["MobileFaceNet/SeparableConv2d_9/BatchNorm/gamma", "phase_train"], "attr": {"T": {"type": "DT_FLOAT"}}}, {"name": "MobileFaceNet/MobileFaceNet/Conv2d_4_InvResBlock_2/SeparableConv2d/BatchNorm/cond/FusedBatchNorm/Switch_2", "op": "Switch", "input": ["MobileFaceNet/SeparableConv2d_9/BatchNorm/beta", "phase_train"], "attr": {"T": {"type": "DT_FLOAT"}}}, {"name": "MobileFaceNet/MobileFaceNet/Conv2d_4_InvResBlock_2/SeparableConv2d/BatchNorm/cond/Switch", "op": "Switch", "input": ["phase_train", "phase_train"], "attr": {"T": {"type": "DT_BOOL"}}}, {"name": "MobileFaceNet/MobileFaceNet/Conv2d_4_InvResBlock_2/Conv_1/BatchNorm/cond/FusedBatchNorm/Switch_1", "op": "Switch", "input": ["MobileFaceNet/Conv_18/BatchNorm/gamma", "phase_train"], "attr": {"T": {"type": "DT_FLOAT"}}}, {"name": "MobileFaceNet/MobileFaceNet/Conv2d_4_InvResBlock_2/Conv_1/BatchNorm/cond/FusedBatchNorm/Switch_2", "op": "Switch", "input": ["MobileFaceNet/Conv_18/BatchNorm/beta", "phase_train"], "attr": {"T": {"type": "DT_FLOAT"}}}, {"name": "MobileFaceNet/MobileFaceNet/Conv2d_4_InvResBlock_2/Conv_1/BatchNorm/cond/Switch", "op": "Switch", "input": ["phase_train", "phase_train"], "attr": {"T": {"type": "DT_BOOL"}}}, {"name": "MobileFaceNet/MobileFaceNet/Conv2d_4_InvResBlock_1/Conv_1/BatchNorm/cond_1/AssignMovingAvg/sub/Switch", "op": "Switch", "input": ["MobileFaceNet/Conv_16/BatchNorm/moving_mean", "phase_train"], "attr": {"T": {"type": "DT_FLOAT"}}}, {"name": "MobileFaceNet/MobileFaceNet/Conv2d_4_InvResBlock_1/Conv_1/BatchNorm/cond_1/Switch", "op": "Switch", "input": ["phase_train", "phase_train"], "attr": {"T": {"type": "DT_BOOL"}}}, {"name": "MobileFaceNet/MobileFaceNet/Conv2d_4_InvResBlock_1/Conv_1/BatchNorm/cond_1/AssignMovingAvg_1/Switch", "op": "Switch", "input": ["MobileFaceNet/Conv_16/BatchNorm/moving_variance", "phase_train"], "attr": {"T": {"type": "DT_FLOAT"}}}, {"name": "MobileFaceNet/MobileFaceNet/Conv2d_4_InvResBlock_1/Conv_1/BatchNorm/cond_1/AssignMovingAvg_1/sub/Switch", "op": "Switch", "input": ["MobileFaceNet/Conv_16/BatchNorm/moving_variance", "phase_train"], "attr": {"T": {"type": "DT_FLOAT"}}}, {"name": "MobileFaceNet/MobileFaceNet/Conv2d_4_InvResBlock_1/Conv_1/BatchNorm/cond_1/AssignMovingAvg/Switch", "op": "Switch", "input": ["MobileFaceNet/Conv_16/BatchNorm/moving_mean", "phase_train"], "attr": {"T": {"type": "DT_FLOAT"}}}, {"name": "MobileFaceNet/MobileFaceNet/Conv2d_4_InvResBlock_1/Conv_1/BatchNorm/cond/FusedBatchNorm_1/Switch_1", "op": "Switch", "input": ["MobileFaceNet/Conv_16/BatchNorm/gamma", "phase_train"], "attr": {"T": {"type": "DT_FLOAT"}}}, {"name": "MobileFaceNet/MobileFaceNet/Conv2d_4_InvResBlock_1/Conv_1/BatchNorm/cond/FusedBatchNorm_1/Switch_2", "op": "Switch", "input": ["MobileFaceNet/Conv_16/BatchNorm/beta", "phase_train"], "attr": {"T": {"type": "DT_FLOAT"}}}, {"name": "MobileFaceNet/MobileFaceNet/Conv2d_4_InvResBlock_1/Conv_1/BatchNorm/cond/FusedBatchNorm_1/Switch_3", "op": "Switch", "input": ["MobileFaceNet/Conv_16/BatchNorm/moving_mean", "phase_train"], "attr": {"T": {"type": "DT_FLOAT"}}}, {"name": "MobileFaceNet/MobileFaceNet/Conv2d_4_InvResBlock_1/Conv_1/BatchNorm/cond/FusedBatchNorm_1/Switch_4", "op": "Switch", "input": ["MobileFaceNet/Conv_16/BatchNorm/moving_variance", "phase_train"], "attr": {"T": {"type": "DT_FLOAT"}}}, {"name": "MobileFaceNet/MobileFaceNet/Conv2d_4_InvResBlock_1/SeparableConv2d/BatchNorm/cond_1/AssignMovingAvg/sub/Switch", "op": "Switch", "input": ["MobileFaceNet/SeparableConv2d_8/BatchNorm/moving_mean", "phase_train"], "attr": {"T": {"type": "DT_FLOAT"}}}, {"name": "MobileFaceNet/MobileFaceNet/Conv2d_4_InvResBlock_1/SeparableConv2d/BatchNorm/cond_1/Switch", "op": "Switch", "input": ["phase_train", "phase_train"], "attr": {"T": {"type": "DT_BOOL"}}}, {"name": "MobileFaceNet/MobileFaceNet/Conv2d_4_InvResBlock_1/SeparableConv2d/BatchNorm/cond_1/AssignMovingAvg_1/Switch", "op": "Switch", "input": ["MobileFaceNet/SeparableConv2d_8/BatchNorm/moving_variance", "phase_train"], "attr": {"T": {"type": "DT_FLOAT"}}}, {"name": "MobileFaceNet/MobileFaceNet/Conv2d_4_InvResBlock_1/SeparableConv2d/BatchNorm/cond_1/AssignMovingAvg_1/sub/Switch", "op": "Switch", "input": ["MobileFaceNet/SeparableConv2d_8/BatchNorm/moving_variance", "phase_train"], "attr": {"T": {"type": "DT_FLOAT"}}}, {"name": "MobileFaceNet/MobileFaceNet/Conv2d_4_InvResBlock_1/SeparableConv2d/BatchNorm/cond_1/AssignMovingAvg/Switch", "op": "Switch", "input": ["MobileFaceNet/SeparableConv2d_8/BatchNorm/moving_mean", "phase_train"], "attr": {"T": {"type": "DT_FLOAT"}}}, {"name": "MobileFaceNet/MobileFaceNet/Conv2d_4_InvResBlock_1/SeparableConv2d/BatchNorm/cond/FusedBatchNorm_1/Switch_1", "op": "Switch", "input": ["MobileFaceNet/SeparableConv2d_8/BatchNorm/gamma", "phase_train"], "attr": {"T": {"type": "DT_FLOAT"}}}, {"name": "MobileFaceNet/MobileFaceNet/Conv2d_4_InvResBlock_1/SeparableConv2d/BatchNorm/cond/FusedBatchNorm_1/Switch_2", "op": "Switch", "input": ["MobileFaceNet/SeparableConv2d_8/BatchNorm/beta", "phase_train"], "attr": {"T": {"type": "DT_FLOAT"}}}, {"name": "MobileFaceNet/MobileFaceNet/Conv2d_4_InvResBlock_1/SeparableConv2d/BatchNorm/cond/FusedBatchNorm_1/Switch_3", "op": "Switch", "input": ["MobileFaceNet/SeparableConv2d_8/BatchNorm/moving_mean", "phase_train"], "attr": {"T": {"type": "DT_FLOAT"}}}, {"name": "MobileFaceNet/MobileFaceNet/Conv2d_4_InvResBlock_1/SeparableConv2d/BatchNorm/cond/FusedBatchNorm_1/Switch_4", "op": "Switch", "input": ["MobileFaceNet/SeparableConv2d_8/BatchNorm/moving_variance", "phase_train"], "attr": {"T": {"type": "DT_FLOAT"}}}, {"name": "MobileFaceNet/MobileFaceNet/Conv2d_4_InvResBlock_1/Conv/BatchNorm/cond_1/AssignMovingAvg/sub/Switch", "op": "Switch", "input": ["MobileFaceNet/Conv_15/BatchNorm/moving_mean", "phase_train"], "attr": {"T": {"type": "DT_FLOAT"}}}, {"name": "MobileFaceNet/MobileFaceNet/Conv2d_4_InvResBlock_1/Conv/BatchNorm/cond_1/Switch", "op": "Switch", "input": ["phase_train", "phase_train"], "attr": {"T": {"type": "DT_BOOL"}}}, {"name": "MobileFaceNet/MobileFaceNet/Conv2d_4_InvResBlock_1/Conv/BatchNorm/cond_1/AssignMovingAvg_1/Switch", "op": "Switch", "input": ["MobileFaceNet/Conv_15/BatchNorm/moving_variance", "phase_train"], "attr": {"T": {"type": "DT_FLOAT"}}}, {"name": "MobileFaceNet/MobileFaceNet/Conv2d_4_InvResBlock_1/Conv/BatchNorm/cond_1/AssignMovingAvg_1/sub/Switch", "op": "Switch", "input": ["MobileFaceNet/Conv_15/BatchNorm/moving_variance", "phase_train"], "attr": {"T": {"type": "DT_FLOAT"}}}, {"name": "MobileFaceNet/MobileFaceNet/Conv2d_4_InvResBlock_1/Conv/BatchNorm/cond_1/AssignMovingAvg/Switch", "op": "Switch", "input": ["MobileFaceNet/Conv_15/BatchNorm/moving_mean", "phase_train"], "attr": {"T": {"type": "DT_FLOAT"}}}, {"name": "MobileFaceNet/MobileFaceNet/Conv2d_4_InvResBlock_1/Conv/BatchNorm/cond/FusedBatchNorm_1/Switch_1", "op": "Switch", "input": ["MobileFaceNet/Conv_15/BatchNorm/gamma", "phase_train"], "attr": {"T": {"type": "DT_FLOAT"}}}, {"name": "MobileFaceNet/MobileFaceNet/Conv2d_4_InvResBlock_1/Conv/BatchNorm/cond/FusedBatchNorm_1/Switch_2", "op": "Switch", "input": ["MobileFaceNet/Conv_15/BatchNorm/beta", "phase_train"], "attr": {"T": {"type": "DT_FLOAT"}}}, {"name": "MobileFaceNet/MobileFaceNet/Conv2d_4_InvResBlock_1/Conv/BatchNorm/cond/FusedBatchNorm_1/Switch_3", "op": "Switch", "input": ["MobileFaceNet/Conv_15/BatchNorm/moving_mean", "phase_train"], "attr": {"T": {"type": "DT_FLOAT"}}}, {"name": "MobileFaceNet/MobileFaceNet/Conv2d_4_InvResBlock_1/Conv/BatchNorm/cond/FusedBatchNorm_1/Switch_4", "op": "Switch", "input": ["MobileFaceNet/Conv_15/BatchNorm/moving_variance", "phase_train"], "attr": {"T": {"type": "DT_FLOAT"}}}, {"name": "MobileFaceNet/MobileFaceNet/Conv2d_4_InvResBlock_1/Conv/BatchNorm/cond/FusedBatchNorm/Switch_1", "op": "Switch", "input": ["MobileFaceNet/Conv_15/BatchNorm/gamma", "phase_train"], "attr": {"T": {"type": "DT_FLOAT"}}}, {"name": "MobileFaceNet/MobileFaceNet/Conv2d_4_InvResBlock_1/Conv/BatchNorm/cond/FusedBatchNorm/Switch_2", "op": "Switch", "input": ["MobileFaceNet/Conv_15/BatchNorm/beta", "phase_train"], "attr": {"T": {"type": "DT_FLOAT"}}}, {"name": "MobileFaceNet/MobileFaceNet/Conv2d_4_InvResBlock_1/Conv/BatchNorm/cond/Switch", "op": "Switch", "input": ["phase_train", "phase_train"], "attr": {"T": {"type": "DT_BOOL"}}}, {"name": "MobileFaceNet/MobileFaceNet/Conv2d_4_InvResBlock_1/SeparableConv2d/BatchNorm/cond/FusedBatchNorm/Switch_1", "op": "Switch", "input": ["MobileFaceNet/SeparableConv2d_8/BatchNorm/gamma", "phase_train"], "attr": {"T": {"type": "DT_FLOAT"}}}, {"name": "MobileFaceNet/MobileFaceNet/Conv2d_4_InvResBlock_1/SeparableConv2d/BatchNorm/cond/FusedBatchNorm/Switch_2", "op": "Switch", "input": ["MobileFaceNet/SeparableConv2d_8/BatchNorm/beta", "phase_train"], "attr": {"T": {"type": "DT_FLOAT"}}}, {"name": "MobileFaceNet/MobileFaceNet/Conv2d_4_InvResBlock_1/SeparableConv2d/BatchNorm/cond/Switch", "op": "Switch", "input": ["phase_train", "phase_train"], "attr": {"T": {"type": "DT_BOOL"}}}, {"name": "MobileFaceNet/MobileFaceNet/Conv2d_4_InvResBlock_1/Conv_1/BatchNorm/cond/FusedBatchNorm/Switch_1", "op": "Switch", "input": ["MobileFaceNet/Conv_16/BatchNorm/gamma", "phase_train"], "attr": {"T": {"type": "DT_FLOAT"}}}, {"name": "MobileFaceNet/MobileFaceNet/Conv2d_4_InvResBlock_1/Conv_1/BatchNorm/cond/FusedBatchNorm/Switch_2", "op": "Switch", "input": ["MobileFaceNet/Conv_16/BatchNorm/beta", "phase_train"], "attr": {"T": {"type": "DT_FLOAT"}}}, {"name": "MobileFaceNet/MobileFaceNet/Conv2d_4_InvResBlock_1/Conv_1/BatchNorm/cond/Switch", "op": "Switch", "input": ["phase_train", "phase_train"], "attr": {"T": {"type": "DT_BOOL"}}}, {"name": "MobileFaceNet/MobileFaceNet/Conv2d_4_InvResBlock_0/Conv_1/BatchNorm/cond_1/AssignMovingAvg/sub/Switch", "op": "Switch", "input": ["MobileFaceNet/Conv_14/BatchNorm/moving_mean", "phase_train"], "attr": {"T": {"type": "DT_FLOAT"}}}, {"name": "MobileFaceNet/MobileFaceNet/Conv2d_4_InvResBlock_0/Conv_1/BatchNorm/cond_1/Switch", "op": "Switch", "input": ["phase_train", "phase_train"], "attr": {"T": {"type": "DT_BOOL"}}}, {"name": "MobileFaceNet/MobileFaceNet/Conv2d_4_InvResBlock_0/Conv_1/BatchNorm/cond_1/AssignMovingAvg_1/Switch", "op": "Switch", "input": ["MobileFaceNet/Conv_14/BatchNorm/moving_variance", "phase_train"], "attr": {"T": {"type": "DT_FLOAT"}}}, {"name": "MobileFaceNet/MobileFaceNet/Conv2d_4_InvResBlock_0/Conv_1/BatchNorm/cond_1/AssignMovingAvg_1/sub/Switch", "op": "Switch", "input": ["MobileFaceNet/Conv_14/BatchNorm/moving_variance", "phase_train"], "attr": {"T": {"type": "DT_FLOAT"}}}, {"name": "MobileFaceNet/MobileFaceNet/Conv2d_4_InvResBlock_0/Conv_1/BatchNorm/cond_1/AssignMovingAvg/Switch", "op": "Switch", "input": ["MobileFaceNet/Conv_14/BatchNorm/moving_mean", "phase_train"], "attr": {"T": {"type": "DT_FLOAT"}}}, {"name": "MobileFaceNet/MobileFaceNet/Conv2d_4_InvResBlock_0/Conv_1/BatchNorm/cond/FusedBatchNorm_1/Switch_1", "op": "Switch", "input": ["MobileFaceNet/Conv_14/BatchNorm/gamma", "phase_train"], "attr": {"T": {"type": "DT_FLOAT"}}}, {"name": "MobileFaceNet/MobileFaceNet/Conv2d_4_InvResBlock_0/Conv_1/BatchNorm/cond/FusedBatchNorm_1/Switch_2", "op": "Switch", "input": ["MobileFaceNet/Conv_14/BatchNorm/beta", "phase_train"], "attr": {"T": {"type": "DT_FLOAT"}}}, {"name": "MobileFaceNet/MobileFaceNet/Conv2d_4_InvResBlock_0/Conv_1/BatchNorm/cond/FusedBatchNorm_1/Switch_3", "op": "Switch", "input": ["MobileFaceNet/Conv_14/BatchNorm/moving_mean", "phase_train"], "attr": {"T": {"type": "DT_FLOAT"}}}, {"name": "MobileFaceNet/MobileFaceNet/Conv2d_4_InvResBlock_0/Conv_1/BatchNorm/cond/FusedBatchNorm_1/Switch_4", "op": "Switch", "input": ["MobileFaceNet/Conv_14/BatchNorm/moving_variance", "phase_train"], "attr": {"T": {"type": "DT_FLOAT"}}}, {"name": "MobileFaceNet/MobileFaceNet/Conv2d_4_InvResBlock_0/SeparableConv2d/BatchNorm/cond_1/AssignMovingAvg/sub/Switch", "op": "Switch", "input": ["MobileFaceNet/SeparableConv2d_7/BatchNorm/moving_mean", "phase_train"], "attr": {"T": {"type": "DT_FLOAT"}}}, {"name": "MobileFaceNet/MobileFaceNet/Conv2d_4_InvResBlock_0/SeparableConv2d/BatchNorm/cond_1/Switch", "op": "Switch", "input": ["phase_train", "phase_train"], "attr": {"T": {"type": "DT_BOOL"}}}, {"name": "MobileFaceNet/MobileFaceNet/Conv2d_4_InvResBlock_0/SeparableConv2d/BatchNorm/cond_1/AssignMovingAvg_1/Switch", "op": "Switch", "input": ["MobileFaceNet/SeparableConv2d_7/BatchNorm/moving_variance", "phase_train"], "attr": {"T": {"type": "DT_FLOAT"}}}, {"name": "MobileFaceNet/MobileFaceNet/Conv2d_4_InvResBlock_0/SeparableConv2d/BatchNorm/cond_1/AssignMovingAvg_1/sub/Switch", "op": "Switch", "input": ["MobileFaceNet/SeparableConv2d_7/BatchNorm/moving_variance", "phase_train"], "attr": {"T": {"type": "DT_FLOAT"}}}, {"name": "MobileFaceNet/MobileFaceNet/Conv2d_4_InvResBlock_0/SeparableConv2d/BatchNorm/cond_1/AssignMovingAvg/Switch", "op": "Switch", "input": ["MobileFaceNet/SeparableConv2d_7/BatchNorm/moving_mean", "phase_train"], "attr": {"T": {"type": "DT_FLOAT"}}}, {"name": "MobileFaceNet/MobileFaceNet/Conv2d_4_InvResBlock_0/SeparableConv2d/BatchNorm/cond/FusedBatchNorm_1/Switch_1", "op": "Switch", "input": ["MobileFaceNet/SeparableConv2d_7/BatchNorm/gamma", "phase_train"], "attr": {"T": {"type": "DT_FLOAT"}}}, {"name": "MobileFaceNet/MobileFaceNet/Conv2d_4_InvResBlock_0/SeparableConv2d/BatchNorm/cond/FusedBatchNorm_1/Switch_2", "op": "Switch", "input": ["MobileFaceNet/SeparableConv2d_7/BatchNorm/beta", "phase_train"], "attr": {"T": {"type": "DT_FLOAT"}}}, {"name": "MobileFaceNet/MobileFaceNet/Conv2d_4_InvResBlock_0/SeparableConv2d/BatchNorm/cond/FusedBatchNorm_1/Switch_3", "op": "Switch", "input": ["MobileFaceNet/SeparableConv2d_7/BatchNorm/moving_mean", "phase_train"], "attr": {"T": {"type": "DT_FLOAT"}}}, {"name": "MobileFaceNet/MobileFaceNet/Conv2d_4_InvResBlock_0/SeparableConv2d/BatchNorm/cond/FusedBatchNorm_1/Switch_4", "op": "Switch", "input": ["MobileFaceNet/SeparableConv2d_7/BatchNorm/moving_variance", "phase_train"], "attr": {"T": {"type": "DT_FLOAT"}}}, {"name": "MobileFaceNet/MobileFaceNet/Conv2d_4_InvResBlock_0/Conv/BatchNorm/cond_1/AssignMovingAvg/sub/Switch", "op": "Switch", "input": ["MobileFaceNet/Conv_13/BatchNorm/moving_mean", "phase_train"], "attr": {"T": {"type": "DT_FLOAT"}}}, {"name": "MobileFaceNet/MobileFaceNet/Conv2d_4_InvResBlock_0/Conv/BatchNorm/cond_1/Switch", "op": "Switch", "input": ["phase_train", "phase_train"], "attr": {"T": {"type": "DT_BOOL"}}}, {"name": "MobileFaceNet/MobileFaceNet/Conv2d_4_InvResBlock_0/Conv/BatchNorm/cond_1/AssignMovingAvg_1/Switch", "op": "Switch", "input": ["MobileFaceNet/Conv_13/BatchNorm/moving_variance", "phase_train"], "attr": {"T": {"type": "DT_FLOAT"}}}, {"name": "MobileFaceNet/MobileFaceNet/Conv2d_4_InvResBlock_0/Conv/BatchNorm/cond_1/AssignMovingAvg_1/sub/Switch", "op": "Switch", "input": ["MobileFaceNet/Conv_13/BatchNorm/moving_variance", "phase_train"], "attr": {"T": {"type": "DT_FLOAT"}}}, {"name": "MobileFaceNet/MobileFaceNet/Conv2d_4_InvResBlock_0/Conv/BatchNorm/cond_1/AssignMovingAvg/Switch", "op": "Switch", "input": ["MobileFaceNet/Conv_13/BatchNorm/moving_mean", "phase_train"], "attr": {"T": {"type": "DT_FLOAT"}}}, {"name": "MobileFaceNet/MobileFaceNet/Conv2d_4_InvResBlock_0/Conv/BatchNorm/cond/FusedBatchNorm_1/Switch_1", "op": "Switch", "input": ["MobileFaceNet/Conv_13/BatchNorm/gamma", "phase_train"], "attr": {"T": {"type": "DT_FLOAT"}}}, {"name": "MobileFaceNet/MobileFaceNet/Conv2d_4_InvResBlock_0/Conv/BatchNorm/cond/FusedBatchNorm_1/Switch_2", "op": "Switch", "input": ["MobileFaceNet/Conv_13/BatchNorm/beta", "phase_train"], "attr": {"T": {"type": "DT_FLOAT"}}}, {"name": "MobileFaceNet/MobileFaceNet/Conv2d_4_InvResBlock_0/Conv/BatchNorm/cond/FusedBatchNorm_1/Switch_3", "op": "Switch", "input": ["MobileFaceNet/Conv_13/BatchNorm/moving_mean", "phase_train"], "attr": {"T": {"type": "DT_FLOAT"}}}, {"name": "MobileFaceNet/MobileFaceNet/Conv2d_4_InvResBlock_0/Conv/BatchNorm/cond/FusedBatchNorm_1/Switch_4", "op": "Switch", "input": ["MobileFaceNet/Conv_13/BatchNorm/moving_variance", "phase_train"], "attr": {"T": {"type": "DT_FLOAT"}}}, {"name": "MobileFaceNet/MobileFaceNet/Conv2d_4_InvResBlock_0/Conv/BatchNorm/cond/FusedBatchNorm/Switch_1", "op": "Switch", "input": ["MobileFaceNet/Conv_13/BatchNorm/gamma", "phase_train"], "attr": {"T": {"type": "DT_FLOAT"}}}, {"name": "MobileFaceNet/MobileFaceNet/Conv2d_4_InvResBlock_0/Conv/BatchNorm/cond/FusedBatchNorm/Switch_2", "op": "Switch", "input": ["MobileFaceNet/Conv_13/BatchNorm/beta", "phase_train"], "attr": {"T": {"type": "DT_FLOAT"}}}, {"name": "MobileFaceNet/MobileFaceNet/Conv2d_4_InvResBlock_0/Conv/BatchNorm/cond/Switch", "op": "Switch", "input": ["phase_train", "phase_train"], "attr": {"T": {"type": "DT_BOOL"}}}, {"name": "MobileFaceNet/MobileFaceNet/Conv2d_4_InvResBlock_0/SeparableConv2d/BatchNorm/cond/FusedBatchNorm/Switch_1", "op": "Switch", "input": ["MobileFaceNet/SeparableConv2d_7/BatchNorm/gamma", "phase_train"], "attr": {"T": {"type": "DT_FLOAT"}}}, {"name": "MobileFaceNet/MobileFaceNet/Conv2d_4_InvResBlock_0/SeparableConv2d/BatchNorm/cond/FusedBatchNorm/Switch_2", "op": "Switch", "input": ["MobileFaceNet/SeparableConv2d_7/BatchNorm/beta", "phase_train"], "attr": {"T": {"type": "DT_FLOAT"}}}, {"name": "MobileFaceNet/MobileFaceNet/Conv2d_4_InvResBlock_0/SeparableConv2d/BatchNorm/cond/Switch", "op": "Switch", "input": ["phase_train", "phase_train"], "attr": {"T": {"type": "DT_BOOL"}}}, {"name": "MobileFaceNet/MobileFaceNet/Conv2d_4_InvResBlock_0/Conv_1/BatchNorm/cond/FusedBatchNorm/Switch_1", "op": "Switch", "input": ["MobileFaceNet/Conv_14/BatchNorm/gamma", "phase_train"], "attr": {"T": {"type": "DT_FLOAT"}}}, {"name": "MobileFaceNet/MobileFaceNet/Conv2d_4_InvResBlock_0/Conv_1/BatchNorm/cond/FusedBatchNorm/Switch_2", "op": "Switch", "input": ["MobileFaceNet/Conv_14/BatchNorm/beta", "phase_train"], "attr": {"T": {"type": "DT_FLOAT"}}}, {"name": "MobileFaceNet/MobileFaceNet/Conv2d_4_InvResBlock_0/Conv_1/BatchNorm/cond/Switch", "op": "Switch", "input": ["phase_train", "phase_train"], "attr": {"T": {"type": "DT_BOOL"}}}, {"name": "MobileFaceNet/MobileFaceNet/Conv2d_3_InvResBlock_0/Conv_1/BatchNorm/cond_1/AssignMovingAvg/sub/Switch", "op": "Switch", "input": ["MobileFaceNet/Conv_12/BatchNorm/moving_mean", "phase_train"], "attr": {"T": {"type": "DT_FLOAT"}}}, {"name": "MobileFaceNet/MobileFaceNet/Conv2d_3_InvResBlock_0/Conv_1/BatchNorm/cond_1/Switch", "op": "Switch", "input": ["phase_train", "phase_train"], "attr": {"T": {"type": "DT_BOOL"}}}, {"name": "MobileFaceNet/MobileFaceNet/Conv2d_3_InvResBlock_0/Conv_1/BatchNorm/cond_1/AssignMovingAvg_1/Switch", "op": "Switch", "input": ["MobileFaceNet/Conv_12/BatchNorm/moving_variance", "phase_train"], "attr": {"T": {"type": "DT_FLOAT"}}}, {"name": "MobileFaceNet/MobileFaceNet/Conv2d_3_InvResBlock_0/Conv_1/BatchNorm/cond_1/AssignMovingAvg_1/sub/Switch", "op": "Switch", "input": ["MobileFaceNet/Conv_12/BatchNorm/moving_variance", "phase_train"], "attr": {"T": {"type": "DT_FLOAT"}}}, {"name": "MobileFaceNet/MobileFaceNet/Conv2d_3_InvResBlock_0/Conv_1/BatchNorm/cond_1/AssignMovingAvg/Switch", "op": "Switch", "input": ["MobileFaceNet/Conv_12/BatchNorm/moving_mean", "phase_train"], "attr": {"T": {"type": "DT_FLOAT"}}}, {"name": "MobileFaceNet/MobileFaceNet/Conv2d_3_InvResBlock_0/Conv_1/BatchNorm/cond/FusedBatchNorm_1/Switch_1", "op": "Switch", "input": ["MobileFaceNet/Conv_12/BatchNorm/gamma", "phase_train"], "attr": {"T": {"type": "DT_FLOAT"}}}, {"name": "MobileFaceNet/MobileFaceNet/Conv2d_3_InvResBlock_0/Conv_1/BatchNorm/cond/FusedBatchNorm_1/Switch_2", "op": "Switch", "input": ["MobileFaceNet/Conv_12/BatchNorm/beta", "phase_train"], "attr": {"T": {"type": "DT_FLOAT"}}}, {"name": "MobileFaceNet/MobileFaceNet/Conv2d_3_InvResBlock_0/Conv_1/BatchNorm/cond/FusedBatchNorm_1/Switch_3", "op": "Switch", "input": ["MobileFaceNet/Conv_12/BatchNorm/moving_mean", "phase_train"], "attr": {"T": {"type": "DT_FLOAT"}}}, {"name": "MobileFaceNet/MobileFaceNet/Conv2d_3_InvResBlock_0/Conv_1/BatchNorm/cond/FusedBatchNorm_1/Switch_4", "op": "Switch", "input": ["MobileFaceNet/Conv_12/BatchNorm/moving_variance", "phase_train"], "attr": {"T": {"type": "DT_FLOAT"}}}, {"name": "MobileFaceNet/MobileFaceNet/Conv2d_3_InvResBlock_0/SeparableConv2d/BatchNorm/cond_1/AssignMovingAvg/sub/Switch", "op": "Switch", "input": ["MobileFaceNet/SeparableConv2d_6/BatchNorm/moving_mean", "phase_train"], "attr": {"T": {"type": "DT_FLOAT"}}}, {"name": "MobileFaceNet/MobileFaceNet/Conv2d_3_InvResBlock_0/SeparableConv2d/BatchNorm/cond_1/Switch", "op": "Switch", "input": ["phase_train", "phase_train"], "attr": {"T": {"type": "DT_BOOL"}}}, {"name": "MobileFaceNet/MobileFaceNet/Conv2d_3_InvResBlock_0/SeparableConv2d/BatchNorm/cond_1/AssignMovingAvg_1/Switch", "op": "Switch", "input": ["MobileFaceNet/SeparableConv2d_6/BatchNorm/moving_variance", "phase_train"], "attr": {"T": {"type": "DT_FLOAT"}}}, {"name": "MobileFaceNet/MobileFaceNet/Conv2d_3_InvResBlock_0/SeparableConv2d/BatchNorm/cond_1/AssignMovingAvg_1/sub/Switch", "op": "Switch", "input": ["MobileFaceNet/SeparableConv2d_6/BatchNorm/moving_variance", "phase_train"], "attr": {"T": {"type": "DT_FLOAT"}}}, {"name": "MobileFaceNet/MobileFaceNet/Conv2d_3_InvResBlock_0/SeparableConv2d/BatchNorm/cond_1/AssignMovingAvg/Switch", "op": "Switch", "input": ["MobileFaceNet/SeparableConv2d_6/BatchNorm/moving_mean", "phase_train"], "attr": {"T": {"type": "DT_FLOAT"}}}, {"name": "MobileFaceNet/MobileFaceNet/Conv2d_3_InvResBlock_0/SeparableConv2d/BatchNorm/cond/FusedBatchNorm_1/Switch_1", "op": "Switch", "input": ["MobileFaceNet/SeparableConv2d_6/BatchNorm/gamma", "phase_train"], "attr": {"T": {"type": "DT_FLOAT"}}}, {"name": "MobileFaceNet/MobileFaceNet/Conv2d_3_InvResBlock_0/SeparableConv2d/BatchNorm/cond/FusedBatchNorm_1/Switch_2", "op": "Switch", "input": ["MobileFaceNet/SeparableConv2d_6/BatchNorm/beta", "phase_train"], "attr": {"T": {"type": "DT_FLOAT"}}}, {"name": "MobileFaceNet/MobileFaceNet/Conv2d_3_InvResBlock_0/SeparableConv2d/BatchNorm/cond/FusedBatchNorm_1/Switch_3", "op": "Switch", "input": ["MobileFaceNet/SeparableConv2d_6/BatchNorm/moving_mean", "phase_train"], "attr": {"T": {"type": "DT_FLOAT"}}}, {"name": "MobileFaceNet/MobileFaceNet/Conv2d_3_InvResBlock_0/SeparableConv2d/BatchNorm/cond/FusedBatchNorm_1/Switch_4", "op": "Switch", "input": ["MobileFaceNet/SeparableConv2d_6/BatchNorm/moving_variance", "phase_train"], "attr": {"T": {"type": "DT_FLOAT"}}}, {"name": "MobileFaceNet/MobileFaceNet/Conv2d_3_InvResBlock_0/Conv/BatchNorm/cond_1/AssignMovingAvg/sub/Switch", "op": "Switch", "input": ["MobileFaceNet/Conv_11/BatchNorm/moving_mean", "phase_train"], "attr": {"T": {"type": "DT_FLOAT"}}}, {"name": "MobileFaceNet/MobileFaceNet/Conv2d_3_InvResBlock_0/Conv/BatchNorm/cond_1/Switch", "op": "Switch", "input": ["phase_train", "phase_train"], "attr": {"T": {"type": "DT_BOOL"}}}, {"name": "MobileFaceNet/MobileFaceNet/Conv2d_3_InvResBlock_0/Conv/BatchNorm/cond_1/AssignMovingAvg_1/Switch", "op": "Switch", "input": ["MobileFaceNet/Conv_11/BatchNorm/moving_variance", "phase_train"], "attr": {"T": {"type": "DT_FLOAT"}}}, {"name": "MobileFaceNet/MobileFaceNet/Conv2d_3_InvResBlock_0/Conv/BatchNorm/cond_1/AssignMovingAvg_1/sub/Switch", "op": "Switch", "input": ["MobileFaceNet/Conv_11/BatchNorm/moving_variance", "phase_train"], "attr": {"T": {"type": "DT_FLOAT"}}}, {"name": "MobileFaceNet/MobileFaceNet/Conv2d_3_InvResBlock_0/Conv/BatchNorm/cond_1/AssignMovingAvg/Switch", "op": "Switch", "input": ["MobileFaceNet/Conv_11/BatchNorm/moving_mean", "phase_train…
r": {"T": {"type": "DT_FLOAT"}}}, {"name": "ConstantFoldingCtrl/MobileFaceNet/Logits/Conv/BatchNorm/cond_1/AssignMovingAvg/sub/Switch_1_1", "op": "Identity", "input": ["MobileFaceNet/Logits/Conv/BatchNorm/cond_1/AssignMovingAvg/sub/Switch_1:1"], "attr": {"T": {"type": "DT_FLOAT"}}}, {"name": "ConstantFoldingCtrl/MobileFaceNet/Logits/Conv/BatchNorm/cond_1/AssignMovingAvg_1/sub/Switch_1_1", "op": "Identity", "input": ["MobileFaceNet/Logits/Conv/BatchNorm/cond_1/AssignMovingAvg_1/sub/Switch_1:1"], "attr": {"T": {"type": "DT_FLOAT"}}}, {"name": "MobileFaceNet/Logits/Conv/BatchNorm/cond_1/Identity", "op": "Identity", "input": ["MobileFaceNet/Logits/Conv/BatchNorm/cond_1/Identity/Switch:1", "^ConstantFoldingCtrl/MobileFaceNet/Logits/Conv/BatchNorm/cond_1/AssignMovingAvg/sub/Switch_1", "^MobileFaceNet/Logits/Conv/BatchNorm/cond_1/switch_t", "^ConstantFoldingCtrl/MobileFaceNet/Logits/Conv/BatchNorm/cond_1/AssignMovingAvg_1/Switch_1", "^ConstantFoldingCtrl/MobileFaceNet/Logits/Conv/BatchNorm/cond_1/AssignMovingAvg_1/sub/Switch_1_1", "^ConstantFoldingCtrl/MobileFaceNet/Logits/Conv/BatchNorm/cond_1/AssignMovingAvg_1/sub/Switch_1", "^ConstantFoldingCtrl/MobileFaceNet/Logits/Conv/BatchNorm/cond_1/AssignMovingAvg/Switch_1", "^ConstantFoldingCtrl/MobileFaceNet/Logits/Conv/BatchNorm/cond_1/AssignMovingAvg/sub/Switch_1_1"], "attr": {"T": {"type": "DT_FLOAT"}}}, {"name": "MobileFaceNet/Logits/Conv/BatchNorm/cond_1/Merge", "op": "Merge", "input": ["MobileFaceNet/Logits/Conv/BatchNorm/cond_1/Switch_1", "MobileFaceNet/Logits/Conv/BatchNorm/cond_1/Identity"], "attr": {"T": {"type": "DT_FLOAT"}, "N": {"i": "2"}}}, {"name": "MobileFaceNet/Logits/LinearConv1x1/Conv2D", "op": "Conv2D", "input": ["MobileFaceNet/Logits/Conv/BatchNorm/cond_1/Merge", "MobileFaceNet/Logits/LinearConv1x1/weights"], "device": "/device:CPU:0", "attr": {"T": {"type": "DT_FLOAT"}, "use_cudnn_on_gpu": {"b": true}, "strides": {"list": {"i": ["1", "1", "1", "1"]}}, "explicit_paddings": {"list": {}}, "data_format": {"s": "TkhXQw=="}, "dilations": {"list": {"i": ["1", "1", "1", "1"]}}, "padding": {"s": "U0FNRQ=="}}}, {"name": "MobileFaceNet/Logits/LinearConv1x1/BatchNorm/cond/FusedBatchNorm_1/Switch", "op": "Switch", "input": ["MobileFaceNet/Logits/LinearConv1x1/Conv2D", "phase_train"], "attr": {"T": {"type": "DT_FLOAT"}}}, {"name": "MobileFaceNet/Logits/LinearConv1x1/BatchNorm/cond/FusedBatchNorm/Switch", "op": "Switch", "input": ["MobileFaceNet/Logits/LinearConv1x1/Conv2D", "phase_train"], "attr": {"T": {"type": "DT_FLOAT"}}}, {"name": "MobileFaceNet/Logits/LinearConv1x1/BatchNorm/cond/FusedBatchNorm_1", "op": "FusedBatchNorm", "input": ["MobileFaceNet/Logits/LinearConv1x1/BatchNorm/cond/FusedBatchNorm_1/Switch", "MobileFaceNet/Logits/LinearConv1x1/BatchNorm/cond/FusedBatchNorm_1/Switch_1", "MobileFaceNet/Logits/LinearConv1x1/BatchNorm/cond/FusedBatchNorm_1/Switch_2", "MobileFaceNet/Logits/LinearConv1x1/BatchNorm/cond/FusedBatchNorm_1/Switch_3", "MobileFaceNet/Logits/LinearConv1x1/BatchNorm/cond/FusedBatchNorm_1/Switch_4"], "attr": {"epsilon": {"f": 2e-05}, "data_format": {"s": "TkhXQw=="}, "T": {"type": "DT_FLOAT"}, "is_training": {"b": false}, "exponential_avg_factor": {"f": 1.0}}}, {"name": "MobileFaceNet/Logits/LinearConv1x1/BatchNorm/cond/FusedBatchNorm", "op": "FusedBatchNorm", "input": ["MobileFaceNet/Logits/LinearConv1x1/BatchNorm/cond/FusedBatchNorm/Switch:1", "MobileFaceNet/Logits/LinearConv1x1/BatchNorm/cond/FusedBatchNorm/Switch_1:1", "MobileFaceNet/Logits/LinearConv1x1/BatchNorm/cond/FusedBatchNorm/Switch_2:1", "MobileFaceNet/Logits/LinearConv1x1/BatchNorm/cond/Const", "MobileFaceNet/Logits/LinearConv1x1/BatchNorm/cond/Const_1"], "attr": {"exponential_avg_factor": {"f": 1.0}, "data_format": {"s": "TkhXQw=="}, "epsilon": {"f": 2e-05}, "T": {"type": "DT_FLOAT"}, "is_training": {"b": true}}}, {"name": "MobileFaceNet/Logits/LinearConv1x1/BatchNorm/cond/Merge", "op": "Merge", "input": ["MobileFaceNet/Logits/LinearConv1x1/BatchNorm/cond/FusedBatchNorm_1", "MobileFaceNet/Logits/LinearConv1x1/BatchNorm/cond/FusedBatchNorm"], "attr": {"N": {"i": "2"}, "T": {"type": "DT_FLOAT"}}}, {"name": "MobileFaceNet/Logits/LinearConv1x1/BatchNorm/cond/Merge_1", "op": "Merge", "input": ["MobileFaceNet/Logits/LinearConv1x1/BatchNorm/cond/FusedBatchNorm_1:1", "MobileFaceNet/Logits/LinearConv1x1/BatchNorm/cond/FusedBatchNorm:1"], "attr": {"N": {"i": "2"}, "T": {"type": "DT_FLOAT"}}}, {"name": "MobileFaceNet/Logits/LinearConv1x1/BatchNorm/cond/Merge_2", "op": "Merge", "input": ["MobileFaceNet/Logits/LinearConv1x1/BatchNorm/cond/FusedBatchNorm_1:2", "MobileFaceNet/Logits/LinearConv1x1/BatchNorm/cond/FusedBatchNorm:2"], "attr": {"T": {"type": "DT_FLOAT"}, "N": {"i": "2"}}}, {"name": "MobileFaceNet/Logits/LinearConv1x1/BatchNorm/cond_1/Switch_1", "op": "Switch", "input": ["MobileFaceNet/Logits/LinearConv1x1/BatchNorm/cond/Merge", "phase_train"], "attr": {"T": {"type": "DT_FLOAT"}}}, {"name": "MobileFaceNet/Logits/LinearConv1x1/BatchNorm/cond_1/Identity/Switch", "op": "Switch", "input": ["MobileFaceNet/Logits/LinearConv1x1/BatchNorm/cond/Merge", "phase_train"], "attr": {"T": {"type": "DT_FLOAT"}}}, {"name": "MobileFaceNet/Logits/LinearConv1x1/BatchNorm/cond_1/AssignMovingAvg/sub/Switch_1", "op": "Switch", "input": ["MobileFaceNet/Logits/LinearConv1x1/BatchNorm/cond/Merge_1", "phase_train"], "attr": {"T": {"type": "DT_FLOAT"}}}, {"name": "MobileFaceNet/Logits/LinearConv1x1/BatchNorm/cond_1/AssignMovingAvg_1/sub/Switch_1", "op": "Switch", "input": ["MobileFaceNet/Logits/LinearConv1x1/BatchNorm/cond/Merge_2", "phase_train"], "attr": {"T": {"type": "DT_FLOAT"}}}, {"name": "ConstantFoldingCtrl/MobileFaceNet/Logits/LinearConv1x1/BatchNorm/cond_1/AssignMovingAvg/sub/Switch_1_1", "op": "Identity", "input": ["MobileFaceNet/Logits/LinearConv1x1/BatchNorm/cond_1/AssignMovingAvg/sub/Switch_1:1"], "attr": {"T": {"type": "DT_FLOAT"}}}, {"name": "ConstantFoldingCtrl/MobileFaceNet/Logits/LinearConv1x1/BatchNorm/cond_1/AssignMovingAvg_1/sub/Switch_1_1", "op": "Identity", "input": ["MobileFaceNet/Logits/LinearConv1x1/BatchNorm/cond_1/AssignMovingAvg_1/sub/Switch_1:1"], "attr": {"T": {"type": "DT_FLOAT"}}}, {"name": "MobileFaceNet/Logits/LinearConv1x1/BatchNorm/cond_1/Identity", "op": "Identity", "input": ["MobileFaceNet/Logits/LinearConv1x1/BatchNorm/cond_1/Identity/Switch:1", "^ConstantFoldingCtrl/MobileFaceNet/Logits/LinearConv1x1/BatchNorm/cond_1/AssignMovingAvg/sub/Switch_1", "^MobileFaceNet/Logits/LinearConv1x1/BatchNorm/cond_1/switch_t", "^ConstantFoldingCtrl/MobileFaceNet/Logits/LinearConv1x1/BatchNorm/cond_1/AssignMovingAvg_1/Switch_1", "^ConstantFoldingCtrl/MobileFaceNet/Logits/LinearConv1x1/BatchNorm/cond_1/AssignMovingAvg_1/sub/Switch_1_1", "^ConstantFoldingCtrl/MobileFaceNet/Logits/LinearConv1x1/BatchNorm/cond_1/AssignMovingAvg_1/sub/Switch_1", "^ConstantFoldingCtrl/MobileFaceNet/Logits/LinearConv1x1/BatchNorm/cond_1/AssignMovingAvg/Switch_1", "^ConstantFoldingCtrl/MobileFaceNet/Logits/LinearConv1x1/BatchNorm/cond_1/AssignMovingAvg/sub/Switch_1_1"], "attr": {"T": {"type": "DT_FLOAT"}}}, {"name": "MobileFaceNet/Logits/LinearConv1x1/BatchNorm/cond_1/Merge", "op": "Merge", "input": ["MobileFaceNet/Logits/LinearConv1x1/BatchNorm/cond_1/Switch_1", "MobileFaceNet/Logits/LinearConv1x1/BatchNorm/cond_1/Identity"], "attr": {"N": {"i": "2"}, "T": {"type": "DT_FLOAT"}}}, {"name": "MobileFaceNet/Logits/SpatialSqueeze", "op": "Squeeze", "input": ["MobileFaceNet/Logits/LinearConv1x1/BatchNorm/cond_1/Merge"], "attr": {"squeeze_dims": {"list": {"i": ["1", "2"]}}, "T": {"type": "DT_FLOAT"}}}, {"name": "embeddings/Square", "op": "Square", "input": ["MobileFaceNet/Logits/SpatialSqueeze"], "attr": {"T": {"type": "DT_FLOAT"}}}, {"name": "embeddings/Sum", "op": "Sum", "input": ["embeddings/Square", "embeddings/Sum/reduction_indices"], "attr": {"Tidx": {"type": "DT_INT32"}, "keep_dims": {"b": true}, "T": {"type": "DT_FLOAT"}}}, {"name": "embeddings/Maximum", "op": "Maximum", "input": ["embeddings/Sum", "embeddings/Maximum/y"], "attr": {"T": {"type": "DT_FLOAT"}}}, {"name": "embeddings/Rsqrt", "op": "Rsqrt", "input": ["embeddings/Maximum"], "attr": {"T": {"type": "DT_FLOAT"}}}, {"name": "embeddings", "op": "Mul", "input": ["MobileFaceNet/Logits/SpatialSqueeze", "embeddings/Rsqrt"], "attr": {"T": {"type": "DT_FLOAT"}}}], "library": {}, "versions": {"minConsumer": 12}}, "weightsManifest": [{"paths": ["group1-shard1of2.bin", "group1-shard2of2.bin"], "weights": [{"name": "MobileFaceNet/Logits/LinearConv1x1/BatchNorm/moving_mean", "shape": [128], "dtype": "float32"}, {"name": "MobileFaceNet/Logits/LinearConv1x1/BatchNorm/moving_variance", "shape": [128], "dtype": "float32"}, {"name": "MobileFaceNet/Logits/Conv/BatchNorm/moving_mean", "shape": [512], "dtype": "float32"}, {"name": "MobileFaceNet/Logits/Conv/BatchNorm/moving_variance", "shape": [512], "dtype": "float32"}, {"name": "MobileFaceNet/Logits/SeparableConv2d/BatchNorm/moving_mean", "shape": [512], "dtype": "float32"}, {"name": "MobileFaceNet/Logits/SeparableConv2d/BatchNorm/moving_variance", "shape": [512], "dtype": "float32"}, {"name": "MobileFaceNet/Conv2d_7/BatchNorm/moving_mean", "shape": [512], "dtype": "float32"}, {"name": "MobileFaceNet/Conv2d_7/BatchNorm/moving_variance", "shape": [512], "dtype": "float32"}, {"name": "MobileFaceNet/Conv_30/BatchNorm/moving_mean", "shape": [128], "dtype": "float32"}, {"name": "MobileFaceNet/Conv_30/BatchNorm/moving_variance", "shape": [128], "dtype": "float32"}, {"name": "MobileFaceNet/SeparableConv2d_15/BatchNorm/moving_mean", "shape": [256], "dtype": "float32"}, {"name": "MobileFaceNet/SeparableConv2d_15/BatchNorm/moving_variance", "shape": [256], "dtype": "float32"}, {"name": "MobileFaceNet/Conv_29/BatchNorm/moving_mean", "shape": [256], "dtype": "float32"}, {"name": "MobileFaceNet/Conv_29/BatchNorm/moving_variance", "shape": [256], "dtype": "float32"}, {"name": "MobileFaceNet/Conv_29/weights", "shape": [1, 1, 128, 256], "dtype": "float32"}, {"name": "MobileFaceNet/Conv_29/BatchNorm/gamma", "shape": [256], "dtype": "float32"}, {"name": "MobileFaceNet/Conv_29/BatchNorm/beta", "shape": [256], "dtype": "float32"}, {"name": "MobileFaceNet/MobileFaceNet/Conv2d_6_InvResBlock_1/Conv/mul", "shape": [256], "dtype": "float32"}, {"name": "MobileFaceNet/SeparableConv2d_15/depthwise_weights", "shape": [3, 3, 256, 1], "dtype": "float32"}, {"name": "MobileFaceNet/SeparableConv2d_15/BatchNorm/gamma", "shape": [256], "dtype": "float32"}, {"name": "MobileFaceNet/SeparableConv2d_15/BatchNorm/beta", "shape": [256], "dtype": "float32"}, {"name": "MobileFaceNet/MobileFaceNet/Conv2d_6_InvResBlock_1/SeparableConv2d/mul", "shape": [256], "dtype": "float32"}, {"name": "MobileFaceNet/Conv_30/weights", "shape": [1, 1, 256, 128], "dtype": "float32"}, {"name": "MobileFaceNet/Conv_30/BatchNorm/gamma", "shape": [128], "dtype": "float32"}, {"name": "MobileFaceNet/Conv_30/BatchNorm/beta", "shape": [128], "dtype": "float32"}, {"name": "MobileFaceNet/Conv_28/BatchNorm/moving_mean", "shape": [128], "dtype": "float32"}, {"name": "MobileFaceNet/Conv_28/BatchNorm/moving_variance", "shape": [128], "dtype": "float32"}, {"name": "MobileFaceNet/SeparableConv2d_14/BatchNorm/moving_mean", "shape": [256], "dtype": "float32"}, {"name": "MobileFaceNet/SeparableConv2d_14/BatchNorm/moving_variance", "shape": [256], "dtype": "float32"}, {"name": "MobileFaceNet/Conv_27/BatchNorm/moving_mean", "shape": [256], "dtype": "float32"}, {"name": "MobileFaceNet/Conv_27/BatchNorm/moving_variance", "shape": [256], "dtype": "float32"}, {"name": "MobileFaceNet/Conv_27/weights", "shape": [1, 1, 128, 256], "dtype": "float32"}, {"name": "MobileFaceNet/Conv_27/BatchNorm/gamma", "shape": [256], "dtype": "float32"}, {"name": "MobileFaceNet/Conv_27/BatchNorm/beta", "shape": [256], "dtype": "float32"}, {"name": "MobileFaceNet/MobileFaceNet/Conv2d_6_InvResBlock_0/Conv/mul", "shape": [256], "dtype": "float32"}, {"name": "MobileFaceNet/SeparableConv2d_14/depthwise_weights", "shape": [3, 3, 256, 1], "dtype": "float32"}, {"name": "MobileFaceNet/SeparableConv2d_14/BatchNorm/gamma", "shape": [256], "dtype": "float32"}, {"name": "MobileFaceNet/SeparableConv2d_14/BatchNorm/beta", "shape": [256], "dtype": "float32"}, {"name": "MobileFaceNet/MobileFaceNet/Conv2d_6_InvResBlock_0/SeparableConv2d/mul", "shape": [256], "dtype": "float32"}, {"name": "MobileFaceNet/Conv_28/weights", "shape": [1, 1, 256, 128], "dtype": "float32"}, {"name": "MobileFaceNet/Conv_28/BatchNorm/gamma", "shape": [128], "dtype": "float32"}, {"name": "MobileFaceNet/Conv_28/BatchNorm/beta", "shape": [128], "dtype": "float32"}, {"name": "MobileFaceNet/Conv_26/BatchNorm/moving_mean", "shape": [128], "dtype": "float32"}, {"name": "MobileFaceNet/Conv_26/BatchNorm/moving_variance", "shape": [128], "dtype": "float32"}, {"name": "MobileFaceNet/SeparableConv2d_13/BatchNorm/moving_mean", "shape": [512], "dtype": "float32"}, {"name": "MobileFaceNet/SeparableConv2d_13/BatchNorm/moving_variance", "shape": [512], "dtype": "float32"}, {"name": "MobileFaceNet/Conv_25/BatchNorm/moving_mean", "shape": [512], "dtype": "float32"}, {"name": "MobileFaceNet/Conv_25/BatchNorm/moving_variance", "shape": [512], "dtype": "float32"}, {"name": "MobileFaceNet/Conv_24/BatchNorm/moving_mean", "shape": [128], "dtype": "float32"}, {"name": "MobileFaceNet/Conv_24/BatchNorm/moving_variance", "shape": [128], "dtype": "float32"}, {"name": "MobileFaceNet/SeparableConv2d_12/BatchNorm/moving_mean", "shape": [256], "dtype": "float32"}, {"name": "MobileFaceNet/SeparableConv2d_12/BatchNorm/moving_variance", "shape": [256], "dtype": "float32"}, {"name": "MobileFaceNet/Conv_23/BatchNorm/moving_mean", "shape": [256], "dtype": "float32"}, {"name": "MobileFaceNet/Conv_23/BatchNorm/moving_variance", "shape": [256], "dtype": "float32"}, {"name": "MobileFaceNet/Conv_23/weights", "shape": [1, 1, 128, 256], "dtype": "float32"}, {"name": "MobileFaceNet/Conv_23/BatchNorm/gamma", "shape": [256], "dtype": "float32"}, {"name": "MobileFaceNet/Conv_23/BatchNorm/beta", "shape": [256], "dtype": "float32"}, {"name": "MobileFaceNet/MobileFaceNet/Conv2d_4_InvResBlock_5/Conv/mul", "shape": [256], "dtype": "float32"}, {"name": "MobileFaceNet/SeparableConv2d_12/depthwise_weights", "shape": [3, 3, 256, 1], "dtype": "float32"}, {"name": "MobileFaceNet/SeparableConv2d_12/BatchNorm/gamma", "shape": [256], "dtype": "float32"}, {"name": "MobileFaceNet/SeparableConv2d_12/BatchNorm/beta", "shape": [256], "dtype": "float32"}, {"name": "MobileFaceNet/MobileFaceNet/Conv2d_4_InvResBlock_5/SeparableConv2d/mul", "shape": [256], "dtype": "float32"}, {"name": "MobileFaceNet/Conv_24/weights", "shape": [1, 1, 256, 128], "dtype": "float32"}, {"name": "MobileFaceNet/Conv_24/BatchNorm/gamma", "shape": [128], "dtype": "float32"}, {"name": "MobileFaceNet/Conv_24/BatchNorm/beta", "shape": [128], "dtype": "float32"}, {"name": "MobileFaceNet/Conv_22/BatchNorm/moving_mean", "shape": [128], "dtype": "float32"}, {"name": "MobileFaceNet/Conv_22/BatchNorm/moving_variance", "shape": [128], "dtype": "float32"}, {"name": "MobileFaceNet/SeparableConv2d_11/BatchNorm/moving_mean", "shape": [256], "dtype": "float32"}, {"name": "MobileFaceNet/SeparableConv2d_11/BatchNorm/moving_variance", "shape": [256], "dtype": "float32"}, {"name": "MobileFaceNet/Conv_21/BatchNorm/moving_mean", "shape": [256], "dtype": "float32"}, {"name": "MobileFaceNet/Conv_21/BatchNorm/moving_variance", "shape": [256], "dtype": "float32"}, {"name": "MobileFaceNet/Conv_21/weights", "shape": [1, 1, 128, 256], "dtype": "float32"}, {"name": "MobileFaceNet/Conv_21/BatchNorm/gamma", "shape": [256], "dtype": "float32"}, {"name": "MobileFaceNet/Conv_21/BatchNorm/beta", "shape": [256], "dtype": "float32"}, {"name": "MobileFaceNet/MobileFaceNet/Conv2d_4_InvResBlock_4/Conv/mul", "shape": [256], "dtype": "float32"}, {"name": "MobileFaceNet/SeparableConv2d_11/depthwise_weights", "shape": [3, 3, 256, 1], "dtype": "float32"}, {"name": "MobileFaceNet/SeparableConv2d_11/BatchNorm/gamma", "shape": [256], "dtype": "float32"}, {"name": "MobileFaceNet/SeparableConv2d_11/BatchNorm/beta", "shape": [256], "dtype": "float32"}, {"name": "MobileFaceNet/MobileFaceNet/Conv2d_4_InvResBlock_4/SeparableConv2d/mul", "shape": [256], "dtype": "float32"}, {"name": "MobileFaceNet/Conv_22/weights", "shape": [1, 1, 256, 128], "dtype": "float32"}, {"name": "MobileFaceNet/Conv_22/BatchNorm/gamma", "shape": [128], "dtype": "float32"}, {"name": "MobileFaceNet/Conv_22/BatchNorm/beta", "shape": [128], "dtype": "float32"}, {"name": "MobileFaceNet/Conv_20/BatchNorm/moving_mean", "shape": [128], "dtype": "float32"}, {"name": "MobileFaceNet/Conv_20/BatchNorm/moving_variance", "shape": [128], "dtype": "float32"}, {"name": "MobileFaceNet/SeparableConv2d_10/BatchNorm/moving_mean", "shape": [256], "dtype": "float32"}, {"name": "MobileFaceNet/SeparableConv2d_10/BatchNorm/moving_variance", "shape": [256], "dtype": "float32"}, {"name": "MobileFaceNet/Conv_19/BatchNorm/moving_mean", "shape": [256], "dtype": "float32"}, {"name": "MobileFaceNet/Conv_19/BatchNorm/moving_variance", "shape": [256], "dtype": "float32"}, {"name": "MobileFaceNet/Conv_19/weights", "shape": [1, 1, 128, 256], "dtype": "float32"}, {"name": "MobileFaceNet/Conv_19/BatchNorm/gamma", "shape": [256], "dtype": "float32"}, {"name": "MobileFaceNet/Conv_19/BatchNorm/beta", "shape": [256], "dtype": "float32"}, {"name": "MobileFaceNet/MobileFaceNet/Conv2d_4_InvResBlock_3/Conv/mul", "shape": [256], "dtype": "float32"}, {"name": "MobileFaceNet/SeparableConv2d_10/depthwise_weights", "shape": [3, 3, 256, 1], "dtype": "float32"}, {"name": "MobileFaceNet/SeparableConv2d_10/BatchNorm/gamma", "shape": [256], "dtype": "float32"}, {"name": "MobileFaceNet/SeparableConv2d_10/BatchNorm/beta", "shape": [256], "dtype": "float32"}, {"name": "MobileFaceNet/MobileFaceNet/Conv2d_4_InvResBlock_3/SeparableConv2d/mul", "shape": [256], "dtype": "float32"}, {"name": "MobileFaceNet/Conv_20/weights", "shape": [1, 1, 256, 128], "dtype": "float32"}, {"name": "MobileFaceNet/Conv_20/BatchNorm/gamma", "shape": [128], "dtype": "float32"}, {"name": "MobileFaceNet/Conv_20/BatchNorm/beta", "shape": [128], "dtype": "float32"}, {"name": "MobileFaceNet/Conv_18/BatchNorm/moving_mean", "shape": [128], "dtype": "float32"}, {"name": "MobileFaceNet/Conv_18/BatchNorm/moving_variance", "shape": [128], "dtype": "float32"}, {"name": "MobileFaceNet/SeparableConv2d_9/BatchNorm/moving_mean", "shape": [256], "dtype": "float32"}, {"name": "MobileFaceNet/SeparableConv2d_9/BatchNorm/moving_variance", "shape": [256], "dtype": "float32"}, {"name": "MobileFaceNet/Conv_17/BatchNorm/moving_mean", "shape": [256], "dtype": "float32"}, {"name": "MobileFaceNet/Conv_17/BatchNorm/moving_variance", "shape": [256], "dtype": "float32"}, {"name": "MobileFaceNet/Conv_17/weights", "shape": [1, 1, 128, 256], "dtype": "float32"}, {"name": "MobileFaceNet/Conv_17/BatchNorm/gamma", "shape": [256], "dtype": "float32"}, {"name": "MobileFaceNet/Conv_17/BatchNorm/beta", "shape": [256], "dtype": "float32"}, {"name": "MobileFaceNet/MobileFaceNet/Conv2d_4_InvResBlock_2/Conv/mul", "shape": [256], "dtype": "float32"}, {"name": "MobileFaceNet/SeparableConv2d_9/depthwise_weights", "shape": [3, 3, 256, 1], "dtype": "float32"}, {"name": "MobileFaceNet/SeparableConv2d_9/BatchNorm/gamma", "shape": [256], "dtype": "float32"}, {"name": "MobileFaceNet/SeparableConv2d_9/BatchNorm/beta", "shape": [256], "dtype": "float32"}, {"name": "MobileFaceNet/MobileFaceNet/Conv2d_4_InvResBlock_2/SeparableConv2d/mul", "shape": [256], "dtype": "float32"}, {"name": "MobileFaceNet/Conv_18/weights", "shape": [1, 1, 256, 128], "dtype": "float32"}, {"name": "MobileFaceNet/Conv_18/BatchNorm/gamma", "shape": [128], "dtype": "float32"}, {"name": "MobileFaceNet/Conv_18/BatchNorm/beta", "shape": [128], "dtype": "float32"}, {"name": "MobileFaceNet/Conv_16/BatchNorm/moving_mean", "shape": [128], "dtype": "float32"}, {"name": "MobileFaceNet/Conv_16/BatchNorm/moving_variance", "shape": [128], "dtype": "float32"}, {"name": "MobileFaceNet/SeparableConv2d_8/BatchNorm/moving_mean", "shape": [256], "dtype": "float32"}, {"name": "MobileFaceNet/SeparableConv2d_8/BatchNorm/moving_variance", "shape": [256], "dtype": "float32"}, {"name": "MobileFaceNet/Conv_15/BatchNorm/moving_mean", "shape": [256], "dtype": "float32"}, {"name": "MobileFaceNet/Conv_15/BatchNorm/moving_variance", "shape": [256], "dtype": "float32"}, {"name": "MobileFaceNet/Conv_15/weights", "shape": [1, 1, 128, 256], "dtype": "float32"}, {"name": "MobileFaceNet/Conv_15/BatchNorm/gamma", "shape": [256], "dtype": "float32"}, {"name": "MobileFaceNet/Conv_15/BatchNorm/beta", "shape": [256], "dtype": "float32"}, {"name": "MobileFaceNet/MobileFaceNet/Conv2d_4_InvResBlock_1/Conv/mul", "shape": [256], "dtype": "float32"}, {"name": "MobileFaceNet/SeparableConv2d_8/depthwise_weights", "shape": [3, 3, 256, 1], "dtype": "float32"}, {"name": "MobileFaceNet/SeparableConv2d_8/BatchNorm/gamma", "shape": [256], "dtype": "float32"}, {"name": "MobileFaceNet/SeparableConv2d_8/BatchNorm/beta", "shape": [256], "dtype": "float32"}, {"name": "MobileFaceNet/MobileFaceNet/Conv2d_4_InvResBlock_1/SeparableConv2d/mul", "shape": [256], "dtype": "float32"}, {"name": "MobileFaceNet/Conv_16/weights", "shape": [1, 1, 256, 128], "dtype": "float32"}, {"name": "MobileFaceNet/Conv_16/BatchNorm/gamma", "shape": [128], "dtype": "float32"}, {"name": "MobileFaceNet/Conv_16/BatchNorm/beta", "shape": [128], "dtype": "float32"}, {"name": "MobileFaceNet/Conv_14/BatchNorm/moving_mean", "shape": [128], "dtype": "float32"}, {"name": "MobileFaceNet/Conv_14/BatchNorm/moving_variance", "shape": [128], "dtype": "float32"}, {"name": "MobileFaceNet/SeparableConv2d_7/BatchNorm/moving_mean", "shape": [256], "dtype": "float32"}, {"name": "MobileFaceNet/SeparableConv2d_7/BatchNorm/moving_variance", "shape": [256], "dtype": "float32"}, {"name": "MobileFaceNet/Conv_13/BatchNorm/moving_mean", "shape": [256], "dtype": "float32"}, {"name": "MobileFaceNet/Conv_13/BatchNorm/moving_variance", "shape": [256], "dtype": "float32"}, {"name": "MobileFaceNet/Conv_13/weights", "shape": [1, 1, 128, 256], "dtype": "float32"}, {"name": "MobileFaceNet/Conv_13/BatchNorm/gamma", "shape": [256], "dtype": "float32"}, {"name": "MobileFaceNet/Conv_13/BatchNorm/beta", "shape": [256], "dtype": "float32"}, {"name": "MobileFaceNet/MobileFaceNet/Conv2d_4_InvResBlock_0/Conv/mul", "shape": [256], "dtype": "float32"}, {"name": "MobileFaceNet/SeparableConv2d_7/depthwise_weights", "shape": [3, 3, 256, 1], "dtype": "float32"}, {"name": "MobileFaceNet/SeparableConv2d_7/BatchNorm/gamma", "shape": [256], "dtype": "float32"}, {"name": "MobileFaceNet/SeparableConv2d_7/BatchNorm/beta", "shape": [256], "dtype": "float32"}, {"name": "MobileFaceNet/MobileFaceNet/Conv2d_4_InvResBlock_0/SeparableConv2d/mul", "shape": [256], "dtype": "float32"}, {"name": "MobileFaceNet/Conv_14/weights", "shape": [1, 1, 256, 128], "dtype": "float32"}, {"name": "MobileFaceNet/Conv_14/BatchNorm/gamma", "shape": [128], "dtype": "float32"}, {"name": "MobileFaceNet/Conv_14/BatchNorm/beta", "shape": [128], "dtype": "float32"}, {"name": "MobileFaceNet/Conv_12/BatchNorm/moving_mean", "shape": [128], "dtype": "float32"}, {"name": "MobileFaceNet/Conv_12/BatchNorm/moving_variance", "shape": [128], "dtype": "float32"}, {"name": "MobileFaceNet/SeparableConv2d_6/BatchNorm/moving_mean", "shape": [256], "dtype": "float32"}, {"name": "MobileFaceNet/SeparableConv2d_6/BatchNorm/moving_variance", "shape": [256], "dtype": "float32"}, {"name": "MobileFaceNet/Conv_11/BatchNorm/moving_mean", "shape": [256], "dtype": "float32"}, {"name": "MobileFaceNet/Conv_11/BatchNorm/moving_variance", "shape": [256], "dtype": "float32"}, {"name": "MobileFaceNet/Conv_10/BatchNorm/moving_mean", "shape": [64], "dtype": "float32"}, {"name": "MobileFaceNet/Conv_10/BatchNorm/moving_variance", "shape": [64], "dtype": "float32"}, {"name": "MobileFaceNet/SeparableConv2d_5/BatchNorm/moving_mean", "shape": [128], "dtype": "float32"}, {"name": "MobileFaceNet/SeparableConv2d_5/BatchNorm/moving_variance", "shape": [128], "dtype": "float32"}, {"name": "MobileFaceNet/Conv_9/BatchNorm/moving_mean", "shape": [128], "dtype": "float32"}, {"name": "MobileFaceNet/Conv_9/BatchNorm/moving_variance", "shape": [128], "dtype": "float32"}, {"name": "MobileFaceNet/Conv_9/weights", "shape": [1, 1, 64, 128], "dtype": "float32"}, {"name": "MobileFaceNet/Conv_9/BatchNorm/gamma", "shape": [128], "dtype": "float32"}, {"name": "MobileFaceNet/Conv_9/BatchNorm/beta", "shape": [128], "dtype": "float32"}, {"name": "MobileFaceNet/MobileFaceNet/Conv2d_2_InvResBlock_4/Conv/mul", "shape": [128], "dtype": "float32"}, {"name": "MobileFaceNet/SeparableConv2d_5/depthwise_weights", "shape": [3, 3, 128, 1], "dtype": "float32"}, {"name": "MobileFaceNet/SeparableConv2d_5/BatchNorm/gamma", "shape": [128], "dtype": "float32"}, {"name": "MobileFaceNet/SeparableConv2d_5/BatchNorm/beta", "shape": [128], "dtype": "float32"}, {"name": "MobileFaceNet/MobileFaceNet/Conv2d_2_InvResBlock_4/SeparableConv2d/mul", "shape": [128], "dtype": "float32"}, {"name": "MobileFaceNet/Conv_10/weights", "shape": [1, 1, 128, 64], "dtype": "float32"}, {"name": "MobileFaceNet/Conv_10/BatchNorm/gamma", "shape": [64], "dtype": "float32"}, {"name": "MobileFaceNet/Conv_10/BatchNorm/beta", "shape": [64], "dtype": "float32"}, {"name": "MobileFaceNet/Conv_8/BatchNorm/moving_mean", "shape": [64], "dtype": "float32"}, {"name": "MobileFaceNet/Conv_8/BatchNorm/moving_variance", "shape": [64], "dtype": "float32"}, {"name": "MobileFaceNet/SeparableConv2d_4/BatchNorm/moving_mean", "shape": [128], "dtype": "float32"}, {"name": "MobileFaceNet/SeparableConv2d_4/BatchNorm/moving_variance", "shape": [128], "dtype": "float32"}, {"name": "MobileFaceNet/Conv_7/BatchNorm/moving_mean", "shape": [128], "dtype": "float32"}, {"name": "MobileFaceNet/Conv_7/BatchNorm/moving_variance", "shape": [128], "dtype": "float32"}, {"name": "MobileFaceNet/Conv_7/weights", "shape": [1, 1, 64, 128], "dtype": "float32"}, {"name": "MobileFaceNet/Conv_7/BatchNorm/gamma", "shape": [128], "dtype": "float32"}, {"name": "MobileFaceNet/Conv_7/BatchNorm/beta", "shape": [128], "dtype": "float32"}, {"name": "MobileFaceNet/MobileFaceNet/Conv2d_2_InvResBlock_3/Conv/mul", "shape": [128], "dtype": "float32"}, {"name": "MobileFaceNet/SeparableConv2d_4/depthwise_weights", "shape": [3, 3, 128, 1], "dtype": "float32"}, {"name": "MobileFaceNet/SeparableConv2d_4/BatchNorm/gamma", "shape": [128], "dtype": "float32"}, {"name": "MobileFaceNet/SeparableConv2d_4/BatchNorm/beta", "shape": [128], "dtype": "float32"}, {"name": "MobileFaceNet/MobileFaceNet/Conv2d_2_InvResBlock_3/SeparableConv2d/mul", "shape": [128], "dtype": "float32"}, {"name": "MobileFaceNet/Conv_8/weights", "shape": [1, 1, 128, 64], "dtype": "float32"}, {"name": "MobileFaceNet/Conv_8/BatchNorm/gamma", "shape": [64], "dtype": "float32"}, {"name": "MobileFaceNet/Conv_8/BatchNorm/beta", "shape": [64], "dtype": "float32"}, {"name": "MobileFaceNet/Conv_6/BatchNorm/moving_mean", "shape": [64], "dtype": "float32"}, {"name": "MobileFaceNet/Conv_6/BatchNorm/moving_variance", "shape": [64], "dtype": "float32"}, {"name": "MobileFaceNet/SeparableConv2d_3/BatchNorm/moving_mean", "shape": [128], "dtype": "float32"}, {"name": "MobileFaceNet/SeparableConv2d_3/BatchNorm/moving_variance", "shape": [128], "dtype": "float32"}, {"name": "MobileFaceNet/Conv_5/BatchNorm/moving_mean", "shape": [128], "dtype": "float32"}, {"name": "MobileFaceNet/Conv_5/BatchNorm/moving_variance", "shape": [128], "dtype": "float32"}, {"name": "MobileFaceNet/Conv_5/weights", "shape": [1, 1, 64, 128], "dtype": "float32"}, {"name": "MobileFaceNet/Conv_5/BatchNorm/gamma", "shape": [128], "dtype": "float32"}, {"name": "MobileFaceNet/Conv_5/BatchNorm/beta", "shape": [128], "dtype": "float32"}, {"name": "MobileFaceNet/MobileFaceNet/Conv2d_2_InvResBlock_2/Conv/mul", "shape": [128], "dtype": "float32"}, {"name": "MobileFaceNet/SeparableConv2d_3/depthwise_weights", "shape": [3, 3, 128, 1], "dtype": "float32"}, {"name": "MobileFaceNet/SeparableConv2d_3/BatchNorm/gamma", "shape": [128], "dtype": "float32"}, {"name": "MobileFaceNet/SeparableConv2d_3/BatchNorm/beta", "shape": [128], "dtype": "float32"}, {"name": "MobileFaceNet/MobileFaceNet/Conv2d_2_InvResBlock_2/SeparableConv2d/mul", "shape": [128], "dtype": "float32"}, {"name": "MobileFaceNet/Conv_6/weights", "shape": [1, 1, 128, 64], "dtype": "float32"}, {"name": "MobileFaceNet/Conv_6/BatchNorm/gamma", "shape": [64], "dtype": "float32"}, {"name": "MobileFaceNet/Conv_6/BatchNorm/beta", "shape": [64], "dtype": "float32"}, {"name": "MobileFaceNet/Conv_4/BatchNorm/moving_mean", "shape": [64], "dtype": "float32"}, {"name": "MobileFaceNet/Conv_4/BatchNorm/moving_variance", "shape": [64], "dtype": "float32"}, {"name": "MobileFaceNet/SeparableConv2d_2/BatchNorm/moving_mean", "shape": [128], "dtype": "float32"}, {"name": "MobileFaceNet/SeparableConv2d_2/BatchNorm/moving_variance", "shape": [128], "dtype": "float32"}, {"name": "MobileFaceNet/Conv_3/BatchNorm/moving_mean", "shape": [128], "dtype": "float32"}, {"name": "MobileFaceNet/Conv_3/BatchNorm/moving_variance", "shape": [128], "dtype": "float32"}, {"name": "MobileFaceNet/Conv_3/weights", "shape": [1, 1, 64, 128], "dtype": "float32"}, {"name": "MobileFaceNet/Conv_3/BatchNorm/gamma", "shape": [128], "dtype": "float32"}, {"name": "MobileFaceNet/Conv_3/BatchNorm/beta", "shape": [128], "dtype": "float32"}, {"name": "MobileFaceNet/MobileFaceNet/Conv2d_2_InvResBlock_1/Conv/mul", "shape": [128], "dtype": "float32"}, {"name": "MobileFaceNet/SeparableConv2d_2/depthwise_weights", "shape": [3, 3, 128, 1], "dtype": "float32"}, {"name": "MobileFaceNet/SeparableConv2d_2/BatchNorm/gamma", "shape": [128], "dtype": "float32"}, {"name": "MobileFaceNet/SeparableConv2d_2/BatchNorm/beta", "shape": [128], "dtype": "float32"}, {"name": "MobileFaceNet/MobileFaceNet/Conv2d_2_InvResBlock_1/SeparableConv2d/mul", "shape": [128], "dtype": "float32"}, {"name": "MobileFaceNet/Conv_4/weights", "shape": [1, 1, 128, 64], "dtype": "float32"}, {"name": "MobileFaceNet/Conv_4/BatchNorm/gamma", "shape": [64], "dtype": "float32"}, {"name": "MobileFaceNet/Conv_4/BatchNorm/beta", "shape": [64], "dtype": "float32"}, {"name": "MobileFaceNet/Conv_2/BatchNorm/moving_mean", "shape": [64], "dtype": "float32"}, {"name": "MobileFaceNet/Conv_2/BatchNorm/moving_variance", "shape": [64], "dtype": "float32"}, {"name": "MobileFaceNet/SeparableConv2d_1/BatchNorm/moving_mean", "shape": [128], "dtype": "float32"}, {"name": "MobileFaceNet/SeparableConv2d_1/BatchNorm/moving_variance", "shape": [128], "dtype": "float32"}, {"name": "MobileFaceNet/Conv_1/BatchNorm/moving_mean", "shape": [128], "dtype": "float32"}, {"name": "MobileFaceNet/Conv_1/BatchNorm/moving_variance", "shape": [128], "dtype": "float32"}, {"name": "MobileFaceNet/Conv/BatchNorm/moving_mean", "shape": [64], "dtype": "float32"}, {"name": "MobileFaceNet/Conv/BatchNorm/moving_variance", "shape": [64], "dtype": "float32"}, {"name": "MobileFaceNet/SeparableConv2d/BatchNorm/moving_mean", "shape": [64], "dtype": "float32"}, {"name": "MobileFaceNet/SeparableConv2d/BatchNorm/moving_variance", "shape": [64], "dtype": "float32"}, {"name": "MobileFaceNet/Conv2d_0/BatchNorm/moving_mean", "shape": [64], "dtype": "float32"}, {"name": "MobileFaceNet/Conv2d_0/BatchNorm/moving_variance", "shape": [64], "dtype": "float32"}, {"name": "MobileFaceNet/Conv2d_0/weights", "shape": [3, 3, 3, 64], "dtype": "float32"}, {"name": "MobileFaceNet/Conv2d_0/BatchNorm/gamma", "shape": [64], "dtype": "float32"}, {"name": "MobileFaceNet/Conv2d_0/BatchNorm/beta", "shape": [64], "dtype": "float32"}, {"name": "MobileFaceNet/MobileFaceNet/Conv2d_0/mul", "shape": [64], "dtype": "float32"}, {"name": "MobileFaceNet/SeparableConv2d/depthwise_weights", "shape": [3, 3, 64, 1], "dtype": "float32"}, {"name": "MobileFaceNet/SeparableConv2d/BatchNorm/gamma", "shape": [64], "dtype": "float32"}, {"name": "MobileFaceNet/SeparableConv2d/BatchNorm/beta", "shape": [64], "dtype": "float32"}, {"name": "MobileFaceNet/MobileFaceNet/SeparableConv2d/mul", "shape": [64], "dtype": "float32"}, {"name": "MobileFaceNet/Conv/weights", "shape": [1, 1, 64, 64], "dtype": "float32"}, {"name": "MobileFaceNet/Conv/BatchNorm/gamma", "shape": [64], "dtype": "float32"}, {"name": "MobileFaceNet/Conv/BatchNorm/beta", "shape": [64], "dtype": "float32"}, {"name": "MobileFaceNet/Conv_1/weights", "shape": [1, 1, 64, 128], "dtype": "float32"}, {"name": "MobileFaceNet/Conv_1/BatchNorm/gamma", "shape": [128], "dtype": "float32"}, {"name": "MobileFaceNet/Conv_1/BatchNorm/beta", "shape": [128], "dtype": "float32"}, {"name": "MobileFaceNet/MobileFaceNet/Conv2d_2_InvResBlock_0/Conv/mul", "shape": [128], "dtype": "float32"}, {"name": "MobileFaceNet/SeparableConv2d_1/depthwise_weights", "shape": [3, 3, 128, 1], "dtype": "float32"}, {"name": "MobileFaceNet/SeparableConv2d_1/BatchNorm/gamma", "shape": [128], "dtype": "float32"}, {"name": "MobileFaceNet/SeparableConv2d_1/BatchNorm/beta", "shape": [128], "dtype": "float32"}, {"name": "MobileFaceNet/MobileFaceNet/Conv2d_2_InvResBlock_0/SeparableConv2d/mul", "shape": [128], "dtype": "float32"}, {"name": "MobileFaceNet/Conv_2/weights", "shape": [1, 1, 128, 64], "dtype": "float32"}, {"name": "MobileFaceNet/Conv_2/BatchNorm/gamma", "shape": [64], "dtype": "float32"}, {"name": "MobileFaceNet/Conv_2/BatchNorm/beta", "shape": [64], "dtype": "float32"}, {"name": "MobileFaceNet/Conv_11/weights", "shape": [1, 1, 64, 256], "dtype": "float32"}, {"name": "MobileFaceNet/Conv_11/BatchNorm/gamma", "shape": [256], "dtype": "float32"}, {"name": "MobileFaceNet/Conv_11/BatchNorm/beta", "shape": [256], "dtype": "float32"}, {"name": "MobileFaceNet/MobileFaceNet/Conv2d_3_InvResBlock_0/Conv/mul", "shape": [256], "dtype": "float32"}, {"name": "MobileFaceNet/SeparableConv2d_6/depthwise_weights", "shape": [3, 3, 256, 1], "dtype": "float32"}, {"name": "MobileFaceNet/SeparableConv2d_6/BatchNorm/gamma", "shape": [256], "dtype": "float32"}, {"name": "MobileFaceNet/SeparableConv2d_6/BatchNorm/beta", "shape": [256], "dtype": "float32"}, {"name": "MobileFaceNet/MobileFaceNet/Conv2d_3_InvResBlock_0/SeparableConv2d/mul", "shape": [256], "dtype": "float32"}, {"name": "MobileFaceNet/Conv_12/weights", "shape": [1, 1, 256, 128], "dtype": "float32"}, {"name": "MobileFaceNet/Conv_12/BatchNorm/gamma", "shape": [128], "dtype": "float32"}, {"name": "MobileFaceNet/Conv_12/BatchNorm/beta", "shape": [128], "dtype": "float32"}, {"name": "MobileFaceNet/Conv_25/weights", "shape": [1, 1, 128, 512], "dtype": "float32"}, {"name": "MobileFaceNet/Conv_25/BatchNorm/gamma", "shape": [512], "dtype": "float32"}, {"name": "MobileFaceNet/Conv_25/BatchNorm/beta", "shape": [512], "dtype": "float32"}, {"name": "MobileFaceNet/MobileFaceNet/Conv2d_5_InvResBlock_0/Conv/mul", "shape": [512], "dtype": "float32"}, {"name": "MobileFaceNet/SeparableConv2d_13/depthwise_weights", "shape": [3, 3, 512, 1], "dtype": "float32"}, {"name": "MobileFaceNet/SeparableConv2d_13/BatchNorm/gamma", "shape": [512], "dtype": "float32"}, {"name": "MobileFaceNet/SeparableConv2d_13/BatchNorm/beta", "shape": [512], "dtype": "float32"}, {"name": "MobileFaceNet/MobileFaceNet/Conv2d_5_InvResBlock_0/SeparableConv2d/mul", "shape": [512], "dtype": "float32"}, {"name": "MobileFaceNet/Conv_26/weights", "shape": [1, 1, 512, 128], "dtype": "float32"}, {"name": "MobileFaceNet/Conv_26/BatchNorm/gamma", "shape": [128], "dtype": "float32"}, {"name": "MobileFaceNet/Conv_26/BatchNorm/beta", "shape": [128], "dtype": "float32"}, {"name": "MobileFaceNet/Conv2d_7/weights", "shape": [1, 1, 128, 512], "dtype": "float32"}, {"name": "MobileFaceNet/Conv2d_7/BatchNorm/gamma", "shape": [512], "dtype": "float32"}, {"name": "MobileFaceNet/Conv2d_7/BatchNorm/beta", "shape": [512], "dtype": "float32"}, {"name": "MobileFaceNet/MobileFaceNet/Conv2d_7/mul", "shape": [512], "dtype": "float32"}, {"name": "MobileFaceNet/Logits/SeparableConv2d/depthwise_weights", "shape": [7, 7, 512, 1], "dtype": "float32"}, {"name": "MobileFaceNet/Logits/SeparableConv2d/BatchNorm/gamma", "shape": [512], "dtype": "float32"}, {"name": "MobileFaceNet/Logits/SeparableConv2d/BatchNorm/beta", "shape": [512], "dtype": "float32"}, {"name": "MobileFaceNet/Logits/Conv/weights", "shape": [1, 1, 512, 512], "dtype": "float32"}, {"name": "MobileFaceNet/Logits/Conv/BatchNorm/gamma", "shape": [512], "dtype": "float32"}, {"name": "MobileFaceNet/Logits/Conv/BatchNorm/beta", "shape": [512], "dtype": "float32"}, {"name": "MobileFaceNet/Logits/LinearConv1x1/weights", "shape": [1, 1, 512, 128], "dtype": "float32"}, {"name": "MobileFaceNet/Logits/LinearConv1x1/BatchNorm/gamma", "shape": [128], "dtype": "float32"}, {"name": "MobileFaceNet/Logits/LinearConv1x1/BatchNorm/beta", "shape": [128], "dtype": "float32"}, {"name": "Const", "shape": [], "dtype": "bool"}, {"name": "embeddings/Sum/reduction_indices", "shape": [], "dtype": "int32"}, {"name": "embeddings/Maximum/y", "shape": [], "dtype": "float32"}, {"name": "MobileFaceNet/MobileFaceNet/Conv2d_6_InvResBlock_1/Conv/BatchNorm/cond/Const", "shape": [0], "dtype": "float32"}, {"name": "MobileFaceNet/MobileFaceNet/Conv2d_6_InvResBlock_1/Conv/BatchNorm/cond/Const_1", "shape": [0], "dtype": "float32"}, {"name": "MobileFaceNet/MobileFaceNet/Conv2d_6_InvResBlock_1/SeparableConv2d/BatchNorm/cond/Const", "shape": [0], "dtype": "float32"}, {"name": "MobileFaceNet/MobileFaceNet/Conv2d_6_InvResBlock_1/SeparableConv2d/BatchNorm/cond/Const_1", "shape": [0], "dtype": "float32"}, {"name": "MobileFaceNet/MobileFaceNet/Conv2d_6_InvResBlock_1/Conv_1/BatchNorm/cond/Const", "shape": [0], "dtype": "float32"}, {"name": "MobileFaceNet/MobileFaceNet/Conv2d_6_InvResBlock_1/Conv_1/BatchNorm/cond/Const_1", "shape": [0], "dtype": "float32"}, {"name": "MobileFaceNet/MobileFaceNet/Conv2d_6_InvResBlock_0/Conv/BatchNorm/cond/Const", "shape": [0], "dtype": "float32"}, {"name": "MobileFaceNet/MobileFaceNet/Conv2d_6_InvResBlock_0/Conv/BatchNorm/cond/Const_1", "shape": [0], "dtype": "float32"}, {"name": "MobileFaceNet/MobileFaceNet/Conv2d_6_InvResBlock_0/SeparableConv2d/BatchNorm/cond/Const", "shape": [0], "dtype": "float32"}, {"name": "MobileFaceNet/MobileFaceNet/Conv2d_6_InvResBlock_0/SeparableConv2d/BatchNorm/cond/Const_1", "shape": [0], "dtype": "float32"}, {"name": "MobileFaceNet/MobileFaceNet/Conv2d_6_InvResBlock_0/Conv_1/BatchNorm/cond/Const", "shape": [0], "dtype": "float32"}, {"name": "MobileFaceNet/MobileFaceNet/Conv2d_6_InvResBlock_0/Conv_1/BatchNorm/cond/Const_1", "shape": [0], "dtype": "float32"}, {"name": "MobileFaceNet/MobileFaceNet/Conv2d_4_InvResBlock_5/Conv/BatchNorm/cond/Const", "shape": [0], "dtype": "float32"}, {"name": "MobileFaceNet/MobileFaceNet/Conv2d_4_InvResBlock_5/Conv/BatchNorm/cond/Const_1", "shape": [0], "dtype": "float32"}, {"name": "MobileFaceNet/MobileFaceNet/Conv2d_4_InvResBlock_5/SeparableConv2d/BatchNorm/cond/Const", "shape": [0], "dtype": "float32"}, {"name": "MobileFaceNet/MobileFaceNet/Conv2d_4_InvResBlock_5/SeparableConv2d/BatchNorm/cond/Const_1", "shape": [0], "dtype": "float32"}, {"name": "MobileFaceNet/MobileFaceNet/Conv2d_4_InvResBlock_5/Conv_1/BatchNorm/cond/Const", "shape": [0], "dtype": "float32"}, {"name": "MobileFaceNet/MobileFaceNet/Conv2d_4_InvResBlock_5/Conv_1/BatchNorm/cond/Const_1", "shape": [0], "dtype": "float32"}, {"name": "MobileFaceNet/MobileFaceNet/Conv2d_4_InvResBlock_4/Conv/BatchNorm/cond/Const", "shape": [0], "dtype": "float32"}, {"name": "MobileFaceNet/MobileFaceNet/Conv2d_4_InvResBlock_4/Conv/BatchNorm/cond/Const_1", "shape": [0], "dtype": "float32"}, {"name": "MobileFaceNet/MobileFaceNet/Conv2d_4_InvResBlock_4/SeparableConv2d/BatchNorm/cond/Const", "shape": [0], "dtype": "float32"}, {"name": "MobileFaceNet/MobileFaceNet/Conv2d_4_InvResBlock_4/SeparableConv2d/BatchNorm/cond/Const_1", "shape": [0], "dtype": "float32"}, {"name": "MobileFaceNet/MobileFaceNet/Conv2d_4_InvResBlock_4/Conv_1/BatchNorm/cond/Const", "shape": [0], "dtype": "float32"}, {"name": "MobileFaceNet/MobileFaceNet/Conv2d_4_InvResBlock_4/Conv_1/BatchNorm/cond/Const_1", "shape": [0], "dtype": "float32"}, {"name": "MobileFaceNet/MobileFaceNet/Conv2d_4_InvResBlock_3/Conv/BatchNorm/cond/Const", "shape": [0], "dtype": "float32"}, {"name": "MobileFaceNet/MobileFaceNet/Conv2d_4_InvResBlock_3/Conv/BatchNorm/cond/Const_1", "shape": [0], "dtype": "float32"}, {"name": "MobileFaceNet/MobileFaceNet/Conv2d_4_InvResBlock_3/SeparableConv2d/BatchNorm/cond/Const", "shape": [0], "dtype": "float32"}, {"name": "MobileFaceNet/MobileFaceNet/Conv2d_4_InvResBlock_3/SeparableConv2d/BatchNorm/cond/Const_1", "shape": [0], "dtype": "float32"}, {"name": "MobileFaceNet/MobileFaceNet/Conv2d_4_InvResBlock_3/Conv_1/BatchNorm/cond/Const", "shape": [0], "dtype": "float32"}, {"name": "MobileFaceNet/MobileFaceNet/Conv2d_4_InvResBlock_3/Conv_1/BatchNorm/cond/Const_1", "shape": [0], "dtype": "float32"}, {"name": "MobileFaceNet/MobileFaceNet/Conv2d_4_InvResBlock_2/Conv/BatchNorm/cond/Const", "shape": [0], "dtype": "float32"}, {"name": "MobileFaceNet/MobileFaceNet/Conv2d_4_InvResBlock_2/Conv/BatchNorm/cond/Const_1", "shape": [0], "dtype": "float32"}, {"name": "MobileFaceNet/MobileFaceNet/Conv2d_4_InvResBlock_2/SeparableConv2d/BatchNorm/cond/Const", "shape": [0], "dtype": "float32"}, {"name": "MobileFaceNet/MobileFaceNet/Conv2d_4_InvResBlock_2/SeparableConv2d/BatchNorm/cond/Const_1", "shape": [0], "dtype": "float32"}, {"name": "MobileFaceNet/MobileFaceNet/Conv2d_4_InvResBlock_2/Conv_1/BatchNorm/cond/Const", "shape": [0], "dtype": "float32"}, {"name": "MobileFaceNet/MobileFaceNet/Conv2d_4_InvResBlock_2/Conv_1/BatchNorm/cond/Const_1", "shape": [0], "dtype": "float32"}, {"name": "MobileFaceNet/MobileFaceNet/Conv2d_4_InvResBlock_1/Conv/BatchNorm/cond/Const", "shape": [0], "dtype": "float32"}, {"name": "MobileFaceNet/MobileFaceNet/Conv2d_4_InvResBlock_1/Conv/BatchNorm/cond/Const_1", "shape": [0], "dtype": "float32"}, {"name": "MobileFaceNet/MobileFaceNet/Conv2d_4_InvResBlock_1/SeparableConv2d/BatchNorm/cond/Const", "shape": [0], "dtype": "float32"}, {"name": "MobileFaceNet/MobileFaceNet/Conv2d_4_InvResBlock_1/SeparableConv2d/BatchNorm/cond/Const_1", "shape": [0], "dtype": "float32"}, {"name": "MobileFaceNet/MobileFaceNet/Conv2d_4_InvResBlock_1/Conv_1/BatchNorm/cond/Const", "shape": [0], "dtype": "float32"}, {"name": "MobileFaceNet/MobileFaceNet/Conv2d_4_InvResBlock_1/Conv_1/BatchNorm/cond/Const_1", "shape": [0], "dtype": "float32"}, {"name": "MobileFaceNet/MobileFaceNet/Conv2d_4_InvResBlock_0/Conv/BatchNorm/cond/Const", "shape": [0], "dtype": "float32"}, {"name": "MobileFaceNet/MobileFaceNet/Conv2d_4_InvResBlock_0/Conv/BatchNorm/cond/Const_1", "shape": [0], "dtype": "float32"}, {"name": "MobileFaceNet/MobileFaceNet/Conv2d_4_InvResBlock_0/SeparableConv2d/BatchNorm/cond/Const", "shape": [0], "dtype": "float32"}, {"name": "MobileFaceNet/MobileFaceNet/Conv2d_4_InvResBlock_0/SeparableConv2d/BatchNorm/cond/Const_1", "shape": [0], "dtype": "float32"}, {"name": "MobileFaceNet/MobileFaceNet/Conv2d_4_InvResBlock_0/Conv_1/BatchNorm/cond/Const", "shape": [0], "dtype": "float32"}, {"name": "MobileFaceNet/MobileFaceNet/Conv2d_4_InvResBlock_0/Conv_1/BatchNorm/cond/Const_1", "shape": [0], "dtype": "float32"}, {"name": "MobileFaceNet/MobileFaceNet/Conv2d_2_InvResBlock_4/Conv/BatchNorm/cond/Const", "shape": [0], "dtype": "float32"}, {"name": "MobileFaceNet/MobileFaceNet/Conv2d_2_InvResBlock_4/Conv/BatchNorm/cond/Const_1", "shape": [0], "dtype": "float32"}, {"name": "MobileFaceNet/MobileFaceNet/Conv2d_2_InvResBlock_4/SeparableConv2d/BatchNorm/cond/Const", "shape": [0], "dtype": "float32"}, {"name": "MobileFaceNet/MobileFaceNet/Conv2d_2_InvResBlock_4/SeparableConv2d/BatchNorm/cond/Const_1", "shape": [0], "dtype": "float32"}, {"name": "MobileFaceNet/MobileFaceNet/Conv2d_2_InvResBlock_4/Conv_1/BatchNorm/cond/Const", "shape": [0], "dtype": "float32"}, {"name": "MobileFaceNet/MobileFaceNet/Conv2d_2_InvResBlock_4/Conv_1/BatchNorm/cond/Const_1", "shape": [0], "dtype": "float32"}, {"name": "MobileFaceNet/MobileFaceNet/Conv2d_2_InvResBlock_3/Conv/BatchNorm/cond/Const", "shape": [0], "dtype": "float32"}, {"name": "MobileFaceNet/MobileFaceNet/Conv2d_2_InvResBlock_3/Conv/BatchNorm/cond/Const_1", "shape": [0], "dtype": "float32"}, {"name": "MobileFaceNet/MobileFaceNet/Conv2d_2_InvResBlock_3/SeparableConv2d/BatchNorm/cond/Const", "shape": [0], "dtype": "float32"}, {"name": "MobileFaceNet/MobileFaceNet/Conv2d_2_InvResBlock_3/SeparableConv2d/BatchNorm/cond/Const_1", "shape": [0], "dtype": "float32"}, {"name": "MobileFaceNet/MobileFaceNet/Conv2d_2_InvResBlock_3/Conv_1/BatchNorm/cond/Const", "shape": [0], "dtype": "float32"}, {"name": "MobileFaceNet/MobileFaceNet/Conv2d_2_InvResBlock_3/Conv_1/BatchNorm/cond/Const_1", "shape": [0], "dtype": "float32"}, {"name": "MobileFaceNet/MobileFaceNet/Conv2d_2_InvResBlock_2/Conv/BatchNorm/cond/Const", "shape": [0], "dtype": "float32"}, {"name": "MobileFaceNet/MobileFaceNet/Conv2d_2_InvResBlock_2/Conv/BatchNorm/cond/Const_1", "shape": [0], "dtype": "float32"}, {"name": "MobileFaceNet/MobileFaceNet/Conv2d_2_InvResBlock_2/SeparableConv2d/BatchNorm/cond/Const", "shape": [0], "dtype": "float32"}, {"name": "MobileFaceNet/MobileFaceNet/Conv2d_2_InvResBlock_2/SeparableConv2d/BatchNorm/cond/Const_1", "shape": [0], "dtype": "float32"}, {"name": "MobileFaceNet/MobileFaceNet/Conv2d_2_InvResBlock_2/Conv_1/BatchNorm/cond/Const", "shape": [0], "dtype": "float32"}, {"name": "MobileFaceNet/MobileFaceNet/Conv2d_2_InvResBlock_2/Conv_1/BatchNorm/cond/Const_1", "shape": [0], "dtype": "float32"}, {"name": "MobileFaceNet/MobileFaceNet/Conv2d_2_InvResBlock_1/Conv/BatchNorm/cond/Const", "shape": [0], "dtype": "float32"}, {"name": "MobileFaceNet/MobileFaceNet/Conv2d_2_InvResBlock_1/Conv/BatchNorm/cond/Const_1", "shape": [0], "dtype": "float32"}, {"name": "MobileFaceNet/MobileFaceNet/Conv2d_2_InvResBlock_1/SeparableConv2d/BatchNorm/cond/Const", "shape": [0], "dtype": "float32"}, {"name": "MobileFaceNet/MobileFaceNet/Conv2d_2_InvResBlock_1/SeparableConv2d/BatchNorm/cond/Const_1", "shape": [0], "dtype": "float32"}, {"name": "MobileFaceNet/MobileFaceNet/Conv2d_2_InvResBlock_1/Conv_1/BatchNorm/cond/Const", "shape": [0], "dtype": "float32"}, {"name": "MobileFaceNet/MobileFaceNet/Conv2d_2_InvResBlock_1/Conv_1/BatchNorm/cond/Const_1", "shape": [0], "dtype": "float32"}, {"name": "MobileFaceNet/MobileFaceNet/Conv2d_0/BatchNorm/cond/Const", "shape": [0], "dtype": "float32"}, {"name": "MobileFaceNet/MobileFaceNet/Conv2d_0/BatchNorm/cond/Const_1", "shape": [0], "dtype": "float32"}, {"name": "MobileFaceNet/MobileFaceNet/SeparableConv2d/BatchNorm/cond/Const", "shape": [0], "dtype": "float32"}, {"name": "MobileFaceNet/MobileFaceNet/SeparableConv2d/BatchNorm/cond/Const_1", "shape": [0], "dtype": "float32"}, {"name": "MobileFaceNet/MobileFaceNet/Conv/BatchNorm/cond/Const", "shape": [0], "dtype": "float32"}, {"name": "MobileFaceNet/MobileFaceNet/Conv/BatchNorm/cond/Const_1", "shape": [0], "dtype": "float32"}, {"name": "MobileFaceNet/MobileFaceNet/Conv2d_2_InvResBlock_0/Conv/BatchNorm/cond/Const", "shape": [0], "dtype": "float32"}, {"name": "MobileFaceNet/MobileFaceNet/Conv2d_2_InvResBlock_0/Conv/BatchNorm/cond/Const_1", "shape": [0], "dtype": "float32"}, {"name": "MobileFaceNet/MobileFaceNet/Conv2d_2_InvResBlock_0/SeparableConv2d/BatchNorm/cond/Const", "shape": [0], "dtype": "float32"}, {"name": "MobileFaceNet/MobileFaceNet/Conv2d_2_InvResBlock_0/SeparableConv2d/BatchNorm/cond/Const_1", "shape": [0], "dtype": "float32"}, {"name": "MobileFaceNet/MobileFaceNet/Conv2d_2_InvResBlock_0/Conv_1/BatchNorm/cond/Const", "shape": [0], "dtype": "float32"}, {"name": "MobileFaceNet/MobileFaceNet/Conv2d_2_InvResBlock_0/Conv_1/BatchNorm/cond/Const_1", "shape": [0], "dtype": "float32"}, {"name": "MobileFaceNet/MobileFaceNet/Conv2d_3_InvResBlock_0/Conv/BatchNorm/cond/Const", "shape": [0], "dtype": "float32"}, {"name": "MobileFaceNet/MobileFaceNet/Conv2d_3_InvResBlock_0/Conv/BatchNorm/cond/Const_1", "shape": [0], "dtype": "float32"}, {"name": "MobileFaceNet/MobileFaceNet/Conv2d_3_InvResBlock_0/SeparableConv2d/BatchNorm/cond/Const", "shape": [0], "dtype": "float32"}, {"name": "MobileFaceNet/MobileFaceNet/Conv2d_3_InvResBlock_0/SeparableConv2d/BatchNorm/cond/Const_1", "shape": [0], "dtype": "float32"}, {"name": "MobileFaceNet/MobileFaceNet/Conv2d_3_InvResBlock_0/Conv_1/BatchNorm/cond/Const", "shape": [0], "dtype": "float32"}, {"name": "MobileFaceNet/MobileFaceNet/Conv2d_3_InvResBlock_0/Conv_1/BatchNorm/cond/Const_1", "shape": [0], "dtype": "float32"}, {"name": "MobileFaceNet/MobileFaceNet/Conv2d_5_InvResBlock_0/Conv/BatchNorm/cond/Const", "shape": [0], "dtype": "float32"}, {"name": "MobileFaceNet/MobileFaceNet/Conv2d_5_InvResBlock_0/Conv/BatchNorm/cond/Const_1", "shape": [0], "dtype": "float32"}, {"name": "MobileFaceNet/MobileFaceNet/Conv2d_5_InvResBlock_0/SeparableConv2d/BatchNorm/cond/Const", "shape": [0], "dtype": "float32"}, {"name": "MobileFaceNet/MobileFaceNet/Conv2d_5_InvResBlock_0/SeparableConv2d/BatchNorm/cond/Const_1", "shape": [0], "dtype": "float32"}, {"name": "MobileFaceNet/MobileFaceNet/Conv2d_5_InvResBlock_0/Conv_1/BatchNorm/cond/Const", "shape": [0], "dtype": "float32"}, {"name": "MobileFaceNet/MobileFaceNet/Conv2d_5_InvResBlock_0/Conv_1/BatchNorm/cond/Const_1", "shape": [0], "dtype": "float32"}, {"name": "MobileFaceNet/MobileFaceNet/Conv2d_7/BatchNorm/cond/Const", "shape": [0], "dtype": "float32"}, {"name": "MobileFaceNet/MobileFaceNet/Conv2d_7/BatchNorm/cond/Const_1", "shape": [0], "dtype": "float32"}, {"name": "MobileFaceNet/Logits/SeparableConv2d/BatchNorm/cond/Const", "shape": [0], "dtype": "float32"}, {"name": "MobileFaceNet/Logits/SeparableConv2d/BatchNorm/cond/Const_1", "shape": [0], "dtype": "float32"}, {"name": "MobileFaceNet/Logits/Conv/BatchNorm/cond/Const", "shape": [0], "dtype": "float32"}, {"name": "MobileFaceNet/Logits/Conv/BatchNorm/cond/Const_1", "shape": [0], "dtype": "float32"}, {"name": "MobileFaceNet/Logits/LinearConv1x1/BatchNorm/cond/Const", "shape": [0], "dtype": "float32"}, {"name": "MobileFaceNet/Logits/LinearConv1x1/BatchNorm/cond/Const_1", "shape": [0], "dtype": "float32"}]}]}
